gru1.ckpt (torch, 887354 bytes, 15 tensors)

gru.weight_ih_l0 f4 [384, 53]
00000000: bb5a b9bd adde 843b 4b2f d13c b93d 7abd
00000010: 0346 d8bc cf30 693c b538 86bc 3f84 e0ba
00000020: f103 883d 4d77 b83d 11cf 7abd e666 0bbd
00000030: c539 c23c 7201 e8bd 46c0 9dbd b6b5 cfbc
00000040: 69bc c23d cf42 8ebd 82c3 8a3d 706d b83a
00000050: 630d 98bd e8f3 7d3d 6b36 613a 0ba0 d83d
00000060: 599b 9a3d 09d2 2ebc 60ed c0bb ee47 a93d
00000070: ac0c 4c3d 313b ac3d 9943 873d 3d23 4d3d
00000080: 9ea6 8cbd bd8b 2fbd 8053 a03d b355 21bd
00000090: 00c3 6fbd dc11 9dbd 9101 53bc eddd c9bb
000000a0: 41ad 99bc 1081 aebc 20fc 8bbd 1c54 963d
000000b0: 027e eebc 1bce 64bd ef3a ab3d 914f 1f3d
000000c0: 17e6 edbc 60cb 8d3d a897 9f3d e3d9 8d3d
000000d0: 21cf 803c 9ab9 bd3d 59d4 113d e281 8bbd
000000e0: 6c11 22be 85ad 003e 3f82 063e c2d0 843d
000000f0: 6a79 92bc e9dd c1bd cca5 0abe 640a f5bb
00000100: 9c9a 3d3c b563 1c3e 1d82 5c3c e7eb a1bb
00000110: 83a8 0bbe 3134 8e3d 043d 1cbe 2f60 0ebe
00000120: 0519 523e e768 e2bd e147 383d 4013 1bbe
00000130: e917 3f3e 64bf c33d 08c0 803d e9b6 933d
00000140: aa07 96bd 8967 9d3d c3cc 5dbc a43f 4c3d
00000150: 5ab0 a53d 1f01 9d3c 582d 17bd edd7 89bd
00000160: d5e3 723c 4738 90bd 5be8 9a3d 6fad cfbc
00000170: 3f52 9fbd c517 32bb 196f 6d3d 3a18 af3d
00000180: 61f0 6abb 3956 a73d 6c95 63bd b709 a8bd
00000190: 078c 853d a78d c4bc 850a 5f3d 25f4 93bd
000001a0: 28dc 8cbd f896 e53d 1b71 f93c 40cb aa3c
000001b0: af22 5e3c 387f 833d fc7a e6bc 0a48 c7bd
000001c0: f94b eabb e35e 183d 5e08 35bd 5bc2 f73d
000001d0: a94b 773d a34f b33d 1109 35bd 2ec3 8cbd
000001e0: 84b3 1b3d 0e48 7d3c e33e 2dbd ffb0 12be
000001f0: 462c 323d 6ffa 643c 4422 babb 4b44 253d
00000200: 4b09 f1bd 3f5f 873d 764a 043d addb 043e
00000210: 539f 8abd c498 d13b f38b 6ebc 5738 b2bd
00000220: 7917 b039 4e39 853d 8ac2 64bd 626a 23bd
00000230: f069 efbc a0e8 8c3d 1432 10bd aa96 5c3d
00000240: 21e4 05bd de6a 8c3d 8217 963d 7faa 4dbd
00000250: 73ad 353d f70f 0bbd d607 ae3d a10f 713d
00000260: c3f0 953d 7a49 32bd b070 b63c efba 3d3d
00000270: 7c9b 9e3d ff96 d5bc 85c2 aa3c 80a9 abbd
00000280: 1318 65bd 42d1 88bd dca0 c8bd 28a1 dfbd
00000290: e0d0 64bd cd58 363d 7db0 46bb ae5c 13bd
000002a0: bf32 963c c797 56bd be23 083e 8502 443b
000002b0: cdf7 7bbd c612 84bd d50e 573d 9d10 fe3d
000002c0: 237b 153d 3f93 213c 736c 693b fa72 1d3d
000002d0: cda4 983d 9757 0dbc 440a 8a3d e02a 5dbd
000002e0: a294 f83d 6a40 943d 0fcb 983d b409 bdbc
000002f0: 743c b4bd 5605 573d 263e b23d efd7 613d
00000300: 52dd cf3c 4ea7 4d3d 12eb ca3c 0f0b 913b
00000310: 476b a7bd b742 363d edf2 e13b aaab 06bd
00000320: 7ff1 a53c 599f 92bd 68f8 b0bd 6315 f93b
00000330: 1d0a 81bd 36b3 453c 07ab a7bd 2886 9bbc
00000340: f530 15ba 84de 573c 1a05 92bd 4e22 453d
00000350: 72c3 febd 619d 9b3d eedc bcbd 57bf bebd
00000360: 1d86 233d f7c8 e2bc 886a 9abb 3e6d b63d
00000370: 4f88 773d f705 80bd 82b7 27bd 7409 4fbd
00000380: e692 62bd 8294 2fbd d1f4 bb3d 9c31 a93c
00000390: f1f3 83bc edbc b6bd 1d69 a63c 0482 5b3c
000003a0: 5612 d33d 5fbf 493c ca26 edbd 5f0e cb3d
000003b0: 5e81 a3bc c0c6 42bc e110 b1bc 476f cfbc
000003c0: f66c e3bb da19 a03d c643 9b3c f296 a13d
000003d0: 0ed7 0c3d dfe1 4d3d b00f 9cbc 2bac c43c
000003e0: 07b8 503d 8afd 773d d940 213d c9fe 9dbd
000003f0: 3bd7 493d 0e5a 7d3d 44a9 693d 3c71 993d
-0.090505086 0.0040548653 0.025535246 -0.06109402 -0.026400572 0.014232828 -0.016384462 -0.0017129256
0.06641377 0.0900713 -0.06123263 -0.03403368 0.023709187 -0.11328401 -0.07702689 -0.025355201
0.09508593 -0.069463365 0.067755714 0.0014070701 -0.07424428 0.062000185 0.0008591178 0.10577401
0.075491615 -0.0106701935 -0.0058876723 0.082656726 0.049816772 0.08409727 0.0660469 0.050082434
-0.06867717 -0.042857874 0.07828426 -0.03938837 -0.058535576 -0.07669422 -0.012878791 -0.006160489
-0.018759372 -0.021301776 -0.068351984 0.07340261 -0.02911282 -0.05586062 0.0836085 0.03889424
-0.02904038 0.06923556 0.07792598 0.06926324 0.015723767 0.09263916 0.0356029 -0.068118826
-0.15826958 0.12566192 0.13135622 0.0648513 -0.01788016 -0.09466154 -0.13539809 -0.0074780453
0.011572506 0.1527241 0.013458756 -0.004941452 -0.13638501 0.069435485 -0.1525765 -0.13903879
0.20517357 -0.11055165 0.044990424 -0.15144062 0.18661465 0.09557989 0.06286627 0.07212622
-0.073256806 0.076857634 -0.0135375885 0.04986538 0.08090277 0.019165574 -0.036908478 -0.06730638
0.014824827 -0.07041984 0.075638495 -0.025351254 -0.07779359 -0.0027174812 0.05796728 0.08549543
-0.0035848843 0.081707425 -0.05556242 -0.08204978 0.06520849 -0.023993326 0.05445339 -0.07224301
-0.06877929 0.11210436 0.03044944 0.02084887 0.013558074 0.064207494 -0.028134815 -0.09730537
-0.00715017 0.037199866 -0.044197433 0.12097617 0.06037489 0.08755424 -0.0441981 -0.06873165
0.038012996 0.015459074 -0.0422963 -0.14325331 0.043499254 0.013975724 -0.0056803543 0.040348332
-0.117693506 0.066099636 0.032297574 0.12974425 -0.0676867 0.006396385 -0.014559734 -0.08702152
0.00033586824 0.065050706 -0.05584959 -0.039896376 -0.02922532 0.06880307 -0.03520401 0.053854622
-0.032688264 0.06856321 0.073287025 -0.050211426 0.044354867 -0.033950772 0.08497588 0.058852796
0.07321312 -0.043527104 0.02227053 0.046320852 0.077445 -0.026072977 0.020844707 -0.08381939
-0.055931162 -0.06680538 -0.097963065 -0.1091941 -0.05586326 0.04451828 -0.0030317598 -0.035977058
0.018334744 -0.05239084 0.13294885 0.0029908728 -0.061515618 -0.06448893 0.05250438 0.124055125
0.036494385 0.009861766 0.003561762 0.03843973 0.07453308 -0.00862684 0.06740239 -0.053995967
0.121377245 0.072388485 0.07460605 -0.023075916 -0.08800593 0.052495323 0.0870326 0.05513757
0.025374088 0.050208382 0.024770293 0.004426367 -0.081747584 0.044497218 0.006895414 -0.032878555
0.020256756 -0.071592994 -0.0864113 0.0076014264 -0.06300757 0.012066653 -0.08186918 -0.01898487
-0.0005691194 0.01317561 -0.07129879 0.04812842 -0.12439622 0.07598377 -0.092218265 -0.09313839
0.039922822 -0.027683718 -0.0047124065 0.08907555 0.06043273 -0.06251138 -0.04094649 -0.050546125
-0.055315875 -0.042866237 0.091775544 0.020653538 -0.016107531 -0.089227535 0.020313794 0.013397697
0.10306232 0.012313693 -0.11579664 0.099148504 -0.019959148 -0.011888206 -0.021614494 -0.025321616
-0.0069404794 0.07817431 0.018953215 0.07890119 0.03438478 0.050264236 -0.01905045 0.024007877
0.050956752 0.060544528 0.039368484 -0.07714612 0.049277525 0.06185346 0.05704619 0.07492301

gru.weight_hh_l0 f4 [384, 128]
00000000: 3d34 6ebc 3df0 043e f1c6 cb3a a884 823d
00000010: 15af 573d 7388 d73d cf0a e7bc 24bc c83c
00000020: 21f2 3c3c 596f 8fbc 966b 74bd 9dcf 85bd
00000030: fab1 73bd 4930 af3c 492b 13bd 8931 cabc
00000040: 0ef5 c1bb b6cf 33bd 6d15 bebd e7e6 993c
00000050: ba80 20bd 8d03 9a3d b0a9 b53d 6a1e f6bc
00000060: 2862 983c 438a 613b e657 b5bc e65c 02bd
00000070: 5270 8c3d fb31 ac3c d23a 40bc 9be1 94bd
00000080: 58d1 b9bd 60ca cd3d c27d fa3c 15e0 42bc
00000090: a072 d3bd 8eb5 c5bd c02f 8f3d ee94 c83c
000000a0: cb1f 74bd 04e6 303d fe7d 6f3d cfcc 833d
000000b0: b4c6 8fbd 3315 fcbb f07c e1bc f574 833d
000000c0: faa0 d73c 49e0 dd3a a146 b9bd 738f 39bd
000000d0: 21d8 993d 19fa 4a3d a949 32bd fca1 bebc
000000e0: be33 313d 4074 80bd c850 013c 4b14 703d
000000f0: 016e 953d e2f0 793d 2628 88bd b4a8 823d
00000100: 6c13 c03a 4256 b53d 891f 693d a9ae b63b
00000110: 33cc 6d3c b964 35bc d643 6d3d c343 a53b
00000120: 7a2e c73d f4ed bfbd 2fb5 9e3b f51e 41bd
00000130: a3cd 8dbc 2e61 883d dc87 edbc e2be cabc
00000140: 0cc9 203c 0e07 133d 0f3a e23d 75e8 8a3d
00000150: 2d0c 57bd 8b90 833d c4db bbbc 982d 373d
00000160: d7f9 2a3d cdd7 9bbb b2c9 c43d b2fb 773c
00000170: 883d 89bd 71cd a4bd f142 d9bd 1d2d fb3c
00000180: 4903 bebc 715a 063d ac74 bdbd d154 83bc
00000190: 7789 87bd c0ce 10bd bfe5 29bd 5b67 bcbd
000001a0: 02bf 043d 3e70 62bd 54ad b53d 2387 46bd
000001b0: 87cf 31bd 9850 213d b69d af3d 2474 46bc
000001c0: 3740 b13d 84e8 64bd ae53 953d ace2 b63c
000001d0: 7527 e33b a66d 413c 2576 14bd 854d 8ebd
000001e0: 0678 b53d 047c 913c a34e 633c 692b 5ebd
000001f0: 2dd6 f73c edd0 593d 71b8 533d 406c 9abd
00000200: edd2 8cbc 10c4 793d e488 b93d 8f56 a63b
00000210: 4c9a e23c b8e4 c73d c68e a93d 4588 103d
00000220: f271 603d bd80 fbbb 653e 953c 79fb 743d
00000230: efd0 283c c182 aebd a830 c93c c346 5dbd
00000240: 4b74 523d ab29 25bd fc6d 873d 2a9f 3a3d
00000250: 926e d93b cca9 acbc 9260 2b3d 773b 703c
00000260: 4e03 3fbc eee8 993c c45e 103d 5920 3e3d
00000270: 6272 44bd 9f7d 353c de8a 58bc 8cc0 953c
00000280: 9e94 fc3c 43b1 e13b 0409 4c3d 2357 b4bd
00000290: a816 aabd 5889 fc3b 07d3 3dbd e1c8 03bd
000002a0: 6ef7 87bd 0712 9d3d 5dae f43c b91b f73c
000002b0: 4b36 23bd 2b74 f73c 5533 653c f1a7 c0bd
000002c0: 2615 223d ba61 91bc 90fc a8bb 54db edbc
000002d0: abfb 3ebc 5c5b 893d 3e76 f33c 145e b03b
000002e0: 0955 39bd 1ce8 893d 4a09 c83c 8e3b 87bd
000002f0: 1991 4f3d 0506 1f3d dc4d 4d3d 03e1 593b
00000300: f44b 3a3d 508b b7bc 244f 0fbd d1bc 873b
00000310: 8735 8dbc 8a25 6dbd 5a48 ac3d e637 8c3d
00000320: f5a7 453d 63ec 4cbc f8f2 50bd b5c4 b8bd
00000330: 003f a1bd 7ede 903d df0f e23c 0448 bc3d
00000340: 72ea d1bd 63a2 19bd 7265 f63d eeda f33d
00000350: f655 81bd fe8c 31bd 1146 8b3d 3cd4 bd3d
00000360: fa86 a13d a840 9d3d 1a33 d53d b0b9 d13c
00000370: 7d5a 503d 8552 99bd 777b 3a3d 9f84 4dbc
00000380: c110 fdbc b7fe 2b3d 54cc f33c 99df 19bd
00000390: 8962 8a3c 85a0 3cbd 6498 23bc 7c13 efbc
000003a0: a2f9 28bc 21fc 92bd 5c72 53bc 6f47 02ba
000003b0: f32e 7c3d cee8 3a3d b913 5b3d a1f9 733d
000003c0: 83d2 273d dbb1 c1bd 2af2 1d3d d1f0 a3bd
000003d0: 9b21 b8bc b374 633d 2ebe 52bc d394 5abd
000003e0: 672c 69bd db2c 7d3d b5c0 d43d 0618 3d3d
000003f0: 6ce5 b5bd 838d c6bd 4a20 8fba 795f 66bd
-0.014538822 0.12982269 0.001554696 0.063729584 0.052657206 0.105240725 -0.028203396 0.024503775
0.011532337 -0.01750915 -0.059672914 -0.0653374 -0.059495904 0.021385329 -0.03592995 -0.024681823
-0.0059191054 -0.04389926 -0.092814304 0.01878686 -0.039185263 0.075202085 0.08870256 -0.0300438
0.018601492 0.0034414686 -0.02213664 -0.031826876 0.06857361 0.021019926 -0.011732774 -0.07269593
-0.09073132 0.100483656 0.030577544 -0.011894246 -0.10324597 -0.096537694 0.069915295 0.024485078
-0.059600633 0.04318811 0.058469765 0.064355485 -0.070203215 -0.007692957 -0.027525395 0.06418792
0.026321877 0.0016927804 -0.090466745 -0.04530282 0.075119264 0.049554918 -0.04352728 -0.0232706
0.043262236 -0.06272173 0.007892795 0.058613103 0.07296372 0.06102074 -0.06648283 0.06379834
0.0014654226 0.08854343 0.05691484 0.0055750203 0.014514017 -0.011071377 0.05792602 0.005043478
0.097256616 -0.09371558 0.004843376 -0.047148664 -0.01730997 0.066591606 -0.028995447 -0.024749223
0.009813558 0.0358954 0.1104623 0.06782619 -0.052501846 0.06424054 -0.02293194 0.044721216
0.041742172 -0.00475595 0.09608783 0.015135692 -0.06701189 -0.08046997 -0.10608471 0.03066116
-0.023194926 0.032801095 -0.09250769 -0.016031655 -0.06618016 -0.035353422 -0.04147887 -0.09199401
0.03240872 -0.055282824 0.0887095 -0.04846872 -0.043410804 0.0393835 0.08575003 -0.012112651
0.08654826 -0.055885807 0.07291351 0.022324882 0.006932194 0.011805927 -0.036245484 -0.069483794
0.08860783 0.01775933 0.013873729 -0.054240618 0.030253494 0.053177763 0.05168957 -0.07540178
-0.017190421 0.060977995 0.09059313 0.0050762366 0.027661465 0.097604215 0.08279185 0.035286207
0.054796167 -0.007675259 0.018218229 0.059810136 0.01030372 -0.08521033 0.024559334 -0.05402256
0.051380437 -0.04032294 0.06612775 0.045561947 0.0066354955 -0.02107706 0.041840144 0.014662615
-0.011658503 0.018787827 0.035246626 0.046417568 -0.047960646 0.011077314 -0.013216702 0.01828029
0.030832585 0.0068875863 0.049813285 -0.088056825 -0.083051026 0.0077068023 -0.04634383 -0.032173995
-0.0663899 0.07669454 0.0298683 0.030164586 -0.0398467 0.03020676 0.013989289 -0.09407032
0.03957095 -0.017746795 -0.005157061 -0.029035248 -0.011656682 0.067068785 0.029719468 0.0053823087
-0.04524711 0.067337245 0.024418492 -0.06603156 0.050675485 0.0388241 0.05012308 0.003324569
0.04548259 -0.022405297 -0.034987584 0.0041423817 -0.017237438 -0.05789713 0.084122375 0.06846599
0.04825588 -0.012507531 -0.051012963 -0.09021894 -0.078733444 0.07073687 0.027595459 0.091934234
-0.10249795 -0.03750838 0.12031068 0.11906992 -0.06315224 -0.04334735 0.068004735 0.09268996
0.07887073 0.07678348 0.104101375 0.025601238 0.050867546 -0.074864425 0.0455279 -0.012543826
-0.030891778 0.041990962 0.029760517 -0.037566755 0.016892688 -0.04605152 -0.009985063 -0.029184096
-0.010313423 -0.07176996 -0.012905683 -0.0004969751 0.06156821 0.045632176 0.053485606 0.059564237
0.040972244 -0.09457751 0.038561024 -0.080049165 -0.022476962 0.055531215 -0.012862725 -0.053364586
-0.05692711 0.061810356 0.103883184 0.04616549 -0.088816494 -0.0969496 -0.0010919657 -0.056243394

gru.bias_ih_l0 f4 [384]
00000000: c427 943d eeff 683d 5d3b 2b39 93e5 a3bc
00000010: 7eac d0bc 1ef9 833d 2156 03bc 451d 2c3c
00000020: abc8 343d 64ce 89bd 0367 41bc 3bf9 3bbd
00000030: e045 933b c77e 973d 38e3 6c3b 618a 423c
00000040: 41f7 10bd 340d 62bd 2c39 a13d 6aa8 a9bc
00000050: 414f 3d3d 4422 493d eac0 803d edd9 3cbd
00000060: 7eb8 c13c 19d6 1dbc 9e4c 093d dba6 47bd
00000070: cb20 7dbc 82be 17bd 589d 50bd d98a a63d
00000080: 7f3e 4e3d 856f 2d3a 9544 c33b 8956 c5ba
00000090: 9299 113e fae2 67bd 581c 98bc 00ad 223d
000000a0: 02dd 753c 9fed 86bc dd06 cc3b 2042 91bd
000000b0: 4dc7 243c 3aad 263b b529 d03c c03f ec3b
000000c0: 4847 a6bd 5ba0 87bd c790 7abc ab24 5a3d
000000d0: fb0b 953d d67c 0b3d 2b6b 203d 660f 36bd
000000e0: e679 03bd 36d3 d13c 44cf 34bd 25f1 31bc
000000f0: db44 c9bc 0615 01bd e39e ad3d 8a80 b73d
00000100: 40af cf3d fcec 793c 6b23 b43d 3993 6fbd
00000110: 2f01 503c 032a 4a3d 3d51 113d 7357 54bd
00000120: ece3 12bd 817a c13d 743c d63d 2f41 35bd
00000130: 365a a53d 12a9 763d f7ce 4d3d 43ce 263a
00000140: b571 85bd cc00 21bd 22c2 c63d e962 2b3d
00000150: 0208 823d c94f e83d b9ad 84bd d633 2bbd
00000160: 2019 9d3c 5505 a73d bb71 a03d 6e0a c83d
00000170: 05d0 143d c6cb febc 1e8b 6d3d 9309 b03d
00000180: 85c3 01bc 2c01 bd3d 0150 2a3d 74a4 1dbc
00000190: e021 77bd 8e12 52bd 1659 363b e1b5 9fbd
000001a0: 54e6 90bd 6f70 603c f591 6fbc 5ab0 8abb
000001b0: e56a 163c 63e5 a3bd 0116 8dbc eac0 a53d
000001c0: 4c97 35bc a203 363d b2ee 0d3d 3443 a63c
000001d0: f491 d23c 93e2 89bd 640a acbc 98c1 883d
000001e0: 98b0 8a3d 491a 8f3c 9983 9b3d 145f ac3d
000001f0: 8365 c23d 17b5 4abd 858b 21bd 834a c43a
00000200: 351d d2bd e2b5 46be af1a 4ebc 989a b5bb
00000210: b849 3abe 9bd3 793d 65a4 93bd bd0d 71bd
00000220: 5e7f dc3d bbdd fdbd a0eb 29bd 7e12 9dbd
00000230: f422 c5bd 2044 4abc 384f dbbc 4d5a 9a3d
00000240: 9a57 4f3d cd22 41be 25f4 28bd 802b 753b
00000250: 013d a2bb 4ad0 e1bd 115a 13be eafe c1bc
00000260: 4d6a 8d3d fccb 463d 104d 433d 6265 8dbd
00000270: 40f7 f8bd 97dc be3b 9f31 cebd fac7 20be
00000280: ece5 173d c4a8 6b3c 5d61 8c3c f2e0 c63c
00000290: c674 02be c084 7d3c 946e 1dbd c44b 92bd
000002a0: c3d4 ef3d 5f3b 813d b393 b1bd feae 853d
000002b0: d3ce e93c 280a ad3d 3c27 a5bd 96c1 693d
000002c0: 8b29 13be 3d65 573c 726f a9bc 730d eabc
000002d0: eee5 963c 521d 71bd 73e6 c3bd d9e0 8bbd
000002e0: 504b 143d 19a1 28bd 35f2 b1bd a82e 9abd
000002f0: e085 8abd d398 ffbc 068a 34be 16bf 0b3c
00000300: 7efd 80bd bab8 05bd faf6 253a e3be 39be
00000310: 0dfd 9bbd 4a55 21bd d95b a8bd 4641 5cbd
00000320: 6bd8 b23d 4583 90bd 9795 79bd f607 d3bc
00000330: f769 ee3d 2a6a cfbc a0fb 8abb 927b e7bc
00000340: 7259 a9bd c756 0bbd 7d71 af3c 6dc3 c5bd
00000350: 8fe4 d1bc fea4 d03d 76b3 ba3d 1b6f 49be
00000360: 292d 22bc f9d7 313c fbbb 64bd 57bc 2bbd
00000370: 5bcf 8c3d b376 2c3c 93a3 a9bd 5793 803c
00000380: 16d7 00bc caf8 e8bc 0370 37be d95c a9bd
00000390: 5ed0 c43c 2436 e0bd 8b56 2abc 2dad dabd
000003a0: fc0d 1b3d ce86 fa3d c4da 31be 569a 183d
000003b0: 1592 14be b48a 2dbe 5b1e a9bd 85a5 b93d
000003c0: 6193 65bd 74e1 09be 37ca a03d 0eac bebc
000003d0: 827f 2d3d b620 0fbd 5a41 1a3d 0129 1e3d
000003e0: 2d16 e7bd 9946 44be 83c4 18be fd92 80bd
000003f0: 2042 4b3d 8395 0bbd bdb7 9abd 88fc 7ebd
0.07234147 0.0568847 0.00016329945 -0.02000693 -0.025472876 0.06444 -0.00801614 0.010505025
0.044136684 -0.06728819 -0.011804345 -0.04589198 0.0044944137 0.07397228 0.0036146175 0.011873812
-0.03539205 -0.055188373 0.07872233 -0.020710189 0.04621816 0.049104944 0.062867954 -0.046106268
0.023647543 -0.009633564 0.033520333 -0.04874311 -0.015449713 -0.037046917 -0.050931305 0.08131952
0.05035257 0.0006616044 0.0059591033 -0.0015055697 0.14218739 -0.056612946 -0.018568203 0.039715767
0.015006306 -0.016470728 0.006226404 -0.070926905 0.010057283 0.002543284 0.025410512 0.007209748
-0.081190646 -0.06622382 -0.015293307 0.053257626 0.07277676 0.0340546 0.039164703 -0.04444828
-0.032098673 0.025613409 -0.044142976 -0.010860716 -0.024568966 -0.03151419 0.08477571 0.08960064
0.10140848 0.015254255 0.08795818 -0.05849001 0.012695595 0.04935647 0.035477865 -0.05184121
-0.035861894 0.09447194 0.10460749 -0.044251617 0.08073847 0.06021983 0.050246205 0.0006363133
-0.065158285 -0.0393074 0.09704997 0.041842375 0.063491836 0.11343343 -0.064784475 -0.04179748
0.01917702 0.08155314 0.07834192 0.09767614 0.036331195 -0.031103026 0.057994 0.08595576
-0.007920151 0.09228739 0.041580204 -0.009621728 -0.06033504 -0.051287226 0.0027824095 -0.077983625
-0.070751816 0.013698681 -0.014622201 -0.0042324485 0.009180759 -0.080027364 -0.017222406 0.08093436
-0.011083435 0.04443706 0.034651466 0.020295717 0.025704361 -0.06732669 -0.021001048 0.0667755
0.06771964 0.017468588 0.0759346 0.08416572 0.09492018 -0.049489107 -0.039439697 0.001497582
-0.10259477 -0.1940532 -0.012579604 -0.0055421107 -0.18192184 0.06099282 -0.0720909 -0.058850992
0.10766481 -0.12395807 -0.041484475 -0.07669543 -0.096258074 -0.012345344 -0.026771173 0.07536755
0.050620653 -0.18860932 -0.04124846 0.0037409961 -0.00495112 -0.11026056 -0.14389826 -0.023681123
0.06905041 0.04853438 0.047680914 -0.06904103 -0.12156534 0.005824636 -0.10068058 -0.15701285
0.037084505 0.014383499 0.01713627 0.024277184 -0.12739858 0.015473545 -0.038435534 -0.071433574
0.11710503 0.06310152 -0.086707495 0.06527518 0.028541004 0.08449203 -0.08064124 0.057069384
-0.14371316 0.013146696 -0.020683024 -0.028570866 0.018420186 -0.058865853 -0.09565439 -0.06829996
0.036204636 -0.04116926 -0.086887754 -0.0752843 -0.06763816 -0.031200802 -0.17630777 0.008529445
-0.0629835 -0.032646872 0.0006331053 -0.18139224 -0.07616625 -0.03938798 -0.082206436 -0.053773187
0.08732685 -0.07056288 -0.060933676 -0.025760632 0.11641305 -0.025319178 -0.004241422 -0.028257165
-0.082690135 -0.034018304 0.02141642 -0.09656415 -0.02562168 0.1018772 0.09116261 -0.1967129
-0.009898462 0.010854715 -0.055843335 -0.04192766 0.068754874 0.010526347 -0.082831524 0.015695257
-0.0078637805 -0.028438944 -0.17913823 -0.082696624 0.024025138 -0.109478265 -0.01039661 -0.10677562
0.037855133 0.12232743 -0.17368609 0.03725656 -0.14508851 -0.16947442 -0.08257743 0.090647735
-0.056048755 -0.1346491 0.078510694 -0.023275401 0.04235793 -0.034943305 0.03765998 0.038613323
-0.112835266 -0.19167556 -0.14918713 -0.06278036 0.04962361 -0.034078132 -0.075545765 -0.06225255

gru.bias_hh_l0 f4 [384]
00000000: bedb 80bd b0b0 d03d bf5c 0ebd 62be 43ba
00000010: ce02 aa3c c107 793d 38a9 113d 49df c43d
00000020: 5c21 0fbd 6d84 013c b7b2 e038 0138 fcbc
00000030: c104 5fbd cecb a8bc e3c4 3dbd 7ddd a63d
00000040: af7a 2c3c c2a3 2abd 3222 8abd bde6 48bd
00000050: deba 68bc fbd9 04bd 16fb 863d 99b2 9ebd
00000060: 5d22 1f3c 27c1 d6bb 7bed ab3d b882 ad3c
00000070: f0dd 15bd 40a1 cb3d c0e0 3fbd 0844 bebc
00000080: ccb8 a23d 9ab4 2f3c e5d5 923d 9e4e 5c3c
00000090: 6d6b d13d 128b 753a f61d c03d 152b 42bd
000000a0: 227f 443b 75d6 80bd b1fa c03d 9a1c 823d
000000b0: adb9 3e3d bd9b 933d bcd0 f53c 25e3 38bc
000000c0: 3be3 2abc 6310 833c 6829 26bd e05e e0bc
000000d0: 3c8b 9abb f386 a23d 4e4a 9dbc 35b9 6d3d
000000e0: 6fa3 3a3d 355f 8bbd e99a a4bc 75ea b83d
000000f0: 56ff dd3d 3385 c23c 43ff 7a3d 6192 4b3d
00000100: b99d b33d 04a4 8dbd df2d 1dbc 60ab 4fbd
00000110: 8923 bd3d ad58 a03d 9dca 893c c6c1 3bbd
00000120: d405 cb3d 8f46 a53c f13f b33c c269 133d
00000130: 2634 5ebd 3599 38bb d342 d33d 6570 1fbd
00000140: 3847 b13d 15e5 54bd d4e1 e53c 2170 1cbd
00000150: fa23 56bd 0d09 233d c30f b4bd 044d b13d
00000160: d49a b3bc 1300 a6bc ee9b 193d 8cdb 1cbd
00000170: 8edb 89bd be0a ca3a 7a4e 3ebc 40e1 0c3d
00000180: 842f 5bbd 01a1 dfbc c4bb b23d e69d ba3d
00000190: a985 073d 2d68 983d 1d5f 0d3d 023c a3bd
000001a0: 830e ea3c 73ba 36bd ff60 d8bc 99eb c3bc
000001b0: b9e8 9a3d 8afa 863c fe09 803d b840 e63d
000001c0: 304b 613a 4cde 293c 62dd b53d 6222 43bd
000001d0: 1b68 f83d 0106 11bd 14fc 78bd 390f c53d
000001e0: deea 8bbd ed59 15bd 3507 973d 2d13 b43c
000001f0: 8c2c af3d 1630 46bd 6dd3 493d 01d4 3c3b
00000200: d320 2b3d e281 63bd 3bb4 b5bd 8717 9cbc
00000210: af12 29be 3f27 3cbd 7692 0d3d aed0 c23c
00000220: f2be 823d f7ac cabd f8be d83c 1d05 3cbd
00000230: 2502 18be 075b 443b 7ed5 a5bd 8d41 91bd
00000240: d338 1f3c c6d9 28be 4e0d 9bbd d8c3 0cbd
00000250: a1fb 95bd 4aa1 98bd 4c29 52be 4021 d8bc
00000260: ecf8 92bd 8b8a 60bb e30a 053d 6b01 9a3d
00000270: 2d50 0a3d d8d3 653d ce15 d5bd 177f fbbd
00000280: 7549 10bd 8f7c 2cbd 70ba 043d 7f70 223b
00000290: 32ea fdbd a382 33bd f7af 46be d734 bcbd
000002a0: 58ff 6cba bddd e0bc f0b1 ecbd f03c 043d
000002b0: 8e7f e0bb 5ac2 f3bb f22e 29bd 89ac 8dbd
000002c0: c29d 20be 2c60 823d 0a75 413c 4204 23bd
000002d0: bfda e1bc aeb4 19bd 076c 27bc 689c 563d
000002e0: 3beb 01bd 6436 67bd d9e2 a0bd b3f1 7fbd
000002f0: 4539 063d 1050 84bc 4229 47be 4666 8fbd
00000300: 1454 fe3c 9198 a43d 377d 803c 4e0d cabd
00000310: c3c1 e8bb c342 cabd 2313 a7bd 4c2e 80bd
00000320: 54d5 db3c 041c 51bd 2e30 b1bc c318 1f3c
00000330: 53dc e53d 0479 fabd 6742 36bb 70ad 46bc
00000340: be71 debd 7f49 17be 8aa5 08be 4296 3fbe
00000350: c52e 9f3d d902 873d 4ffb e9bb 4b5e 22be
00000360: c42a ecbd a502 863d bc19 b1bd c932 ffbd
00000370: a806 6a3d 878f 0cbe 1d18 bbbd 168d 86bc
00000380: 5a9e bcbc e398 dfbd 2b61 cbbd f575 b93c
00000390: 3bfd 8a3d 0498 16be 6a2b 9c3d f7a1 aabd
000003a0: dfa6 893c 757c 083d 945d 34bd eecc 263b
000003b0: fb2d d5bd e854 8abd b042 03be f6dd 263d
000003c0: da88 9c3d 5001 40be 8ccd 573d 6ae1 d7bd
000003d0: 8e82 e9bc 6275 3d3d c4b5 083d 107c e9bb
000003e0: a3bf bebd fc6a 16be 20ea ebbd 9e70 653d
000003f0: 07fc b5bd 7bce 82bd f930 e2bb 9ff5 3dbd
-0.062919125 0.101899505 -0.03475642 -0.0007467029 0.02075329 0.06079841 0.03556177 0.09612901
-0.034943923 0.007905108 0.000107144406 -0.030788423 -0.054447893 -0.020604994 -0.046330344 0.08147714
0.010527297 -0.041660078 -0.067448035 -0.049048174 -0.014204709 -0.032434445 0.065908596 -0.077489085
0.009712783 -0.0065537873 0.08394905 0.021180496 -0.03658861 0.09942865 -0.046845198 -0.0232258
0.079454035 0.010724211 0.071697034 0.013446478 0.10225568 0.00093667314 0.093807146 -0.047404367
0.0029983004 -0.062909044 0.094228156 0.063531116 0.046563793 0.07207439 0.030006759 -0.011284624
-0.0104301525 0.015999025 -0.04056683 -0.02738899 -0.004716305 0.07935896 -0.01920047 0.058037955
0.04556602 -0.06805269 -0.020093398 0.09029094 0.10839717 0.023745155 0.061278593 0.049700145
0.087703176 -0.06916049 -0.009593456 -0.050700545 0.092352934 0.078294136 0.016820246 -0.045839094
0.09913221 0.020175247 0.021881076 0.03598953 -0.05424895 -0.002816749 0.1031548 -0.038925547
0.08656162 -0.051976282 0.028061785 -0.038192872 -0.052280404 0.039803553 -0.08792069 0.08657268
-0.021924414 -0.020263707 0.03750222 -0.038295314 -0.0673133 0.0015414578 -0.01161539 0.034394503
-0.05351211 -0.027298452 0.0872722 0.09112148 0.033086453 0.07441745 0.034514535 -0.0797043
0.028571373 -0.044611406 -0.026413439 -0.023916053 0.075639196 0.016476888 0.06251906 0.11242813
0.00085942727 0.010367941 0.08880116 -0.047640212 0.121292315 -0.035406116 -0.060787275 0.09622044
-0.06831907 -0.036462713 0.073744215 0.0219818 0.085534185 -0.048385702 0.049273897 0.0028812888
0.04177935 -0.055543788 -0.08872267 -0.019054187 -0.16511033 -0.045935865 0.034563504 0.023781147
0.06384076 -0.09896272 0.026458248 -0.045903314 -0.14844568 0.0029961483 -0.08097361 -0.07092581
0.009718138 -0.16489324 -0.07570897 -0.03436646 -0.07323385 -0.074526384 -0.20523566 -0.026383042
-0.07176384 -0.0034262266 0.032481086 0.07519802 0.033767868 0.056110233 -0.104045495 -0.122801
-0.035226304 -0.042110976 0.032404363 0.0024786291 -0.12398185 -0.043825757 -0.19403063 -0.09189766
-0.0009040735 -0.027449483 -0.115573764 0.032284677 -0.006851143 -0.00743894 -0.041304536 -0.06917674
-0.1568518 0.063659996 0.011807689 -0.039798982 -0.027570127 -0.037525825 -0.010218627 0.052395254
-0.031718474 -0.056448355 -0.07855768 -0.06248636 0.03276946 -0.016151458 -0.19449332 -0.07001929
0.031045951 0.08036912 0.015684707 -0.09865819 -0.0071031763 -0.09876015 -0.08157947 -0.062588304
0.026835121 -0.05105211 -0.02162942 0.0097104935 0.11223664 -0.12230113 -0.0027810575 -0.012126312
-0.10861538 -0.1477413 -0.13344398 -0.18709663 0.077725925 0.0659234 -0.007140554 -0.15856282
-0.115315944 0.06543473 -0.086474866 -0.124608584 0.057135254 -0.13726626 -0.091354586 -0.016424697
-0.023024727 -0.10917833 -0.09930643 0.022639254 0.06786581 -0.14706427 0.07625468 -0.083316736
0.016803203 0.033321816 -0.044034556 0.0025451737 -0.10409161 -0.06754476 -0.12818408 0.040739022
0.0764329 -0.187505 0.05268626 -0.10541041 -0.028504636 0.046254523 0.03337647 -0.007125385
-0.093138956 -0.14689249 -0.11519265 0.056015603 -0.08885961 -0.06387039 -0.0069028107 -0.04637682

output_layer.weight f4 [1, 128]
00000000: 15f3 02be ed2c 113e 5531 47bd cbcc 9d3d
00000010: ffbc 89bd 69b7 65bd 386b f2bd cd6d 13be
00000020: 9344 cf3d 6b5e 943d 412d cebd 1913 0a3e
00000030: e162 0d3e f222 963b fab6 75bd 5865 b03d
00000040: ee60 193d ec40 983d 11b6 603d 5dc4 53bb
00000050: 7053 cf3d f655 e0bd 95c6 fcbd 5a0d 70bd
00000060: a332 c4bd a683 9a3d c64b 603d 567e 8abd
00000070: ab76 823d 1662 51bc 272c 21bd 19c7 09be
00000080: 3936 ae3d 7276 24bd ba4b c13d 49b9 0b3e
00000090: 51fd 00be 2fa1 603d 7971 b03d 115f 073e
000000a0: 4296 e3bc 731e bdbd 8d10 fb3d 5512 d83d
000000b0: 2312 a03d 3ced 19bd e351 1c3e 5b13 1abe
000000c0: d92a 92bd 62ce e93c 90f9 e73d c2b5 d23c
000000d0: 9e66 3abd f299 eb3d 8246 ebbc 47ce 413d
000000e0: 6c61 7b3d 8df8 bb3c 5b43 053e b362 bebd
000000f0: 5e00 5ebd 7160 7abd 9105 89bd 1eac 8f3d
00000100: 5de5 9ebd 3e2b 9cbd 3d0d c5bd 2567 043e
00000110: 1094 423d 067f 5ebd 2ca0 d7bd ddae 5fbd
00000120: 812d d0bc 17d8 b23c 7398 a03d be43 bf3c
00000130: 4207 09bd 4bc7 c13d 9075 a4bc 0e6a 9cbd
00000140: 660e b0bd cf75 e5bd 3ea6 18be b556 323e
00000150: a721 bd3d 8da5 a9bd cea6 bebd cb9f 50bd
00000160: d5ff 21bd 3f4c 1e3e db3a 06bd 4f88 0b3e
00000170: 305c 9c3d 12b0 12be 4a2a 513d 880f 90bd
00000180: ab9e 2cbd 2f89 1cbd f341 0cbe ab64 32bd
00000190: d469 afbd b33a 2a3e 9608 b4bc b962 10be
000001a0: dd7a 7b3d 9876 083d e308 febd d556 86bd
000001b0: 9aa3 4f3d 4e19 b7bd 0215 f5bd 8942 b2bc
000001c0: 4076 83bd 2f2e 843d 1ea1 09be ee53 41bd
000001d0: 4966 07be 2457 0cbe 1fdc adbc 7dbe b2bc
000001e0: a707 03bd ff7e de3d 53cc 05be c014 e03c
000001f0: 77a1 803d 37f5 8c3d bf6e 00bd f7a0 ab3d
-0.12788041 0.14177294 -0.04863103 0.07705077 -0.06725501 -0.056083117 -0.118368566 -0.14397354
0.10120501 0.07244571 -0.10067225 0.13483848 0.1380725 0.0045818025 -0.059988953 0.0861308
0.037445955 0.07434258 0.054861132 -0.0032313087 0.10123336 -0.10953896 -0.12342564 -0.058606483
-0.09579971 0.07544641 0.054759763 -0.06762378 0.0637029 -0.012779733 -0.039348748 -0.13454856
0.08506436 -0.04015202 0.09438272 0.136449 -0.12596633 0.054841217 0.08615393 0.13219859
-0.02778161 -0.09234323 0.12259016 0.105503716 0.07815959 -0.03757976 0.15265612 -0.15046446
-0.07137079 0.028540794 0.11326897 0.025721435 -0.04550802 0.11503972 -0.028720144 0.047315862
0.061372206 0.022945667 0.13013975 -0.09296169 -0.05419957 -0.06112713 -0.06690515 0.070152506
-0.07758591 -0.07625435 -0.096216656 0.12929972 0.047504485 -0.054320358 -0.10528597 -0.054610122
-0.025412323 0.021831555 0.078415774 0.023347732 -0.033454187 0.0946184 -0.02007559 -0.07637416
-0.08596496 -0.11204111 -0.14907166 0.17415889 0.09234934 -0.082835294 -0.09309159 -0.05093364
-0.03955062 0.15458773 -0.032770973 0.13626216 0.07634771 -0.14324978 0.05106572 -0.07034212
-0.042143505 -0.038216766 -0.13697033 -0.043553036 -0.08565107 0.16623954 -0.02197675 -0.1410016
0.06139647 0.033316225 -0.12404039 -0.06559531 0.050693132 -0.08940373 -0.119668975 -0.021760242
-0.06419039 0.06454121 -0.13440368 -0.047199182 -0.13222612 -0.13705117 -0.021223126 -0.021819348
-0.03198972 0.10864066 -0.13066225 0.027353644 0.06280797 0.068827085 -0.031355616 0.08380311

exp_avg f4 [384, 53]
00000000: bb01 c937 3ddd f336 2b6d 9636 8377 8937
00000010: d3c4 0138 c8fb 0c36 9f52 0337 8276 2d37
00000020: 165a fe36 e8e2 1036 a7e2 3d37 f671 ab37
00000030: f16a 16b7 106f 0438 6ba9 8d37 f4f0 e836
00000040: 860d 21b6 b119 7f37 1bbd 5437 5197 81b5
00000050: 558b 5537 0cb5 c5b6 2d99 1b37 1087 c0b6
00000060: d622 3a37 dc84 5e36 0000 0000 0000 0000
00000070: 0000 0000 0000 0000 0000 0000 0000 0000
00000080: 0000 0000 0000 0000 0000 0000 0000 0000
00000090: 0000 0000 0000 0000 0000 0000 0000 0000
000000a0: 0000 0000 0000 0000 0000 0000 0000 0000
000000b0: 0000 0000 0000 0000 0000 0000 0000 0000
000000c0: 0000 0000 0000 0000 0000 0000 0000 0000
000000d0: b366 6938 c930 27b7 1ad5 aeb6 04f1 81b6
000000e0: 78de f236 811d 5eb7 1610 73b6 7811 cdb5
000000f0: ebec 51b6 5e26 4333 8a6a a135 15bf 25b6
00000100: aa9d 9cb6 712a 25b7 bc6b 33b6 dc17 c934
00000110: 4343 2136 2735 dfb5 e073 9936 4cca a836
00000120: 7296 b4b7 3ec3 87b6 f451 b9b6 9295 9b34
00000130: 2eca 87b6 607d a0b6 7c2d c133 0000 0000
00000140: 0000 0000 0000 0000 0000 0000 0000 0000
00000150: 0000 0000 0000 0000 0000 0000 0000 0000
00000160: 0000 0000 0000 0000 0000 0000 0000 0000
00000170: 0000 0000 0000 0000 0000 0000 0000 0000
00000180: 0000 0000 0000 0000 0000 0000 0000 0000
00000190: 0000 0000 0000 0000 0000 0000 0000 0000
000001a0: 0000 0000 eea1 fab7 7a5f 6b37 7f3b 8c36
000001b0: a78a e236 df30 1037 86ef 9837 fc80 7236
000001c0: ecd1 0237 d9cd 2937 e021 5936 ff6a 9ab4
000001d0: 67bd 2237 fa54 8937 5d92 e7b6 b236 ce37
000001e0: 9534 9e37 bd3c 5736 4076 d2b5 4f3c 5437
000001f0: fdad 0937 586a 0ab7 93de d436 fd95 94b6
00000200: 9180 0637 408c 5ab6 d325 0537 9234 f835
00000210: 0000 0000 0000 0000 0000 0000 0000 0000
00000220: 0000 0000 0000 0000 0000 0000 0000 0000
00000230: 0000 0000 0000 0000 0000 0000 0000 0000
00000240: 0000 0000 0000 0000 0000 0000 0000 0000
00000250: 0000 0000 0000 0000 0000 0000 0000 0000
00000260: 0000 0000 0000 0000 0000 0000 0000 0000
00000270: 0000 0000 0000 0000 0d46 0d38 984b 2838
00000280: 95cb 6337 1ea6 7c37 ea02 bb37 26ac 8638
00000290: c80a 0037 b34f 4f37 d944 6937 4a61 b437
000002a0: d137 f1b5 5735 bc37 bc24 c637 7f61 63b7
000002b0: 0be4 7938 2387 2838 46e6 b235 7576 4cb6
000002c0: ed51 1f37 f397 3337 ac32 8537 70a9 0b37
000002d0: 0044 13b7 4ccc 8437 b958 dab6 33d0 d537
000002e0: 2ca3 8536 0000 0000 0000 0000 0000 0000
000002f0: 0000 0000 0000 0000 0000 0000 0000 0000
00000300: 0000 0000 0000 0000 0000 0000 0000 0000
00000310: 0000 0000 0000 0000 0000 0000 0000 0000
00000320: 0000 0000 0000 0000 0000 0000 0000 0000
00000330: 0000 0000 0000 0000 0000 0000 0000 0000
00000340: 0000 0000 0000 0000 0000 0000 7c56 9738
00000350: 069d 1937 cfef 8336 c3cd 2f34 7ecc 8e36
00000360: a53b d035 a313 59b6 e885 9935 5267 2db5
00000370: 737a eab6 fac5 6635 c8e2 e834 36b4 1836
00000380: f982 6b36 d5a0 4436 5b9e 00b7 93ec 5936
00000390: a2d8 a1b4 4198 dd36 2ea3 8d36 8267 1db6
000003a0: 9d7d a8b5 d62f c0b5 7af3 1137 bad7 6a34
000003b0: 0f44 e935 d097 be34 0000 0000 0000 0000
000003c0: 0000 0000 0000 0000 0000 0000 0000 0000
000003d0: 0000 0000 0000 0000 0000 0000 0000 0000
000003e0: 0000 0000 0000 0000 0000 0000 0000 0000
000003f0: 0000 0000 0000 0000 0000 0000 0000 0000
2.3961873e-05 7.26772e-06 4.483057e-06 1.6387325e-05 3.0939304e-05 2.1008182e-06 7.827445e-06 1.0339196e-05
7.5802773e-06 2.158975e-06 1.13180495e-05 2.0437856e-05 -8.965596e-06 3.1574687e-05 1.6887401e-05 6.9421894e-06
-2.3998741e-06 1.5205166e-05 1.2680214e-05 -9.655288e-07 1.272823e-05 -5.892134e-06 9.274384e-06 -5.7377692e-06
1.1094575e-05 3.3157912e-06 0.0 0.0 0.0 0.0 0.0 0.0
0.0 0.0 0.0 0.0 0.0 0.0 0.0 0.0
0.0 0.0 0.0 0.0 0.0 0.0 0.0 0.0
0.0 0.0 0.0 0.0 5.5647175e-05 -9.965334e-06 -5.2104124e-06 -3.8725575e-06
7.238061e-06 -1.3239101e-05 -3.6219185e-06 -1.5278774e-06 -3.1281331e-06 4.543687e-08 1.2026442e-06 -2.469814e-06
-4.667517e-06 -9.844648e-06 -2.6735788e-06 3.7456527e-07 2.403002e-06 -1.6630264e-06 4.573245e-06 5.0303406e-06
-2.1527729e-05 -4.0460427e-06 -5.5229702e-06 2.8979827e-07 -4.0468503e-06 -4.782967e-06 8.9955364e-08 0.0
0.0 0.0 0.0 0.0 0.0 0.0 0.0 0.0
0.0 0.0 0.0 0.0 0.0 0.0 0.0 0.0
0.0 0.0 0.0 0.0 0.0 0.0 0.0 0.0
0.0 -2.9877727e-05 1.4029321e-05 4.1792514e-06 6.751466e-06 8.5944475e-06 1.8231349e-05 3.613589e-06
7.79748e-06 1.0121113e-05 3.2355238e-06 -2.8762585e-07 9.700051e-06 1.6371243e-05 -6.9013754e-06 2.4582583e-05
1.8859553e-05 3.207285e-06 -1.5680635e-06 1.2650226e-05 8.206346e-06 -8.250201e-06 6.3440034e-06 -4.4282046e-06
8.016957e-06 -3.2566168e-06 7.936224e-06 1.849274e-06 0.0 0.0 0.0 0.0
0.0 0.0 0.0 0.0 0.0 0.0 0.0 0.0
0.0 0.0 0.0 0.0 0.0 0.0 0.0 0.0
0.0 0.0 0.0 0.0 0.0 0.0 3.368226e-05 4.0124723e-05
1.35776545e-05 1.5059048e-05 2.2293494e-05 6.421683e-05 7.631905e-06 1.2356718e-05 1.3903912e-05 2.1502976e-05
-1.7972144e-06 2.2436185e-05 2.3620545e-05 -1.3552954e-05 5.9578608e-05 4.0180177e-05 1.3329052e-06 -3.046732e-06
9.496213e-06 1.070461e-05 1.5878431e-05 8.324496e-06 -8.777715e-06 1.583076e-05 -6.507235e-06 2.5488529e-05
3.9827046e-06 0.0 0.0 0.0 0.0 0.0 0.0 0.0
0.0 0.0 0.0 0.0 0.0 0.0 0.0 0.0
0.0 0.0 0.0 0.0 0.0 0.0 0.0 0.0
0.0 0.0 0.0 7.21635e-05 9.1560705e-06 3.9320216e-06 1.6373001e-07 4.255736e-06
1.5514566e-06 -3.234695e-06 1.143836e-06 -6.4597873e-07 -6.9879984e-06 8.596977e-07 4.3378373e-07 2.2754662e-06
3.5093965e-06 2.9299893e-06 -7.6662645e-06 3.2473224e-06 -3.0146208e-07 6.604038e-06 4.221124e-06 -2.3455073e-06
-1.2553534e-06 -1.4319037e-06 8.699362e-06 2.1871429e-07 1.737966e-06 3.5500716e-07 0.0 0.0
0.0 0.0 0.0 0.0 0.0 0.0 0.0 0.0
0.0 0.0 0.0 0.0 0.0 0.0 0.0 0.0

exp_avg_sq f4 [384, 53]
00000000: a5fe de30 40e0 7b2f 9185 f82f 0947 1b30
00000010: a509 1631 239b 292f cff8 712f 2473 df2f
00000020: 9ad7 7f30 523a ee2d dc8f 2e2f 0490 8a30
00000030: 43a0 0330 07d0 ac30 69c3 df30 48d9 ca2f
00000040: 81c5 de2d b7e3 8630 776d 4330 498e d430
00000050: 860c f62f dae4 fe2e d4b1 7a2f 6b7f 5b2e
00000060: 1deb 5d2f ec0a dc2d 0000 0000 0000 0000
00000070: 0000 0000 0000 0000 0000 0000 0000 0000
00000080: 0000 0000 0000 0000 0000 0000 0000 0000
00000090: 0000 0000 0000 0000 0000 0000 0000 0000
000000a0: 0000 0000 0000 0000 0000 0000 0000 0000
000000b0: 0000 0000 0000 0000 0000 0000 0000 0000
000000c0: 0000 0000 0000 0000 0000 0000 0000 0000
000000d0: 9d3d e431 4519 c92e 3bb5 a72d 21b3 e82d
000000e0: f13a f62e 2b35 182f d5aa a42d 240b b92d
000000f0: ca49 092e 33f3 2c2e 230f 9a2c bbb2 c42d
00000100: 41b9 782e 8e0a 9f2e 54f6 562e c018 b22e
00000110: dded 1f2e 36c4 772c 27be e02e cc75 b62e
00000120: 6a84 db2f 7b62 c62d ecf2 082e 53fa de2d
00000130: e539 772d 8395 352e 2815 d32c 0000 0000
00000140: 0000 0000 0000 0000 0000 0000 0000 0000
00000150: 0000 0000 0000 0000 0000 0000 0000 0000
00000160: 0000 0000 0000 0000 0000 0000 0000 0000
00000170: 0000 0000 0000 0000 0000 0000 0000 0000
00000180: 0000 0000 0000 0000 0000 0000 0000 0000
00000190: 0000 0000 0000 0000 0000 0000 0000 0000
000001a0: 0000 0000 8a2c 1330 e36b a030 2289 3f2f
000001b0: 97c6 af2f a4cf b92f ebfc 9d30 2ed5 002f
000001c0: 3324 332f 7db4 b02f ab93 4230 3de2 942d
000001d0: c676 e62e f09f 2f30 2a77 a82f 5118 6030
000001e0: c491 aa30 6bd4 712f 466a 3d2d 4ae3 6c30
000001f0: 2ada 2330 6141 a130 e07e 932f c8a0 ad2e
00000200: 4fd5 282f aafb c12d 77df 152f 1086 5e2d
00000210: 0000 0000 0000 0000 0000 0000 0000 0000
00000220: 0000 0000 0000 0000 0000 0000 0000 0000
00000230: 0000 0000 0000 0000 0000 0000 0000 0000
00000240: 0000 0000 0000 0000 0000 0000 0000 0000
00000250: 0000 0000 0000 0000 0000 0000 0000 0000
00000260: 0000 0000 0000 0000 0000 0000 0000 0000
00000270: 0000 0000 0000 0000 4cef ac31 c75a b531
00000280: c660 4130 cf16 c730 8caf c030 7df0 f131
00000290: 2052 0830 c543 2830 c44f aa30 b3a4 1531
000002a0: a83a c82e 1117 0030 8d98 0d31 ddb4 b230
000002b0: 20ec 8731 53ee af31 4753 8530 cb78 442e
000002c0: 066a 5631 dd62 1c31 b5dd 7031 791a 8e30
000002d0: 057b 852f 910f 1b30 3168 b22e d63d 5230
000002e0: bb4e 4e2e 0000 0000 0000 0000 0000 0000
000002f0: 0000 0000 0000 0000 0000 0000 0000 0000
00000300: 0000 0000 0000 0000 0000 0000 0000 0000
00000310: 0000 0000 0000 0000 0000 0000 0000 0000
00000320: 0000 0000 0000 0000 0000 0000 0000 0000
00000330: 0000 0000 0000 0000 0000 0000 0000 0000
00000340: 0000 0000 0000 0000 0000 0000 efe9 a832
00000350: 01f0 042f fd31 a82d ebe7 d42d b060 2c2e
00000360: ab22 ef2e 1829 6c2d 7789 912d e2ce ba2d
00000370: f808 bc2e b457 062c 3bf5 8b2d 560d 602e
00000380: 614b 052e 1cf3 6b2e 516d 0f2f cc83 b72d
00000390: 87cb c72b 593d af2e ef7d 4f2e cc42 d72e
000003a0: 1174 962d f25c 2e2d 98f1 7d2e 273d 5e2c
000003b0: 1959 a02d 13be 1c2c 0000 0000 0000 0000
000003c0: 0000 0000 0000 0000 0000 0000 0000 0000
000003d0: 0000 0000 0000 0000 0000 0000 0000 0000
000003e0: 0000 0000 0000 0000 0000 0000 0000 0000
000003f0: 0000 0000 0000 0000 0000 0000 0000 0000
1.6225e-09 2.2907987e-10 4.5205842e-10 5.648962e-10 2.1833355e-09 1.5425576e-10 2.2007217e-10 4.0645276e-10
9.307485e-10 2.7083367e-11 1.5876317e-10 1.0081753e-09 4.788527e-10 1.2573772e-09 1.6280924e-09 3.6897974e-10
2.5326187e-11 9.814504e-10 7.1096146e-10 1.546547e-09 4.4756038e-10 1.1591235e-10 2.2800545e-10 4.9908005e-11
2.0183362e-10 2.5015955e-11 0.0 0.0 0.0 0.0 0.0 0.0
0.0 0.0 0.0 0.0 0.0 0.0 0.0 0.0
0.0 0.0 0.0 0.0 0.0 0.0 0.0 0.0
0.0 0.0 0.0 0.0 6.642678e-09 9.1449105e-11 1.9066184e-11 2.6454896e-11
1.1197255e-10 1.3843209e-10 1.8720506e-11 2.1037012e-11 3.121573e-11 3.9324276e-11 4.3786238e-12 2.2361992e-11
5.655321e-11 7.232358e-11 4.887675e-11 8.098899e-11 3.636368e-11 3.520973e-12 1.02201185e-10 8.297327e-11
3.9929954e-10 2.2553728e-11 3.1138578e-11 2.5349644e-11 1.405318e-11 4.128743e-11 5.9993295e-12 0.0
0.0 0.0 0.0 0.0 0.0 0.0 0.0 0.0
0.0 0.0 0.0 0.0 0.0 0.0 0.0 0.0
0.0 0.0 0.0 0.0 0.0 0.0 0.0 0.0
0.0 5.354158e-10 1.1672195e-09 1.7420068e-10 3.197342e-10 3.3798842e-10 1.1495137e-09 1.1717269e-10
1.6292816e-10 3.2142458e-10 7.078664e-10 1.6926122e-11 1.04802875e-10 6.3891914e-10 3.0643693e-10 8.152528e-10
1.2410557e-09 2.1994288e-10 1.0767004e-11 8.6179297e-10 5.9609084e-10 1.1732874e-09 2.6829294e-10 7.89569e-11
1.5355293e-10 2.2053321e-11 1.3630862e-10 1.2649007e-11 0.0 0.0 0.0 0.0
0.0 0.0 0.0 0.0 0.0 0.0 0.0 0.0
0.0 0.0 0.0 0.0 0.0 0.0 0.0 0.0
0.0 0.0 0.0 0.0 0.0 0.0 5.0330637e-09 5.2781135e-09
7.0350514e-10 1.4485638e-09 1.4019732e-09 7.0413635e-09 4.959322e-10 6.121435e-10 1.2391799e-09 2.1775974e-09
9.1053665e-11 4.659891e-10 2.0604916e-09 1.3002609e-09 3.9558614e-09 5.1202647e-09 9.700692e-10 4.4672526e-11
3.1201366e-09 2.2757185e-09 3.5050622e-09 1.0339384e-09 2.427997e-10 5.641079e-10 8.113011e-11 7.648543e-10
4.6908904e-11 0.0 0.0 0.0 0.0 0.0 0.0 0.0
0.0 0.0 0.0 0.0 0.0 0.0 0.0 0.0
0.0 0.0 0.0 0.0 0.0 0.0 0.0 0.0
0.0 0.0 0.0 1.9664155e-08 1.2090597e-10 1.9121588e-11 2.4204602e-11 3.9194148e-11
1.087462e-10 1.34241715e-11 1.6545638e-11 2.1237626e-11 8.5508434e-11 1.909123e-12 1.5911375e-11 5.0943548e-11
3.030765e-11 5.3648738e-11 1.3044611e-10 2.0863221e-11 1.4196291e-12 7.968976e-11 4.7178202e-11 9.7889336e-11
1.710457e-11 9.911393e-12 5.7740118e-11 3.1582044e-12 1.8229461e-11 2.2274446e-12 0.0 0.0
0.0 0.0 0.0 0.0 0.0 0.0 0.0 0.0
0.0 0.0 0.0 0.0 0.0 0.0 0.0 0.0

exp_avg f4 [384, 128]
00000000: f26d 0338 45dc 90b6 43b6 1938 b6db fdb7
00000010: 4828 4e38 1e11 3b38 8cd7 2d38 f784 3f36
00000020: 9a85 86b7 e4c4 1ab8 30e0 a737 4cce d5b7
00000030: 805b 91b6 46c0 e837 8e96 02b6 e378 23b8
00000040: fb01 55b8 f486 4ab8 11fb a4b8 5b52 4438
00000050: 71f6 26b8 926a 0938 1aa9 5138 ff8b bbb7
00000060: 0953 3a38 559b 26b7 fe67 b9b7 7617 5437
00000070: d34b 2d37 6fe5 8837 e8dc c937 24fc db36
00000080: b787 80b8 9340 5038 b4c8 6e37 e6b6 f5b7
00000090: 6acf 2637 a4ad 19b8 eb52 af37 8f93 80b6
000000a0: b1ec a736 2dd6 3638 e0ba 7cb7 7c71 41b8
000000b0: b0c3 ae36 3994 d737 1771 f534 2cf5 9b36
000000c0: 1fb2 37b7 a9c8 01b8 78b2 7fb7 4368 75b8
000000d0: 5895 5a38 bb2d 8037 c137 a037 db74 1fb8
000000e0: 8521 a937 20f3 bab7 74f0 00b8 df36 1137
000000f0: e038 1c38 b145 a537 6403 3037 dd44 34b8
00000100: 6319 5538 e0d1 3b38 d32c 1537 2a36 5eb8
00000110: 3159 5fb8 0dbc 9c37 b9a9 0f38 0fe6 7f38
00000120: 84ba c637 b4b4 41b8 fb37 17b8 820b 2db7
00000130: 1098 9fb7 c07f 0eb8 dba2 cc37 cbde 1238
00000140: 8647 a7b4 a886 2e38 025a 7437 08a0 51b6
00000150: 0f06 2db8 3ebf 31b7 82db b337 fea1 a537
00000160: 05f5 e937 3b6c 60b7 2696 4f38 8334 0cb8
00000170: 3d8f deb7 19b1 38b7 2fef 27b8 37df 1138
00000180: d972 2f36 bdb5 c8b7 c47a 33b7 9bf5 1038
00000190: e0f9 c236 fcae b4b7 9235 1638 1beb 62b7
000001a0: 7c8d 08b6 6267 d2b7 37e8 4237 98bb 3238
000001b0: 828d ccb7 524f c736 3042 aa37 e3e1 3737
000001c0: 8507 b037 33d9 2bb8 3e6a ff36 37a6 ba37
000001d0: 89c1 d337 5e67 d637 3066 5338 b489 a9b8
000001e0: 3257 1638 129e 42b8 7e18 e037 7f61 3fb8
000001f0: 5378 43b8 fc86 18b8 447b 0438 fee9 acb7
00000200: 7ff5 18b7 c705 a736 6c0c 35b7 240b 5f37
00000210: 4dfe 47b7 e363 45b7 425b 85b7 7c47 80b5
00000220: 5187 9336 3fa8 0737 2210 1ab7 6991 0137
00000230: e2b9 3235 48a3 f3b6 de0a fab5 67f2 2a37
00000240: 8afb 7f37 a17c 6a37 9773 c037 f095 69b7
00000250: be57 3f37 6366 42b7 198e 60b7 cadb 0337
00000260: da3a 8ab7 6501 8b36 7aa8 0037 93c7 9fb6
00000270: 8a35 07b6 96a9 edb6 dcb7 04b7 eadb c4b5
00000280: 5c7d 8a37 c5d4 69b7 9b39 d1b5 d5f9 3737
00000290: 3ffa efb6 7c42 4a37 4841 7635 18dc a436
000002a0: 553c b0b5 3993 3db7 049c 1737 6f53 8a37
000002b0: cdba 1cb4 6dd6 0fb7 615c 2136 7c04 96b6
000002c0: 415e 0936 4b15 ef36 e064 3337 9256 8f37
000002d0: 1e33 7db7 0d32 29b6 fd2c 51b6 6f51 4637
000002e0: 778f d2b6 ad88 0437 060d 2737 7616 deb6
000002f0: d6f7 47b7 feb0 05b6 8594 92b6 5175 7437
00000300: 1a53 86b7 e415 72b7 6611 12b7 4c83 8737
00000310: eb21 7637 c6a0 06b7 3042 7eb7 3796 a2b7
00000320: 5f65 d8b6 e6ff 8537 0fbd 4637 9fc0 0336
00000330: 0448 b236 9950 1437 93bc 17b7 dfb0 47b7
00000340: 8254 4cb5 f4c8 7cb7 e46e 10b7 a08a e735
00000350: 15df 8837 40d3 b0b5 dc2b d6b6 7e37 aeb6
00000360: 3fee 08b7 8c88 0936 7cc4 5fb7 cfa8 3a37
00000370: 29fa b536 34f8 5436 58f4 6e37 6567 23b7
00000380: 9572 a2b6 c3b3 c736 b758 3cb5 e353 49b7
00000390: 208c 5035 2979 e436 c77c 37b7 e02c 6836
000003a0: c4f4 adb5 0421 c036 ec05 a6b6 c340 6fb7
000003b0: 21ad e236 763d 63b6 c1a5 16b7 d767 88b6
000003c0: 3711 e2b6 4d9c 6937 deca 99b6 2e8c 10b7
000003d0: 89b8 32b7 139b 11b7 714b 44b7 1653 c837
000003e0: f007 28b7 4911 8237 c82a 3cb7 68a4 6d37
000003f0: c9b4 7137 b7f0 4837 e93e 1cb7 b76f 0237
3.133523e-05 -4.317177e-06 3.6647787e-05 -3.0262261e-05 4.9151742e-05 4.4600216e-05 4.1447158e-05 2.8538614e-06
-1.6036258e-05 -3.689983e-05 2.0012347e-05 -2.5487643e-05 -4.3319887e-06 2.774609e-05 -1.9459144e-06 -3.8974813e-05
-5.0785e-05 -4.8286238e-05 -7.866894e-05 4.680674e-05 -3.9807e-05 3.2762597e-05 4.998697e-05 -2.2357328e-05
4.442319e-05 -9.930537e-06 -2.2102144e-05 1.2641647e-05 1.0329258e-05 1.6319302e-05 2.4063935e-05 6.5560616e-06
-6.1287945e-05 4.9651204e-05 1.4232635e-05 -2.9291445e-05 9.942663e-06 -3.6639758e-05 2.0900237e-05 -3.8318753e-06
5.0045423e-06 4.3591648e-05 -1.5063881e-05 -4.6120476e-05 5.208385e-06 2.5699019e-05 4.571709e-07 4.6479017e-06
-1.0949122e-05 -3.0942876e-05 -1.5240737e-05 -5.8509653e-05 5.2114337e-05 1.5280084e-05 1.9099449e-05 -3.8017384e-05
2.0161979e-05 -2.2286142e-05 -3.0741518e-05 8.655449e-06 3.7246267e-05 1.9701985e-05 1.0491207e-05 -4.2979478e-05
5.08068e-05 4.4779736e-05 8.8915285e-06 -5.297937e-05 -5.325041e-05 1.8684217e-05 3.4251923e-05 6.1010996e-05
2.3690292e-05 -4.618308e-05 -3.605334e-05 -1.0314283e-05 -1.9025087e-05 -3.3974415e-05 2.439453e-05 3.5016605e-05
-3.1158214e-07 4.161024e-05 1.456449e-05 -3.1236577e-06 -4.1252057e-05 -1.0594549e-05 2.144068e-05 1.9744966e-05
2.788986e-05 -1.337664e-05 4.9492483e-05 -3.3427506e-05 -2.6531163e-05 -1.1008488e-05 -4.003866e-05 3.477858e-05
2.6143882e-06 -2.3926486e-05 -1.0697815e-05 3.4561013e-05 5.81074e-06 -2.1539156e-05 3.5812678e-05 -1.35253895e-05
-2.0347934e-06 -2.5082092e-05 1.1617368e-05 4.2613217e-05 -2.438459e-05 5.9398963e-06 2.02964e-05 1.0960243e-05
2.0984337e-05 -4.097186e-05 7.6119604e-06 2.2250328e-05 2.5243282e-05 2.5558922e-05 5.040149e-05 -8.084197e-05
3.5843994e-05 -4.640042e-05 2.6714286e-05 -4.562875e-05 -4.6603684e-05 -3.6365338e-05 3.1586053e-05 -2.0612959e-05
-9.117065e-06 4.9776604e-06 -1.0791333e-05 1.329443e-05 -1.1920533e-05 -1.1765372e-05 -1.589733e-05 -9.557548e-07
4.3966943e-06 8.0858e-06 -9.1828715e-06 7.722855e-06 6.658066e-07 -7.260973e-06 -1.8629614e-06 1.0189228e-05
1.525775e-05 1.3976504e-05 2.294201e-05 -1.3922792e-05 1.1404916e-05 -1.158714e-05 -1.3384525e-05 7.859382e-06
-1.6478287e-05 4.142685e-06 7.668621e-06 -4.7618028e-06 -2.0147731e-06 -7.082893e-06 -7.910621e-06 -1.4667141e-06
1.6509257e-05 -1.39374215e-05 -1.5588479e-06 1.0965819e-05 -7.1518875e-06 1.2055618e-05 9.173714e-07 4.913203e-06
-1.3130581e-06 -1.1299556e-05 9.036627e-06 1.6489734e-05 -1.459659e-07 -8.573389e-06 2.404464e-06 -4.4708704e-06
2.0469454e-06 7.125234e-06 1.0692718e-05 1.708724e-05 -1.5091877e-05 -2.5212096e-06 -3.1169614e-06 1.182068e-05
-6.275189e-06 7.899635e-06 9.957008e-06 -6.6187304e-06 -1.1919028e-05 -1.9921567e-06 -4.368429e-06 1.4570848e-05
-1.6012742e-05 -1.4429421e-05 -8.706329e-06 1.6154394e-05 1.467064e-05 -8.024455e-06 -1.515499e-05 -1.9381854e-05
-6.449103e-06 1.5973998e-05 1.1845738e-05 1.9632641e-06 5.313197e-06 8.840253e-06 -9.044207e-06 -1.1902505e-05
-7.6118897e-07 -1.50671585e-05 -8.608888e-06 1.7251186e-06 1.6316344e-05 -1.3174504e-06 -6.382803e-06 -5.1920642e-06
-8.161703e-06 2.0494072e-06 -1.3337583e-05 1.1125768e-05 5.423343e-06 3.1734935e-06 1.4242796e-05 -9.7396305e-06
-4.8413153e-06 5.951589e-06 -7.0164555e-07 -1.2000065e-05 7.7689947e-07 6.8090344e-06 -1.0936702e-05 3.4596815e-06
-1.2960741e-06 5.7258894e-06 -4.947875e-06 -1.4260589e-05 6.7554797e-06 -3.386141e-06 -8.979289e-06 -4.0652044e-06
-6.737329e-06 1.3924274e-05 -4.583372e-06 -8.615707e-06 -1.0652592e-05 -8.6787795e-06 -1.1700075e-05 2.3880548e-05
-1.0015428e-05 1.5505257e-05 -1.1215634e-05 1.416458e-05 1.4406812e-05 1.1976975e-05 -9.312972e-06 7.7746145e-06
