rnn1.ckpt (torch, 325178 bytes, 15 tensors)

rnn.weight_ih_l0 f4 [128, 53]
000000 0e 9a 0d bd 95 93 13 3d 84 91 d2 bc 84 54 25 3c
       -0.034570746 0.036029417 -0.025704153 0.010090951
000010 73 c8 87 bd 1f 11 04 be 26 fb 01 3e 98 fc 91 3a
       -0.066300295 -0.12897156 0.12693462 0.0011137901
000020 12 b3 a4 3c b7 c0 04 bc ba cf 4a bd ed 4d 14 bb
       0.020104919 -0.008102587 -0.04951451 -0.0022629455
000030 54 db 0b 3e c7 f9 5a bd 29 40 87 bd 65 cc bb 3d
       0.13657886 -0.053460862 -0.066040345 0.091698445
000040 c2 d1 27 3d 6e e6 9b 3c 33 69 5a 3d c5 54 5f 3c
       0.040971525 0.019030776 0.053322982 0.0136310505
000050 73 bc 89 3c 58 67 07 3e 9f 45 72 3c a0 27 78 bd
       0.016813492 0.13223016 0.014787107 -0.060584664
000060 bf de 00 3d 92 99 45 3d 23 73 93 bd 5d 02 1a bd
       0.031462427 0.04824216 -0.07199695 -0.03759991
000070 25 49 45 bd 5d a4 38 3c eb 77 87 3c a3 0c c2 3c
       -0.04816546 0.011269656 0.016536674 0.023687666
000080 60 04 11 3d 20 be 4e 3d 68 6d 06 3d 72 cf 81 bd
       0.035404563 0.050474286 0.03281918 -0.06338395
000090 df 23 1a bd 3a 46 58 bd 85 f4 b2 3d 37 65 9a 3d
       -0.037631866 -0.05280135 0.08738045 0.075388364
0000a0 6e c3 86 3c 0f 5f 6e 3d 2a e4 3d 3d 11 db 55 bd
       0.01645061 0.058196124 0.046360172 -0.05221087
0000b0 2c ce 16 3c 33 c4 63 3d 53 c3 1c bd 25 82 43 bd
       0.009204429 0.055607032 -0.038272213 -0.047731537
0000c0 da a5 cc 3c 31 b3 fb bc dd 20 9a bd 69 78 34 3b
       0.024981428 -0.030725094 -0.075257994 0.002753759
0000d0 4d 06 8c bd fb 2d 32 bd da 1b e6 bc 70 a7 59 bd
       -0.06837139 -0.04350088 -0.028089453 -0.053138196
0000e0 73 ce 51 3d 28 06 99 3d 89 46 95 3d 0f f0 cc bb
       0.051222276 0.07471877 0.07288844 -0.006254203
0000f0 92 36 4b 3d d8 92 3b 3d 6d cc c0 bc dc 45 a8 bd
       0.04961259 0.045794338 -0.023534978 -0.082164496
000100 f8 8c 20 bd fe f2 0c 3c 85 38 c9 3c 4c 40 04 bd
       -0.03919694 0.008602856 0.024563083 -0.03228788
000110 bf 1a a6 bd 94 8f 96 bd 9c d9 3f 3d 15 1a 23 3d
       -0.0811057 -0.07351604 0.046838388 0.039819796
000120 08 32 c4 bd 67 eb 81 3b 45 ef 85 bc 37 12 3b bc
       -0.09579855 0.0039648297 -0.016349444 -0.011417917
000130 0c ba 8c bc 74 1c 76 3c 7b 67 bf bc dd 40 97 bd
       -0.017178558 0.015021432 -0.023364773 -0.073854186
000140 48 ac f6 3c ca e9 c5 3b 58 0f 93 bd b3 b9 25 3c
       0.030111447 0.0060398327 -0.07180661 0.010115075
000150 1a de 8e 3d 4e 46 32 bd 6d 37 c9 3c a0 bc 17 3d
       0.06975956 -0.04352408 0.024562562 0.03704512
000160 da 40 6c 3d 21 ae 36 3d ca ff f1 bc 2a ae 8a 3d
       0.057679035 0.044599656 -0.029540915 0.067715004
000170 4f c9 8c 3d c3 11 4d bd 93 f1 9e 3c 61 65 03 3d
       0.06874334 -0.050065767 0.019402301 0.032079104
000180 f9 8c b4 bd 41 ac 05 3b 76 15 60 3d ed b9 0b 3d
       -0.08815951 0.002039686 0.054707967 0.03411286
000190 a2 2c ec bb b3 36 2b 3d b9 45 a3 bc 6a 32 86 3d
       -0.007207469 0.041800212 -0.019930707 0.065525845
0001a0 90 0b 62 3d d3 80 96 bd e2 2d 14 bd 3a b9 ca 3c
       0.055186808 -0.0734879 -0.03617657 0.024746526
0001b0 ee 1b d3 3c cc 32 02 3c f2 f3 a4 bd 94 9b 0d be
       0.025770154 0.007946681 -0.080543414 -0.1382888
0001c0 65 91 5a 3b a0 68 19 bc 8c cf 61 bc f5 f7 f9 3c
       0.0033350822 -0.009363323 -0.013782393 0.030513743
0001d0 71 4f 1f 3d 37 f8 e6 3c 52 ad 96 bc 75 f0 ef bb
       0.03889412 0.02819453 -0.018393192 -0.007322366
0001e0 fb 6c 55 bc e0 51 c4 3d e8 b7 59 3c c8 48 f7 3d
       -0.013026471 0.09585929 0.013288476 0.12074429
0001f0 60 e1 4e 3d d6 56 cd bb cf f9 68 3d 3b 4c e9 3d
       0.050507903 -0.006266455 0.05687886 0.11391493
000200 5e 16 d2 3c 25 1a 80 3b cd 4b 06 be 3a 1b b6 bd
       0.025645431 0.0039093667 -0.13114853 -0.08891912
000210 85 6e 54 3d 8d f3 2f 3d ac 90 78 3c 9f 47 34 bc
       0.051863212 0.042956877 0.015171211 -0.011003404
000220 92 3e 5a 3d 65 de a1 3d f0 0e e3 3c e2 e0 5d bd
       0.053282328 0.079037465 0.027717084 -0.054169543
000230 31 eb 91 3d 59 5f 31 3d 7a 2d 63 3d cc 2e 96 bd
       0.07124937 0.04330382 0.05546329 -0.073331445
000240 49 b5 df ba f5 c5 24 3d 0b 81 2d 3c a2 b8 b3 3d
       -0.0017067577 0.04022785 0.010589848 0.0877545
000250 c9 67 a1 bc 2e f0 d1 3c fb f2 ab 3d 29 d4 49 3d
       -0.019702809 0.025627222 0.08395954 0.049274597
000260 3c 4d 6d 3d ba 6f 1f 3d e2 84 ab bd d0 52 8d 3d
       0.057934985 0.03892491 -0.08374955 0.06900561
000270 c4 c5 16 3d af dd b3 bd 50 2e d0 3d fc 0e 94 bb
       0.036809698 -0.08782517 0.101650834 -0.004518388
000280 7e c2 0e 3d 94 4c ed 3d 4e b2 e9 bc 1c 3c 0e 3c
       0.03485345 0.11586872 -0.028527405 0.008681323
000290 0b 5f ab bd 87 47 c8 3d 3c 1b b5 bd 98 e9 c4 3d
       -0.083677374 0.09779268 -0.08843085 0.09614867
0002a0 6a bb da 3d 87 30 69 3d 29 10 28 bd 24 83 99 3d
       0.10680278 0.056931045 -0.041031037 0.07495716
0002b0 27 94 09 bd b8 a6 4d bb 59 27 81 bd 79 cf 01 be
       -0.033588555 -0.003137989 -0.06306333 -0.12676801
0002c0 3d 73 b0 3c 85 27 09 be 8b 5c 3e bd 9a 7b b2 3c
       0.021539325 -0.13393982 -0.046474975 0.021787453
0002d0 46 07 a7 bd 13 4d 10 bd 14 9f a7 3d 9d a2 38 3d
       -0.08155684 -0.035229754 0.081846386 0.045076955
0002e0 d9 bd ec bd 72 00 8c bd 8d b5 94 bd d6 fb 84 bd
       -0.11559648 -0.068360224 -0.072611906 -0.064933464
0002f0 c1 a0 09 bd 00 2f 13 bd fc a8 7b 3d c0 d4 20 3d
       -0.033600572 -0.035933495 0.061440453 0.039265394
000300 3d 53 a2 bd 93 79 6c bd 68 32 81 bd a4 d6 00 bc
       -0.07926033 -0.05773313 -0.06308442 -0.007863674
000310 54 4d 74 bd 12 99 ad 3d d9 6c ad 3d 73 5a da bc
       -0.05964406 0.084764615 0.08468027 -0.026654458
000320 e7 8a 93 bd a4 bf 6b 3d ac 23 6a 3c 1e f3 8d bd
       -0.07204228 0.05755581 0.014290731 -0.069311365
000330 1b c1 7f 3d 70 48 d6 3c 08 c1 99 3c 9a c5 7f 3c
       0.06244002 0.026157588 0.018768802 0.015611077
000340 68 94 98 bd 6b 9b 8e 3d f5 e0 96 3c b2 b2 b8 bd
       -0.07450181 0.069632374 0.018417815 -0.090184584
000350 17 b9 ca bd 71 b8 ea bd b2 2f fd bc f4 9a d8 bc
       -0.09898584 -0.11460961 -0.030906532 -0.026441075
000360 ac a1 33 3d 13 9c b5 3d 1c 85 6d bd f9 d3 36 bc
       0.043855354 0.088676594 -0.05798827 -0.011158937
000370 08 52 a8 bc 7a cf 46 3c e1 84 df 3c ca 59 df bd
       -0.020546928 0.012134427 0.027285041 -0.10905798
000380 7c e8 1c bd 4a 84 5c bc 6b f2 44 bd 98 de a5 3c
       -0.038307652 -0.013459275 -0.04808275 0.020247743
000390 bd 3a d6 bd 73 fb cc bd 4f 25 1b bd c7 9b 1a 3d
       -0.10460422 -0.10008898 -0.037877377 0.037746217
0003a0 69 a3 a1 bd 0e 0a f7 bc 81 b4 bf bd 42 28 71 bd
       -0.07892496 -0.030156162 -0.093606 -0.058876283
0003b0 3f b3 09 3d 24 30 51 3d d6 30 92 bd 70 fb d3 bc
       0.033618208 0.0510713 -0.07138221 -0.02587673
0003c0 cb 98 26 bb d7 21 66 3c ad fd d6 3c ab 95 6b bb
       -0.0025420662 0.014046154 0.026244009 -0.0035947363
0003d0 8b 7b ad 3d c8 e1 b6 bc ab d3 5d bd 39 bf 08 3c
       0.084708296 -0.022324458 -0.05415694 0.008346372
0003e0 c0 06 61 3c e8 8c 36 bd 57 31 25 bd 64 b2 48 bd
       0.0137345195 -0.044567972 -0.040330257 -0.04899825
0003f0 f7 61 97 3d 4d ff d0 3c 68 fd cf 3c 3d 23 4b 3d
       0.07391732 0.025512362 0.025389388 0.049594153

rnn.weight_hh_l0 f4 [128, 128]
000000 a7 b7 c7 bd 57 f7 d8 3d 26 e6 20 bd 3a 06 b7 bd
       -0.09751826 0.10594051 -0.039281987 -0.089367345
000010 0b 17 b3 3d c7 81 8b 3c 47 19 d0 bc 08 f1 96 bb
       0.087446295 0.017029656 -0.025402678 -0.00460637
000020 82 7f 86 3d 79 b6 4c bd 80 58 0d 3d 62 ef 72 bd
       0.06567289 -0.049978707 0.03450823 -0.059310324
000030 7c b4 60 bc e8 c5 c2 3c 92 53 e8 3d 2e 0a 29 3d
       -0.013714906 0.02377601 0.11344065 0.041269474
000040 35 38 0e bd b9 e5 d5 3d c2 e4 32 bd 77 44 ac 3b
       -0.034721572 0.10444207 -0.04367519 0.005257185
000050 2d 64 a3 3d 59 90 39 3d 56 f9 12 3d 4d 50 8c bd
       0.079780914 0.045303676 0.035882317 -0.06851254
000060 55 d7 c9 bd 66 df b5 bc f2 79 57 3d a6 4b cc 3c
       -0.098555245 -0.022201251 0.05260653 0.024938416
000070 fa 4b 24 bd 82 f0 46 bd 3a 08 75 3d 74 61 72 3b
       -0.04011152 -0.04856921 0.0598223 0.0036984356
000080 8f 30 76 bb ed f6 68 bc a0 52 8e bd 88 be e6 3d
       -0.0037565564 -0.014219028 -0.06949353 0.1126681
000090 60 a9 c4 3d 65 bf 72 bc 32 94 97 3d b9 70 c1 3d
       0.09602618 -0.01481614 0.07401313 0.09445328
0000a0 4c cb 6e 3c 4c 75 9e 3d 1b 6e a8 bd ae d6 8b 3c
       0.014574837 0.07737216 -0.08224126 0.01707014
0000b0 76 60 9b bc bb 8e 1b bd f4 f2 96 3d ab 2f 83 3c
       -0.018966895 -0.037977915 0.073705584 0.01601394
0000c0 3a 73 ae bd 5a a6 a7 3b 04 73 2c 3d 4e 00 af bc
       -0.085180715 0.005116266 0.042101875 -0.02136245
0000d0 57 de 9c bd 1d ee 2b bd 15 7f b1 3d 2d 5e f0 3d
       -0.076595955 -0.04197513 0.08666817 0.117367126
0000e0 f8 5c 6c bd ea 34 a1 3d b6 f2 64 bd 4b 10 4b 3d
       -0.05770585 0.07871421 -0.05589553 0.049576085
0000f0 d3 a2 98 3d 8a 69 a2 3c 8a be 29 bd 09 e5 29 bc
       0.07452931 0.019825716 -0.041441478 -0.010369548
000100 c8 4b 43 bd 2a 82 dc 3d 12 a6 c4 3c 2c 4d 09 3c
       -0.047679693 0.10767014 0.02400497 0.008380216
000110 a2 d7 94 bd e9 af 0f 3d 87 b2 8d 3c aa 5e 01 3d
       -0.07267691 0.03507987 0.017297043 0.03158442
000120 5e 44 b1 bd 9f 63 9c 3d 00 23 9e bd 73 af 8b bd
       -0.08655618 0.07636189 -0.077215195 -0.06820574
000130 06 de 60 3d ff ec d1 3c 2d 6e fc bd 1c 63 ec bc
       0.054899238 0.025625704 -0.12325702 -0.028855853
000140 cc 09 af 3b d5 3d a4 3d 00 04 74 bd b6 91 35 3d
       0.005341744 0.08019606 -0.059574127 0.044328414
000150 e7 11 a3 bd 87 ce 95 3d e7 c9 93 3c b1 5d 1b bc
       -0.07962399 0.073147826 0.01804061 -0.009482787
000160 6b 5e c2 bc 25 9e 3d bd 4b cb 03 3a f0 cc c3 3d
       -0.023726663 -0.046293397 0.00050275464 0.09560573
000170 f3 0b 85 bd a2 e4 37 bd a2 b0 f6 3c b6 d3 18 3d
       -0.0649642 -0.044895776 0.030113522 0.03731128
000180 cc 19 32 3d 6a 6e 19 bc 19 2f 42 3d 7a cd 97 bd
       0.043481633 -0.009364704 0.047408197 -0.074122384
000190 90 6f 09 bd b4 32 5a bc 27 9b 21 bd 6e 56 a7 bd
       -0.03355366 -0.013317753 -0.039454605 -0.08170782
0001a0 fa b3 6a bc cd 75 96 3d db ff 92 3d 3e a9 b5 bc
       -0.014325136 0.073466875 0.07177707 -0.022175428
0001b0 dd 22 e6 3c e7 4d de 3d cd ba 6a 3d 87 27 9c 3d
       0.028092796 0.108547024 0.057307053 0.07624727
0001c0 ac 9e 83 3d 89 0e ab 3d d3 c6 3d bd a1 58 fc ba
       0.06426749 0.08352382 -0.04633219 -0.0019252488
0001d0 06 3a 84 bd c7 b1 ec 3c 40 47 cb bd be ee 29 bd
       -0.064563796 0.028893365 -0.09925699 -0.041487448
0001e0 40 ff c6 bb 1b b3 83 3d 60 8f 9c bd bc 17 78 bc
       -0.0060729086 0.06430646 -0.07644534 -0.0151423775
0001f0 6b 63 ba 3c c2 59 30 bb 25 8f 52 3d 68 bd d1 3c
       0.022752484 -0.0026908969 0.051406045 0.025603011
000200 30 f6 9d 3d 31 56 3e bd b9 14 12 bc c2 55 10 bd
       0.07712972 -0.046468917 -0.0089160735 -0.035238035
000210 6b 3c c7 bc 57 21 94 bd 25 fd 44 3c 0e 78 31 3d
       -0.024320802 -0.072329216 0.012023245 0.043327384
000220 56 f2 bf 3d e1 df b0 bc c0 4e d2 3d 01 12 53 3a
       0.09372394 -0.021591129 0.102689266 0.0008051694
000230 d8 5d de 3c 7d 3b 22 3d 92 e8 40 3c 11 f2 5a bd
       0.027144358 0.039607514 0.011774199 -0.05345351
000240 1e e4 9a 3c e9 d9 02 3d 8d 48 bd bb 9d a4 c2 ba
       0.018907603 0.031946097 -0.005776471 -0.0014850084
000250 72 f2 7d bc 72 c5 b9 3c 5c 34 7e 3d 61 0d f1 bc
       -0.015499698 0.022677157 0.062061653 -0.029425325
000260 98 88 90 3d 3d a7 49 3d 55 dc 59 bd 11 f3 da bb
       0.07057303 0.049231756 -0.05318864 -0.006681808
000270 e5 eb c9 3a bf da 9b 3d a2 74 6a bd 87 15 d7 bc
       0.0015405385 0.07610082 -0.057240136 -0.026255382
000280 ca 1a c5 bc 3c 03 a0 bd 45 78 b2 bc 12 36 fa 3c
       -0.024060626 -0.07813117 -0.021785865 0.03054336
000290 e3 ef 88 3d 96 0b 29 3d a1 46 b7 3d 25 8e 35 3d
       0.0668638 0.041270815 0.08949018 0.044325013
0002a0 51 b5 8e bd de 4a d8 3d 74 bc aa bc ec ed 2b bc
       -0.06968177 0.10561155 -0.020841815 -0.010493737
0002b0 c1 5e f7 bb 85 8f 15 3b 34 7f 27 bc c7 e8 d0 3c
       -0.0075491373 0.002282114 -0.010223199 0.025501622
0002c0 3a b2 42 bd 5e c5 7a 3d 5f 61 99 bc 66 bf 9a 3d
       -0.04753325 0.06122338 -0.018723188 0.075560376
0002d0 4b da 59 3d 44 ab c0 bc 1a a6 0e 3d 97 89 4d 3d
       0.053186696 -0.023519166 0.034826376 0.050180044
0002e0 70 00 9f 3d f3 97 d1 bd 41 11 41 bc 01 38 2e 3d
       0.07763755 -0.1023406 -0.011783899 0.04253388
0002f0 7d d1 9c 3c 2e c9 c2 3d e9 3e 06 3d 36 cf 83 bd
       0.01914286 0.09511028 0.03277484 -0.06436007
000300 1b 1c 2c 3d 72 1f aa bd 17 c5 c4 bd 4f bd 3e 3d
       0.04201899 -0.08306779 -0.096079044 0.046567257
000310 50 94 51 bd 44 5f ef 3b 8b fa 1f 3d 05 a0 dd 3d
       -0.051166832 0.0073050577 0.039057296 0.10821537
000320 b8 38 ad bd d1 ba 54 bd 49 ae 82 bc 41 b6 0b bd
       -0.08458084 -0.051935975 -0.015952246 -0.034109358
000330 1a f2 5e 3d 0c cf 88 ba 83 18 70 3d 30 a0 56 3d
       0.054430105 -0.0010437681 0.058617126 0.05239886
000340 14 6f 7e bd 24 3c df bc 10 e8 7e bd ec f1 ff bc
       -0.06211765 -0.027250357 -0.06223303 -0.031243287
000350 6a 1c 88 3d c9 fa 73 bd d8 54 96 3d 1c 33 82 bd
       0.066460446 -0.05956534 0.073404014 -0.063574046
000360 d8 de 8c 3d 80 59 62 3d 5d 91 c8 bb 3f 9a a7 3c
       0.068784416 0.055261135 -0.0061208443 0.020459292
000370 30 1f 6b bd 14 40 ff 3b 79 ea 0b bd 3a 0f 5c 3d
       -0.05740279 0.007789621 -0.034159157 0.05372546
000380 cb d2 2b bd fc 7e b9 bd 87 2f 96 bd cb 4b 78 bb
       -0.041949075 -0.090574235 -0.07333284 -0.0037886973
000390 50 ab 96 3d 6a f9 3b 3d 2a 5d 3d 3d d5 22 7e bc
       0.07356894 0.045892157 0.046231426 -0.015511234
0003a0 9a 58 8c bd 8e cc e3 3d 5e 13 0d bd 3b 0a ce 3c
       -0.06852837 0.11123 -0.034442298 0.025151363
0003b0 90 3a 56 bc a0 7b 9a bd 91 23 10 bd 75 9b 9e bb
       -0.013075486 -0.07543111 -0.03519017 -0.0048403093
0003c0 35 9d 90 3d 20 50 0f bd 2b 2e a5 bd 4b 6c 83 bd
       0.07061235 -0.034988523 -0.080654465 -0.064171396
0003d0 0f e8 f9 bc c2 17 47 3d dd 28 d1 3c 11 26 b9 bd
       -0.030506162 0.04860664 0.02553218 -0.09040464
0003e0 c2 a9 3f bd c1 bb 8e bd 06 6f 77 3c cb cf 37 3d
       -0.046792753 -0.06969405 0.015102154 0.0448759
0003f0 da 16 8c bc b0 f8 8b 3d 67 d1 30 bd 3f cb 46 bd
       -0.01710074 0.06834543 -0.04316845 -0.048533674

rnn.bias_ih_l0 f4 [128]
000000 a1 ba 79 3c a9 5e a1 bd 0e d5 75 3d 5c d4 65 3d
       0.01524225 -0.07879383 0.060017638 0.056110725
000010 10 28 7b bd f3 c8 cf 3c 9c cf 73 bd ef ff 5a 3d
       -0.061317503 0.025364375 -0.059524164 0.053466734
000020 61 c4 5f 3d 47 22 89 bd 8a 96 9a bc 40 8e e7 3c
       0.05463064 -0.06695991 -0.01887061 0.028266072
000030 7a 79 fc 3b 34 1e 1a bd 6b 97 c7 3c 3d 05 54 bd
       0.007704911 -0.03762646 0.024364194 -0.051762808
000040 3e a8 7c bd ef f3 10 bd 2e 00 76 bd 77 ca 99 3c
       -0.061683886 -0.035388883 -0.060058765 0.0187733
000050 bd 52 b3 bd a1 10 53 3c f8 71 28 3c 95 3e 15 bd
       -0.087560154 0.012882383 0.0102810785 -0.036436636
000060 23 8c 1b 3d 1f 02 17 bd 1d 56 9e 3d 3b 44 7d bd
       0.03797544 -0.036867257 0.077312686 -0.061832648
000070 da da 65 bc f5 10 89 bd ef 27 76 3d 79 74 6e bd
       -0.014029229 -0.066926874 0.060096677 -0.058216546
000080 39 5d c8 bc ae 47 af 3d 3e b1 d2 bc eb 6f 59 3d
       -0.024458515 0.08558594 -0.025719281 0.05308525
000090 e9 50 84 3d 6e df c5 bb 34 39 b8 3c db 9a 31 bd
       0.06460745 -0.006038598 0.022488214 -0.043360572
0000a0 2e 3c 30 3b 77 46 9f 3d a1 cd a0 bd d2 c2 a3 bd
       0.0026891339 0.07777112 -0.078517206 -0.079961434
0000b0 b6 cb 49 3d 16 45 96 3d 94 e0 a9 3d f1 24 a4 3c
       0.04926654 0.07337396 0.08294788 0.020037146
0000c0 fb 77 90 3d 4e da 6d bd 54 ae 94 bd 4b 03 04 3d
       0.070541345 -0.05806952 -0.07259813 0.032229703
0000d0 85 d5 8c bd db 03 a6 bd 45 82 3b 3d 1a 15 21 3d
       -0.06876663 -0.08106204 0.04577853 0.039326765
0000e0 8f 1f 95 3d c7 01 93 bd 0d fa a2 3d 38 8c a6 bd
       0.0728141 -0.071780734 0.0795785 -0.08132213
0000f0 45 56 7a bc 16 1b ad 3c 1f a6 45 3c be 83 7d 3d
       -0.015279357 0.02113108 0.012063532 0.061893217
000100 39 8f 23 3b ae 56 26 3c da 73 87 bd 55 d0 9c bd
       0.0024957194 0.010152502 -0.06613894 -0.07656924
000110 6c 8b 59 3c 92 4c 8e 3d 0c 55 fd 3b 53 0f ca bc
       0.01327787 0.069481984 0.0077310856 -0.02466551
000120 9c 69 fb 3b 37 10 8d 3d 2f 33 9d 3b 73 7e 67 bd
       0.0076725017 0.06887858 0.0047973613 -0.056517076
000130 a4 02 8d bd 63 7e 20 3c 21 5f 39 bd ca b3 95 3d
       -0.06885269 0.009795758 -0.045256738 0.07309683
000140 08 a2 20 3d 2e 58 43 3b 79 e7 17 3d 96 f3 93 3d
       0.039217025 0.0029807198 0.037085984 0.07224195
000150 07 6f 02 bd 7e fe a3 3d 72 ec 51 3d 91 80 89 3b
       -0.031844165 0.08007525 0.051250882 0.0041962345
000160 a5 a6 c4 bb b0 ee 85 bd b0 4b be 3c e7 51 1a 3d
       -0.006001311 -0.06539667 0.02322945 0.037675764
000170 40 5c 85 bb 8d 23 1f bd 2f a5 44 3c 2d 2b a2 bc
       -0.004069835 -0.038852263 0.012002273 -0.019795978
000180 f3 8d 35 3d de 74 a4 3d ff 20 40 3d 06 88 0a 3d
       0.044324826 0.08030103 0.046906468 0.03382113
000190 7e a3 9b bb 67 d1 10 bd 24 43 7b 3d ff 5e 50 3d
       -0.0047497144 -0.03535595 0.061343327 0.050871845
0001a0 2b d2 35 bd 49 b3 16 bc e4 4b b4 3c 23 f7 b3 3d
       -0.044389885 -0.009198018 0.022008844 0.08787372
0001b0 00 14 21 3d fc e6 a2 bd 7a a6 41 bd e7 d0 11 3d
       0.039325714 -0.07954213 -0.047277905 0.035599615
0001c0 69 20 94 bd 35 75 87 3c ce 89 9f 3d 5f 42 7d bd
       -0.07232744 0.01653538 0.07789956 -0.061830875
0001d0 17 28 b2 bc 0d 05 80 3d dd d8 96 bd 4c 90 00 3d
       -0.021747632 0.06250963 -0.07365582 0.031387612
0001e0 8e 5f a5 3d 76 8e 96 bd 12 75 a0 3c 63 34 16 bc
       0.08074866 -0.07351391 0.019587073 -0.009167763
0001f0 1e 05 02 3d fb 6c ea bc 5a 4b 4e bd a9 37 26 3d
       0.03174316 -0.028616419 -0.05036483 0.040580425

rnn.bias_hh_l0 f4 [128]
000000 07 1a ba bc 4f dd 82 3c ae c6 48 3c 71 14 3c bc
       -0.022717489 0.015974669 0.0122544 -0.011479483
000010 33 ed 22 bd b0 20 64 bd 5f 69 6f 3d f4 d2 17 bd
       -0.039776992 -0.055695236 0.0584501 -0.037066415
000020 42 26 a2 3d 1a d3 3f bc bf d4 48 3d 31 86 01 3c
       0.07917453 -0.011708045 0.049031015 0.007905529
000030 c0 81 1e bd 60 52 7c bd 8c 2d 10 bc 58 44 e5 3c
       -0.038697958 -0.061601996 -0.008799922 0.02798669
000040 fc 49 8e 3d b7 e5 09 3d 73 f4 d4 3a 39 85 5a bd
       0.06947705 0.03366634 0.0016247168 -0.053349707
000050 a4 c6 73 3d e7 67 b1 3d 91 4e 71 3c ad 22 09 bc
       0.05951561 0.08662396 0.014728204 -0.008370084
000060 fa 97 0b bd 06 f6 8c bd 04 fe b3 bb 4b f8 95 bd
       -0.034080483 -0.06882863 -0.0054929275 -0.07322749
000070 59 0a 8f bd e4 99 c9 bc c0 93 05 bd 86 7d 65 3d
       -0.069843955 -0.024609514 -0.03261161 0.05602791
000080 6c 64 0e bd 2a 91 89 bd d8 cf b3 ba dc f5 aa bd
       -0.03476374 -0.06717141 -0.0013718558 -0.08347675
000090 da 13 42 3d e1 b7 49 bd 9e 41 39 bd a6 dd 6d bd
       0.047382213 -0.049247626 -0.045228593 -0.05807271
0000a0 22 42 72 bd 77 a0 a1 bd 07 f9 61 bd 7a 17 62 bd
       -0.0591451 -0.07891934 -0.05516913 -0.05519817
0000b0 d2 82 ac bd f7 f3 a0 3d 57 44 bb 3c 43 77 a3 3d
       -0.084233895 0.078590326 0.022859735 0.07981732
0000c0 8b 24 05 bd a1 0e 7d bd b2 70 95 bd c7 8c 5d 3d
       -0.032505553 -0.06178153 -0.072968856 0.054089334
0000d0 08 c3 07 bc bb 72 93 bc 11 01 7c 3d 87 63 53 bd
       -0.008286245 -0.017999044 0.061524455 -0.05160859
0000e0 e4 a8 20 3c ce 6b 59 3d a8 71 f0 3a 44 bf 29 3d
       0.009805892 0.053081326 0.0018344419 0.04144217
0000f0 7c f6 a5 39 51 ba 19 3c 71 ad 7d 3d d6 e1 35 3d
       0.00031654898 0.0093828 0.061932985 0.044404827
000100 93 4f 7b 3d d0 0f 9f bc 09 2a b2 bd 1c e2 56 3d
       0.061355185 -0.01941672 -0.08699424 0.05246173
000110 92 23 55 bc 45 a2 bc bc e8 a5 6c 3d b1 a2 92 3d
       -0.013008969 -0.023026595 0.057775408 0.07159937
000120 cb 92 84 bb 19 80 61 3c 38 6e 34 bd 6e 10 e9 bc
       -0.0040458194 0.013763451 -0.044050425 -0.028450217
000130 37 6a f1 bc a0 5d 8e bd 81 80 62 3d 34 a3 ae 3d
       -0.029469592 -0.06951451 0.055298332 0.08527222
000140 03 4c ac 3d 82 85 66 bd b6 e8 f2 3c 36 0b cb bc
       0.084129356 -0.056279667 0.02965198 -0.02478562
000150 ed 45 5f bd 2e f2 13 3d 1b 43 d0 3b 1b 73 44 3d
       -0.054510046 0.036119632 0.006355656 0.047961336
000160 ab 66 a0 3d 16 b2 b3 3d e7 c7 19 bd 09 bf d0 3c
       0.07832082 0.087742016 -0.037544157 0.025481718
000170 2d 4d 18 bd d2 c5 5d 3d 23 02 30 3d 3b a6 3c bd
       -0.037182976 0.054143734 0.042970788 -0.046056967
000180 d9 68 07 bd 3a d6 50 bd 1d ef cd bc 5b d6 99 bd
       -0.033058975 -0.050985552 -0.025138432 -0.07511588
000190 44 5f a9 3d c7 0f 9e 3d f4 07 eb 3c 8b 55 a2 3c
       0.082701236 0.07717853 0.028690316 0.01981618
0001a0 c6 dd e7 bc 64 1a 7d 3d 35 68 d2 bc b8 74 a0 3d
       -0.028303992 0.061792746 -0.025684455 0.07834762
0001b0 a2 f1 55 bd eb 3d b4 3d 04 ad 8f 3d 02 8e 92 bd
       -0.052232392 0.088008724 0.07015422 -0.07155992
0001c0 6a 81 44 bd 36 76 ba bc af 09 98 3d 8a 2f 6d 3d
       -0.04797498 -0.022761445 0.07423722 0.057906665
0001d0 1b a0 b1 bc 44 df ab bd 48 c0 4f bd 0a fa 65 3d
       -0.02168279 -0.08392194 -0.050720483 0.05614666
0001e0 b0 d5 12 3d 9d 18 47 bd 2f 2e 31 3d 0f d7 9a 3d
       0.03584832 -0.048607457 0.043256935 0.075605504
0001f0 3d 3a 97 bd 92 90 a2 bd 3f 86 53 bd 42 53 b0 3b
       -0.07384155 -0.07937731 -0.0516417 0.005381019

output_layer.weight f4 [1, 128]
000000 53 59 ab bd 9e 42 01 be 4b 91 20 3d 25 1e c1 bc
       -0.083666466 -0.12623069 0.039201062 -0.023573944
000010 43 e8 ba bd 03 97 de 3d b4 12 e8 3c ad 8b 40 3a
       -0.09126332 0.10868647 0.02832923 0.0007345032
000020 43 9d c9 bd 92 bb ed 3d 2c bc 8a 3d 2f 97 a2 3c
       -0.098444484 0.11608042 0.06774172 0.01984748
000030 1c 6d 14 be fa 8c ca 3c c3 f3 05 3e a2 c7 05 3e
       -0.14494747 0.024725426 0.13081269 0.13064435
000040 4e 84 18 be 24 2f db bd a7 72 73 3d 8d a9 13 3e
       -0.1489422 -0.10702351 0.059435513 0.14420147
000050 c2 e4 2d be 2c 93 b7 bd c9 87 df bd 13 61 1d be
       -0.16981795 -0.08963618 -0.10914571 -0.15369062
000060 10 a2 28 be b0 75 43 3d 95 b1 d7 bd 54 8c 95 3d
       -0.16468072 0.047719657 -0.10531918 0.07302156
000070 c6 e8 e8 bd 91 74 90 bd bf 98 16 be d4 96 1f 3e
       -0.11372523 -0.07053483 -0.14706706 0.1558488
000080 25 de ee bd b6 3c b8 bd 8f f7 59 ba 08 95 fe 3d
       -0.116634645 -0.08995955 -0.0008314782 0.12430769
000090 90 e3 62 3d a7 8c 4d bd 25 6c 09 be b0 52 70 3d
       0.0553928 -0.050182965 -0.1342016 0.058672607
0000a0 6f 91 aa 3d 50 ba c2 3d ad 1f e4 bd c0 bf 35 3e
       0.083285205 0.095081925 -0.11138854 0.17748928
0000b0 1b 88 c5 bd 9c 41 25 bc 7d 60 fe bd 54 69 09 be
       -0.09645101 -0.010086443 -0.124207474 -0.13419086
0000c0 09 f9 38 3e b2 98 bd bc 34 ef 17 bd 32 e4 dd bd
       0.1806375 -0.0231441 -0.037093356 -0.108345404
0000d0 f0 fc 20 3d 04 69 dc bd 8c 8d d8 bd b7 6e 8e bb
       0.03930372 -0.10762218 -0.10573873 -0.0043466943
0000e0 3d 9a 20 bd cc eb fe bd 14 ac 00 bd 31 8c d6 bc
       -0.039209593 -0.124473184 -0.031414106 -0.026189895
0000f0 ad 1d 1e 3e 37 98 e1 3d 73 fb 2d bd ad fc e2 3c
       0.15441008 0.11015361 -0.04247613 0.027708376
000100 00 c0 0e 3d b0 ea 9f bd 36 01 db 3c 52 19 cc bd
       0.034851074 -0.07808435 0.026733976 -0.09965767
000110 3d 47 02 3e a8 85 47 bd f2 56 f3 bd e0 fe 7c 3d
       0.12722488 -0.04871145 -0.11881818 0.061766505
000120 71 d0 06 3e 10 0c 26 3e 63 62 cf 3d 33 3d 9b bd
       0.13165452 0.16215539 0.10126188 -0.07580032
000130 f6 d3 4f 3d 10 66 08 be 2c 6f 3d be 4c d4 ba bd
       0.05073925 -0.13320184 -0.1849944 -0.09122524
000140 0d 90 9a 3d 6c 2f f4 bd 89 59 b6 3c 54 64 b9 bc
       0.07547007 -0.119231075 0.02225949 -0.022630848
000150 ea 0e cf bd b6 0e c2 bd 71 d9 25 3e f1 33 fe 3d
       -0.101102665 -0.09475462 0.16196229 0.12412251
000160 1f b6 1a be 79 c6 e5 bd 49 ff e4 bd f7 06 3c 3d
       -0.15108536 -0.11219496 -0.11181504 0.04590508
000170 45 0d c7 3d 29 e4 04 be 9c 0d 2f be 14 3b 1e 3e
       0.09719328 -0.12977661 -0.17095035 0.15452224
000180 a7 b0 ec bc b5 28 23 bd 80 cd 58 3d e8 8b 16 3e
       -0.028892828 -0.039833743 0.052930355 0.14701807
000190 90 6d 2c be 01 dc c9 bd 3b 13 16 be 0c 4d 9c bd
       -0.1683867 -0.098564155 -0.14655773 -0.07631883
0001a0 9f 4c 65 3d 58 d6 b5 3d 94 8b 06 be 7c b3 1f be
       0.055981275 0.088787735 -0.13139182 -0.15595812
0001b0 c7 80 7d bd cf 73 17 be ce ff 25 be 04 3a 3b 3d
       -0.06189039 -0.14790271 -0.16210863 0.045709625
0001c0 f1 f6 77 3b ae dd 2d be 22 74 c5 bd d3 64 03 3e
       0.0037836398 -0.16979095 -0.09641291 0.1283143
0001d0 ce 7e 01 3e 0c 0b 12 3e 7c 5f d5 3d b1 43 07 3e
       0.12646028 0.14262027 0.10418603 0.13209416
0001e0 67 c9 28 be 11 89 e9 ba 59 ed 0c be 95 34 f8 ba
       -0.16483079 -0.0017817338 -0.13762416 -0.0018936569
0001f0 a8 09 38 3e 16 4f cc 3c 91 37 af 3d 56 7b 08 be
       0.17972434 0.024940055 0.0855552 -0.13328299

exp_avg f4 [128, 53]
000000 ce 8f 3c 39 95 f2 00 38 57 32 c0 38 94 0f 2a 39
       0.00017982649 3.07435e-05 9.16465e-05 0.00016218267
000010 43 0c 6e 39 f1 99 1d 39 e7 7c 45 b6 69 8b 02 39
       0.00022702017 0.00015030034 -2.942799e-06 0.000124497
000020 15 d2 69 39 f6 c6 03 b8 58 d8 56 38 92 4c d4 38
       0.00022298873 -3.141813e-05 5.122306e-05 0.0001012321
000030 d6 ec c6 b8 01 bc 10 b9 0b 70 c2 38 a2 52 50 39
       -9.48549e-05 -0.00013802947 9.2715105e-05 0.00019867209
000040 18 90 45 37 d6 ff 03 38 d6 b1 ae 38 77 e5 5f 39
       1.17756645e-05 3.14711e-05 8.330091e-05 0.0002135242
000050 ae 6d 53 37 f9 48 9c 35 15 21 7d 38 04 2a f4 37
       1.2602117e-05 1.1644144e-06 6.035071e-05 2.9106632e-05
000060 48 cb 7f 38 7f 5e ac b7 00 00 00 00 00 00 00 00
       6.0986058e-05 -2.0548001e-05 0.0 0.0
000070 00 00 00 00 00 00 00 00 00 00 00 00 00 00 00 00
       0.0 0.0 0.0 0.0
000080 00 00 00 00 00 00 00 00 00 00 00 00 00 00 00 00
       0.0 0.0 0.0 0.0
000090 00 00 00 00 00 00 00 00 00 00 00 00 00 00 00 00
       0.0 0.0 0.0 0.0
0000a0 00 00 00 00 00 00 00 00 00 00 00 00 00 00 00 00
       0.0 0.0 0.0 0.0
0000b0 00 00 00 00 00 00 00 00 00 00 00 00 00 00 00 00
       0.0 0.0 0.0 0.0
0000c0 00 00 00 00 00 00 00 00 00 00 00 00 00 00 00 00
       0.0 0.0 0.0 0.0
0000d0 64 0b 56 39 0b 22 88 3a fd 00 23 37 c0 34 ee 39
       0.00020412874 0.0010386122 9.715787e-06 0.000454342
0000e0 d2 36 b4 39 db b0 97 38 36 39 db 37 e7 7b 18 b9
       0.0003437312 7.233183e-05 2.6133475e-05 -0.00014542007
0000f0 d6 f7 bb 39 39 53 0c 3a 84 eb 3b 38 7a 6f e1 38
       0.00035852072 0.00053529773 4.4803615e-05 0.000107496
000100 6c 26 5f 39 58 f1 81 38 ac 60 75 b6 f4 7a 0b 39
       0.0002128125 6.196153e-05 -3.6564115e-06 0.00013301877
000110 eb 18 ee 38 99 99 25 b8 f9 aa 12 3a af 75 d2 39
       0.00011353366 -3.9482115e-05 0.0005594935 0.00040142002
000120 a0 ca 37 3a 3f 57 a0 39 9b d9 4a 39 ad 94 2b b9
       0.00070110895 0.00030582582 0.00019345286 -0.00016363217
000130 9c 17 7b 38 4f a1 16 39 6e 17 1b b5 00 00 00 00
       5.986505e-05 0.00014365207 -5.7776094e-07 0.0
000140 00 00 00 00 00 00 00 00 00 00 00 00 00 00 00 00
       0.0 0.0 0.0 0.0
000150 00 00 00 00 00 00 00 00 00 00 00 00 00 00 00 00
       0.0 0.0 0.0 0.0
000160 00 00 00 00 00 00 00 00 00 00 00 00 00 00 00 00
       0.0 0.0 0.0 0.0
000170 00 00 00 00 00 00 00 00 00 00 00 00 00 00 00 00
       0.0 0.0 0.0 0.0
000180 00 00 00 00 00 00 00 00 00 00 00 00 00 00 00 00
       0.0 0.0 0.0 0.0
000190 00 00 00 00 00 00 00 00 00 00 00 00 00 00 00 00
       0.0 0.0 0.0 0.0
0001a0 00 00 00 00 22 7b 78 3a 7e 85 83 39 82 6d f0 b8
       0.0 0.00094787974 0.00025085727 -0.00011464489
0001b0 75 c9 0f 39 9c 9d 15 39 c2 d8 8f b7 45 a0 04 38
       0.00013712591 0.00014268461 -1.7147864e-05 3.1620515e-05
0001c0 c8 6b 73 37 5b 94 4d 38 7a 58 16 39 40 25 82 36
       1.45090235e-05 4.9013976e-05 0.00014338075 3.8786384e-06
0001d0 98 7e c1 37 96 40 8d b8 6d c7 7f 39 e6 25 37 b8
       2.3066343e-05 -6.735434e-05 0.00024392987 -4.3665896e-05
0001e0 a6 4e 35 b8 15 29 19 b9 71 02 1c b8 2c 10 b9 37
       -4.322701e-05 -0.00014606521 -3.7195572e-05 2.206125e-05
0001f0 3d 3e 59 b7 e5 4f 2a 39 57 47 3a 38 d4 57 6e b8
       -1.2948699e-05 0.00016242226 4.4412296e-05 -5.6825418e-05
000200 67 53 e1 b8 2f 14 a6 36 aa 61 47 38 20 28 45 37
       -0.00010744371 4.949535e-06 4.7536254e-05 1.1751457e-05
000210 00 00 00 00 00 00 00 00 00 00 00 00 00 00 00 00
       0.0 0.0 0.0 0.0
000220 00 00 00 00 00 00 00 00 00 00 00 00 00 00 00 00
       0.0 0.0 0.0 0.0
000230 00 00 00 00 00 00 00 00 00 00 00 00 00 00 00 00
       0.0 0.0 0.0 0.0
000240 00 00 00 00 00 00 00 00 00 00 00 00 00 00 00 00
       0.0 0.0 0.0 0.0
000250 00 00 00 00 00 00 00 00 00 00 00 00 00 00 00 00
       0.0 0.0 0.0 0.0
000260 00 00 00 00 00 00 00 00 00 00 00 00 00 00 00 00
       0.0 0.0 0.0 0.0
000270 00 00 00 00 00 00 00 00 99 48 88 38 d3 3d a0 b8
       0.0 0.0 6.498508e-05 -7.64091e-05
000280 aa da 45 38 01 e4 23 b9 10 4b 80 38 b1 d0 17 b8
       4.7172107e-05 -0.0001562983 6.117497e-05 -3.6195564e-05
000290 7f 2a 76 38 69 eb 1c b8 68 d9 55 35 ed 60 1c 38
       5.8690548e-05 -3.741254e-05 7.966505e-07 3.7283568e-05
0002a0 01 db 91 37 39 0a 51 38 ca 4c 42 38 1f 4e 26 b9
       1.7387329e-05 4.9839004e-05 4.632472e-05 -0.00015860096
0002b0 ca 81 2c b9 af fb 18 b8 eb 20 de 38 00 61 bf b7
       -0.00016451548 -3.6474023e-05 0.00010591916 -2.2814143e-05
0002c0 4d ed 5c b9 ab 62 e1 38 24 80 07 b9 37 8a f2 37
       -0.00021069236 0.000107472144 -0.0001292234 2.891301e-05
0002d0 18 4b bd 38 71 49 dc 38 1e 7f 96 b7 55 c3 9b 38
       9.0262096e-05 0.00010504097 -1.7940587e-05 7.4273594e-05
0002e0 fc 69 5e b7 00 00 00 00 00 00 00 00 00 00 00 00
       -1.3256908e-05 0.0 0.0 0.0
0002f0 00 00 00 00 00 00 00 00 00 00 00 00 00 00 00 00
       0.0 0.0 0.0 0.0
000300 00 00 00 00 00 00 00 00 00 00 00 00 00 00 00 00
       0.0 0.0 0.0 0.0
000310 00 00 00 00 00 00 00 00 00 00 00 00 00 00 00 00
       0.0 0.0 0.0 0.0
000320 00 00 00 00 00 00 00 00 00 00 00 00 00 00 00 00
       0.0 0.0 0.0 0.0
000330 00 00 00 00 00 00 00 00 00 00 00 00 00 00 00 00
       0.0 0.0 0.0 0.0
000340 00 00 00 00 00 00 00 00 00 00 00 00 89 26 1b 39
       0.0 0.0 0.0 0.00014796307
000350 0f 4e 6a 38 f7 72 c8 b6 b3 19 77 b9 a7 fe 00 39
       5.5862645e-05 -5.973848e-06 -0.0002356533 0.00012301897
000360 ad 7d 17 b7 52 6b 8f b8 28 ec 1f 39 52 6c d6 b8
       -9.0295625e-06 -6.838761e-05 0.00015251397 -0.000102244914
000370 68 f3 c0 36 68 85 13 38 28 5c 42 b8 27 dc a1 38
       5.750382e-06 3.5171775e-05 -4.633903e-05 7.718085e-05
000380 ec d3 14 39 18 06 58 b8 58 47 18 b9 48 d1 88 b8
       0.00014193327 -5.150409e-05 -0.00014522427 -6.523967e-05
000390 0b 35 a6 b8 a3 17 ac b8 78 99 43 39 44 72 c6 b9
       -7.925377e-05 -8.206002e-05 0.00018653821 -0.00037850637
0003a0 aa 50 52 39 f2 2b 6b b8 8a 0b b8 b8 8b 26 96 36
       0.0002005721 -5.6069293e-05 -8.775953e-05 4.4748354e-06
0003b0 28 83 a9 b8 f8 c6 ae 37 00 00 00 00 00 00 00 00
       -8.082978e-05 2.0835068e-05 0.0 0.0
0003c0 00 00 00 00 00 00 00 00 00 00 00 00 00 00 00 00
       0.0 0.0 0.0 0.0
0003d0 00 00 00 00 00 00 00 00 00 00 00 00 00 00 00 00
       0.0 0.0 0.0 0.0
0003e0 00 00 00 00 00 00 00 00 00 00 00 00 00 00 00 00
       0.0 0.0 0.0 0.0
0003f0 00 00 00 00 00 00 00 00 00 00 00 00 00 00 00 00
       0.0 0.0 0.0 0.0

exp_avg_sq f4 [128, 53]
000000 be ee 00 36 7e 8f 68 34 b3 ed 0c 35 25 30 06 35
       1.9212453e-06 2.1658886e-07 5.249996e-07 4.998895e-07
000010 39 55 d1 35 d5 2f dc 33 d3 90 43 34 10 87 b3 34
       1.5596517e-06 1.0253249e-07 1.8213477e-07 3.343962e-07
000020 57 1e b8 35 3e e8 87 31 ad 52 02 34 4a 57 54 35
       1.3717898e-06 3.95542e-09 1.2137271e-07 7.9103177e-07
000030 3c 95 ba 34 cc ca 81 35 0d 5f f2 35 95 40 82 34
       3.4753782e-07 9.670271e-07 1.8058068e-06 2.4261377e-07
000040 4c 8b 06 31 e6 0c e0 35 3c e3 8a 35 b0 df ee 35
       1.9578748e-09 1.6693054e-06 1.0347935e-06 1.7797483e-06
000050 4b 67 a1 34 b2 ed 63 33 8d ca 1e 34 78 69 0e 31
       3.0063742e-07 5.306874e-08 1.4788584e-07 2.0723672e-09
000060 b6 c7 03 34 e0 27 c9 30 00 00 00 00 00 00 00 00
       1.227298e-07 1.4636008e-09 0.0 0.0
000070 00 00 00 00 00 00 00 00 00 00 00 00 00 00 00 00
       0.0 0.0 0.0 0.0
000080 00 00 00 00 00 00 00 00 00 00 00 00 00 00 00 00
       0.0 0.0 0.0 0.0
000090 00 00 00 00 00 00 00 00 00 00 00 00 00 00 00 00
       0.0 0.0 0.0 0.0
0000a0 00 00 00 00 00 00 00 00 00 00 00 00 00 00 00 00
       0.0 0.0 0.0 0.0
0000b0 00 00 00 00 00 00 00 00 00 00 00 00 00 00 00 00
       0.0 0.0 0.0 0.0
0000c0 00 00 00 00 00 00 00 00 00 00 00 00 00 00 00 00
       0.0 0.0 0.0 0.0
0000d0 bd 0c 4f 37 da 10 71 38 b1 e4 8f 36 a6 32 8b 37
       1.2341127e-05 5.747457e-05 4.2883553e-06 1.6593676e-05
0000e0 a5 4a 7e 37 2a 5e 52 38 80 11 5d 36 9f 90 94 36
       1.5156959e-05 5.01556e-05 3.2941753e-06 4.42758e-06
0000f0 f0 01 33 37 d1 54 f5 37 f4 76 0f 34 96 ed 3c 36
       1.06696825e-05 2.9245772e-05 1.3361188e-07 2.8152476e-06
000100 c7 81 d4 37 09 92 2e 37 0a 15 ed 37 18 fe 45 38
       2.5332802e-05 1.040521e-05 2.8262399e-05 4.7205103e-05
000110 f6 97 03 37 ec 3c 06 33 c1 58 13 38 b4 dc d6 37
       7.84359e-06 3.1254714e-08 3.513019e-05 2.561356e-05
000120 c9 95 3d 38 f7 5a 20 37 9a 9f e1 35 cc 8a 83 36
       4.520061e-05 9.557923e-06 1.6810257e-06 3.9202623e-06
000130 b8 8f cf 33 e3 79 6b 36 dc 54 81 33 00 00 00 00
       9.665331e-08 3.5088676e-06 6.0224664e-08 0.0
000140 00 00 00 00 00 00 00 00 00 00 00 00 00 00 00 00
       0.0 0.0 0.0 0.0
000150 00 00 00 00 00 00 00 00 00 00 00 00 00 00 00 00
       0.0 0.0 0.0 0.0
000160 00 00 00 00 00 00 00 00 00 00 00 00 00 00 00 00
       0.0 0.0 0.0 0.0
000170 00 00 00 00 00 00 00 00 00 00 00 00 00 00 00 00
       0.0 0.0 0.0 0.0
000180 00 00 00 00 00 00 00 00 00 00 00 00 00 00 00 00
       0.0 0.0 0.0 0.0
000190 00 00 00 00 00 00 00 00 00 00 00 00 00 00 00 00
       0.0 0.0 0.0 0.0
0001a0 00 00 00 00 df 12 b0 39 39 99 3e 36 70 6c 4c 34
       0.0 0.00033583396 2.8401394e-06 1.903843e-07
0001b0 7f 9e 3f 35 f0 b2 2e 35 1c b3 14 36 55 b8 15 34
       7.1383687e-07 6.508044e-07 2.2157974e-06 1.3943766e-07
0001c0 af 3a 62 34 77 3b fb 34 8a 20 c9 35 1d d8 e9 31
       2.1069239e-07 4.679566e-07 1.4985137e-06 6.8057617e-09
0001d0 02 7a 0b 34 1d 41 93 35 4a 1e ef 34 4a a5 ae 35
       1.298977e-07 1.0971304e-06 4.4539257e-07 1.3012116e-06
0001e0 69 db 1a 36 de e0 99 34 7c 8b 2c 31 b0 5c d0 35
       2.3075502e-06 2.8662083e-07 2.5108582e-09 1.5524183e-06
0001f0 fe 77 8d 35 8a 6d 09 36 4d 50 f7 34 06 5f 95 33
       1.0540241e-06 2.047835e-06 4.6065762e-07 6.955638e-08
000200 fd bb 37 34 2c 2b b1 31 49 07 2a 34 e7 9d 63 31
       1.7111593e-07 5.156286e-09 1.5835134e-07 3.3122605e-09
000210 00 00 00 00 00 00 00 00 00 00 00 00 00 00 00 00
       0.0 0.0 0.0 0.0
000220 00 00 00 00 00 00 00 00 00 00 00 00 00 00 00 00
       0.0 0.0 0.0 0.0
000230 00 00 00 00 00 00 00 00 00 00 00 00 00 00 00 00
       0.0 0.0 0.0 0.0
000240 00 00 00 00 00 00 00 00 00 00 00 00 00 00 00 00
       0.0 0.0 0.0 0.0
000250 00 00 00 00 00 00 00 00 00 00 00 00 00 00 00 00
       0.0 0.0 0.0 0.0
000260 00 00 00 00 00 00 00 00 00 00 00 00 00 00 00 00
       0.0 0.0 0.0 0.0
000270 00 00 00 00 00 00 00 00 8c 79 35 37 2f cf 4e 33
       0.0 0.0 1.08167405e-05 4.8151545e-08
000280 c4 a6 06 32 50 9d ae 32 b5 de 7b 32 87 4a 27 33
       7.837745e-09 2.0327803e-08 1.4660761e-08 3.89505e-08
000290 fa 42 b9 31 ca 82 fd 31 f7 fb ad 32 f1 80 9d 32
       5.391823e-09 7.378138e-09 2.0254431e-08 1.8335841e-08
0002a0 b2 bc 20 30 49 2a d3 31 06 a6 ed 32 02 91 19 33
       5.8475813e-10 6.1457155e-09 2.766593e-08 3.5754972e-08
0002b0 19 4b 09 33 a8 60 3a 33 bb 0e 32 32 eb bd 1b 30
       3.19661e-08 4.3394408e-08 1.0364313e-08 5.665856e-10
0002c0 3c b0 8a 33 a5 63 a5 32 5a e7 4e 33 2f c3 1a 32
       6.4581826e-08 1.9253841e-08 4.8173526e-08 9.008359e-09
0002d0 61 b9 d3 31 03 27 18 32 e3 76 69 30 cf 2f 04 32
       6.1619834e-09 8.856435e-09 8.4933854e-10 7.694282e-09
0002e0 e4 df f6 2f 00 00 00 00 00 00 00 00 00 00 00 00
       4.4906223e-10 0.0 0.0 0.0
0002f0 00 00 00 00 00 00 00 00 00 00 00 00 00 00 00 00
       0.0 0.0 0.0 0.0
000300 00 00 00 00 00 00 00 00 00 00 00 00 00 00 00 00
       0.0 0.0 0.0 0.0
000310 00 00 00 00 00 00 00 00 00 00 00 00 00 00 00 00
       0.0 0.0 0.0 0.0
000320 00 00 00 00 00 00 00 00 00 00 00 00 00 00 00 00
       0.0 0.0 0.0 0.0
000330 00 00 00 00 00 00 00 00 00 00 00 00 00 00 00 00
       0.0 0.0 0.0 0.0
000340 00 00 00 00 00 00 00 00 00 00 00 00 44 98 97 34
       0.0 0.0 0.0 2.823673e-07
000350 3e ec c6 36 bd 94 f0 34 54 fe dc 35 6f 7b db 35
       5.928362e-06 4.4811705e-07 1.6465297e-06 1.6352695e-06
000360 88 a4 8d 36 80 c9 a5 34 5a 33 0a 35 5c 4a 9d 35
       4.2212814e-06 3.0880256e-07 5.148373e-07 1.1719053e-06
000370 5c 95 54 36 86 ee 93 32 2c 7d b2 34 f6 8d 26 36
       3.16774e-06 1.722152e-08 3.3246158e-07 2.481856e-06
000380 25 95 9d 35 45 39 3d 36 e0 98 a3 36 50 39 36 35
       1.1740818e-06 2.819653e-06 4.8755755e-06 6.7883684e-07
000390 fa 1f ef 31 99 f3 85 36 d6 67 2c 36 16 72 c3 36
       6.959451e-09 3.9920674e-06 2.5690438e-06 5.824734e-06
0003a0 d7 70 7d 35 42 12 54 34 0d 1f d8 34 de cb 3c 32
       9.441405e-07 1.9750681e-07 4.0255728e-07 1.0989394e-08
0003b0 5c e7 d5 34 41 11 1f 32 00 00 00 00 00 00 00 00
       3.9842678e-07 9.258941e-09 0.0 0.0
0003c0 00 00 00 00 00 00 00 00 00 00 00 00 00 00 00 00
       0.0 0.0 0.0 0.0
0003d0 00 00 00 00 00 00 00 00 00 00 00 00 00 00 00 00
       0.0 0.0 0.0 0.0
0003e0 00 00 00 00 00 00 00 00 00 00 00 00 00 00 00 00
       0.0 0.0 0.0 0.0
0003f0 00 00 00 00 00 00 00 00 00 00 00 00 00 00 00 00
       0.0 0.0 0.0 0.0

exp_avg f4 [128, 128]
000000 5e 66 04 3a 93 36 15 b8 be 15 da b6 47 b9 45 39
       0.0005050654 -3.5575194e-05 -6.4994374e-06 0.00018856405
000010 35 5a 1b b8 94 98 16 ba 98 e9 8a b9 89 2c e3 b8
       -3.703889e-05 -0.0005744782 -0.00026495452 -0.00010832499
000020 ce 7a 5d 3a 1c 8a 4a ba 32 f6 84 b9 b5 6e 22 38
       0.000844878 -0.00077262684 -0.00025360432 3.8726914e-05
000030 ac a8 e8 39 7b ec f1 b9 4e 57 ff b9 3d 8e 4f 37
       0.0004437616 -0.00046143294 -0.00048702437 1.2371279e-05
000040 14 5e bb 39 a9 8a 82 38 84 0a 9c b9 ee 37 01 ba
       0.00035737513 6.2247105e-05 -0.00029762473 -0.00049292936
000050 6a f7 00 3a 6a b3 68 39 f3 b5 24 3a 09 76 90 39
       0.000491968 0.00022192081 0.0006283216 0.00027553763
000060 12 45 e9 39 f7 11 e8 b9 73 99 37 3a 18 b4 bb b9
       0.00044492685 -0.00044263873 0.0007003762 -0.000358016
000070 6c a3 d1 b9 b1 e5 3a b8 7e 59 35 3a 2b 2c d9 b9
       -0.00039985345 -4.4559773e-05 0.00069179374 -0.00041422373
000080 ad e3 72 b9 14 c8 08 39 a4 9b e1 b9 43 e1 0a b8
       -0.00023163734 0.00013044506 -0.00043031306 -3.3111555e-05
000090 01 1c 10 3a 5c 8a 51 39 a2 af 14 3a a6 17 3f ba
       0.0005497337 0.00019983336 0.0005671923 -0.00072895957
0000a0 47 6d b8 b9 58 2f 78 39 66 82 19 39 a3 35 64 ba
       -0.00035176633 0.0002366876 0.00014639794 -0.0008705502
0000b0 ec 3e 9d b9 ea 1b 20 3a 5b af d0 39 b7 1e 8a 39
       -0.00029992254 0.0006107675 0.00039803502 0.00026344295
0000c0 67 02 fd b9 d4 2d f7 b9 79 33 66 39 fd 3c 6b 3a
       -0.0004825771 -0.00047145656 0.00021953684 0.00089736265
0000d0 3a d2 d3 b9 8a 31 eb 37 c0 30 24 3a 3c 85 30 37
       -0.00040401687 2.8037251e-05 0.0006263368 1.05214385e-05
0000e0 c1 56 2f 3a d6 f6 c8 39 e3 54 9b 39 8f 14 8b b9
       0.00066886476 0.0003833088 0.0002962715 -0.00026527463
0000f0 d7 a8 8b b9 78 f6 a4 b8 cd e1 b8 39 02 eb 98 38
       -0.00026637941 -7.866038e-05 0.0003526345 7.2916984e-05
000100 62 dc 32 b9 ba 2f 03 b9 a9 03 28 ba 66 b6 55 3a
       -0.00017057502 -0.00012510913 -0.0006409237 0.00081524847
000110 74 a2 99 b9 85 7e f9 b7 82 3a ba 39 5b 68 61 38
       -0.0002930347 -2.9742028e-05 0.00035520276 5.374137e-05
000120 67 72 3b 38 a4 f2 bc 38 03 9f 43 ba cb e9 97 b8
       4.469082e-05 9.009734e-05 -0.0007462354 -7.2437884e-05
000130 7f 80 f0 b9 80 61 b5 39 68 ec df 38 4e 9f 47 3a
       -0.00045872104 0.00034595653 0.00010677503 0.0007614986
000140 5a 6c 88 b9 00 02 3e 39 7d ba 49 39 6e b7 18 3a
       -0.0002602067 0.00018120557 0.00019238326 0.0005825673
000150 a2 93 e1 b9 ab d7 d5 39 76 86 2c ba 63 1b 2f 39
       -0.0004302534 0.0004078721 -0.00065813155 0.00016699503
000160 df 86 1f 3a a3 21 e9 38 cf 12 7c b8 10 9c 6b b9
       0.0006085466 0.00011116571 -6.0099e-05 -0.00022469484
000170 17 45 81 ba 5a 27 a5 39 10 55 02 39 85 ae 0a ba
       -0.0009862509 0.00031500572 0.00012429454 -0.00052902877
000180 e3 02 b4 39 37 cc 27 b7 73 1f 06 ba 3e 84 3d ba
       0.00034334426 -1.0001523e-05 -0.00051163806 -0.00072294835
000190 d4 a2 e0 39 ae 05 05 3a 0a 4c b6 39 f6 71 9d 39
       0.00042845926 0.00050743937 0.000347704 0.0003003028
0001a0 db 0b ac b9 69 59 5e b9 ad cc 27 3a 71 26 40 3a
       -0.0003281523 -0.00021204878 0.00064010435 0.0007329947
0001b0 73 e9 77 b9 9b 72 c6 39 4f 4e 4c 3a f5 d6 83 39
       -0.00023642722 0.0003785089 0.00077936513 0.00025146423
0001c0 31 22 f2 b9 f8 61 be 39 a6 a2 c1 39 c2 94 41 38
       -0.00046183311 0.00036312616 0.0003693301 4.6153327e-05
0001d0 e8 bc 38 b9 52 14 aa b9 25 c4 4d ba 90 fe 1b 39
       -0.0001761798 -0.00032440067 -0.0007849357 0.00014876784
0001e0 0f 64 14 3a b3 0d 0b ba 0f 75 17 3a ed ad 88 39
       0.0005660662 -0.00053044705 0.0005777636 0.00026069526
0001f0 d8 21 1f ba 80 13 3b ba b9 69 79 b9 82 12 02 3a
       -0.0006070412 -0.00071363896 -0.00023785875 0.00049618643
000200 11 f7 c3 3a 5e 9b 2d 38 a7 93 8c b9 65 3a 07 3a
       0.0014950951 4.139111e-05 -0.0002681289 0.0005158543
000210 5e 33 36 3a 42 1d 17 bb 50 0e b1 ba 69 8c f4 b9
       0.00069504033 -0.002305821 -0.0013508294 -0.0004664392
000220 fe e4 5e 3b dc 70 57 bb 15 49 cf ba 6a 3a 2c b9
       0.0034011002 -0.0032873666 -0.0015814627 -0.00016424959
000230 a2 8e d6 3a c4 69 de ba d2 af de ba f6 21 80 39
       0.0016369412 -0.0016968776 -0.0016989654 0.00024439365
000240 e5 4c 81 3a 1c 78 89 38 33 6e a1 ba 44 89 0b bb
       0.0009864835 6.555041e-05 -0.0012316167 -0.0021291533
000250 a1 af 07 3b c9 6c 93 3a 5e ef 0c 3b da ba 93 3a
       0.0020704048 0.001124763 0.0021504979 0.0011270896
000260 c9 c1 b3 3a 5b 66 09 bb 96 48 38 3b 5f 34 d1 ba
       0.0013714369 -0.002096555 0.0028119436 -0.0015961042
000270 84 90 e6 ba ba bf 9d b8 f1 6c 3d 3b 72 f9 01 bb
       -0.0017590676 -7.522055e-05 0.0028904045 -0.001983252
000280 ba 82 d5 ba c7 20 29 3a 26 74 d1 ba 38 89 c0 39
       -0.001628957 0.00064517226 -0.001598005 0.0003672333
000290 97 c8 1e 3b 34 a8 75 3a 31 ae e8 3a d7 19 3b bb
       0.0024228448 0.00093710725 0.0017752108 -0.0028549337
0002a0 32 e0 d2 ba 26 e4 51 3a 2b 33 d1 39 59 c2 4b bb
       -0.0016088544 0.0008006714 0.0003990171 -0.0031091182
0002b0 39 4a c0 ba 3f 4b 0a 3b 74 d3 de 3a 09 0a 38 3a
       -0.0014670558 0.002110198 0.0017000274 0.00070205383
0002c0 9a da 1d bb b8 e9 f1 ba 85 c1 36 3a 2c 39 69 3b
       -0.0024086596 -0.0018456494 0.00069715857 0.0035587056
0002d0 5d dd e5 ba 37 ee e2 38 3d f0 1e 3b 80 05 8e 39
       -0.0017537285 0.00010820891 0.002425208 0.00027088448
0002e0 ef 76 2e 3b 20 1e 03 3b c2 88 8a 3a 7b 04 9d ba
       0.0026621183 0.002000697 0.0010569321 -0.0011979485
0002f0 2a 5e be ba 17 37 0f b9 6d 84 9f 3a 12 c6 45 3a
       -0.0014523913 -0.00013658065 0.0012170203 0.00075444684
000300 c9 dc 61 ba 54 5e 45 b9 8f 9d 14 bb 8b a1 3b 3b
       -0.00086159684 -0.00018822524 -0.002267692 0.0028630223
000310 4d e1 68 ba 79 4c 8e b9 5a 1b b3 3a 1c 55 a3 39
       -0.000888367 -0.00027141327 0.0013664768 0.00031153194
000320 d3 f8 cf b9 74 b2 36 3a c3 54 4a bb 7b 39 26 ba
       -0.00039667505 0.00069693406 -0.0030873276 -0.0006340963
000330 02 e8 cc ba de a0 bd 3a d9 ff 25 b9 6b 3f 43 3b
       -0.0015633109 0.0014467498 -0.00015830937 0.0029792439
000340 55 b2 a2 ba d0 9f 9d 3a a7 29 14 3a 0c ca 18 3b
       -0.0012412766 0.0012025777 0.00056519586 0.0023313789
000350 7e eb ec ba cf d2 fe 3a 99 95 0f bb 00 9e eb 39
       -0.0018075553 0.0019441488 -0.0021909236 0.00044940412
000360 d4 9e 0d 3b 82 7a b8 39 60 92 d8 b9 6c 3a 65 ba
       0.0021609562 0.0003518649 -0.00041307788 -0.0008744362
000370 0b e4 6a bb f3 a0 b1 3a ec 57 88 39 36 7d 1a bb
       -0.003584149 0.0013551995 0.00026005448 -0.0023573167
000380 04 70 c6 3a e6 8d a9 b9 de 5e 09 bb 5b 35 48 bb
       0.0015139584 -0.00032339914 -0.0020961086 -0.003054938
000390 5b 9d e0 3a 1f c2 d1 3a 17 93 48 3a c4 97 9f 3a
       0.0017136739 0.0016003287 0.00076513126 0.0012175967
0003a0 17 15 8f ba d9 32 48 ba 2a cd 3f 3b d8 f1 36 3b
       -0.001091632 -0.00076369714 0.0029266574 0.0027915146
0003b0 2b 12 47 ba cf 36 03 3b b0 ae 7b 3b e0 dc 83 3a
       -0.0007593955 0.0020021682 0.0038403682 0.0010060333
0003c0 3f 66 f5 ba 21 43 8d 3a e6 dc 01 3b a6 1f 59 38
       -0.0018722488 0.0010777452 0.0019815504 5.1766307e-05
0003d0 c3 bc 17 ba f7 23 fb ba 5b 60 41 bb 6f 48 34 3a
       -0.00057883206 -0.0019160499 -0.0029506895 0.00068772485
0003e0 c0 b9 ff 3a 51 32 f4 ba 01 68 18 3b 81 a6 5e 3a
       0.0019510314 -0.0018630718 0.002325535 0.0008493439
0003f0 b1 89 17 bb b7 dd 25 bb f3 e5 01 ba 5e 27 00 3b
       -0.0023122842 -0.0025309154 -0.00049552246 0.0019554715
