rnn2.ckpt (torch, 325178 bytes, 15 tensors)

rnn.weight_ih_l0 f4 [128, 53]
0	0xbd4f5e80	-0.05062723
1	0xbd4fdea4	-0.050749436
2	0xbd4587b8	-0.048225135
3	0x3d831176	0.06399815
4	0xbd990d88	-0.07473284
5	0xbdd027ad	-0.101638176
6	0xbde98491	-0.11402238
7	0xbcc53c48	-0.024076596
8	0x3cfcacd3	0.030844128
9	0x3dade0eb	0.08490165
10	0xbddb4b44	-0.10707715
11	0x3d48811c	0.048951253
12	0x3d50252e	0.050816707
13	0xbdacc617	-0.0843622
14	0xbd81d342	-0.06339122
15	0xbc73d541	-0.014882387
16	0x3df1bdf3	0.11803808
17	0x3dc55ae2	0.09636475
18	0xbb240c66	-0.0025031804
19	0xbbaf0738	-0.0053414367
20	0x3684122b	3.9360216e-06
21	0x3be75c29	0.007060547
22	0x3d4ef226	0.0505239
23	0x3da588e1	0.08082748
24	0xbda772ff	-0.08176231
25	0xbdafbbe2	-0.08580758
26	0xbd807553	-0.06272378
27	0xbd136811	-0.035987917
28	0xbd9c1a81	-0.07622243
29	0x3d46f128	0.04856983
30	0x3ba86688	0.005139176
31	0x3d131d67	0.035916712
32	0xbd303d61	-0.043027285
33	0xbd93e463	-0.07221296
34	0xbd3cbfd5	-0.046081383
35	0x3d85e18b	0.065371595
36	0x3cb80e31	0.022467704
37	0x3d991404	0.07474521
38	0xbd15d625	-0.036581177
39	0xbdb3e21a	-0.0878336
40	0xbb3f96df	-0.0029234213
41	0x3b74d4e2	0.0037358333
42	0x3d62169a	0.055197336
43	0xbc8ab08a	-0.016929884
44	0x3d477bd9	0.048702095
45	0x3da9cdda	0.08291216
46	0xbd519439	-0.051166747
47	0x3da55586	0.08072953
48	0x3cef8513	0.02923826
49	0x3d543870	0.051811635
50	0xbd84ca4f	-0.064839
51	0x3d9c902a	0.076446846
52	0xbd92dc45	-0.07170919
53	0xbd97fb50	-0.07420981
54	0xbd73944b	-0.059467595
55	0xbd4017a3	-0.04689754
56	0x3bc23c83	0.0059276237
57	0xbb9d021c	-0.004791511
58	0xbda73587	-0.081645064
59	0xbd73bf1c	-0.059508428
60	0x3d2e8443	0.042606603
61	0xbdca5244	-0.09878972
62	0xbe23aa19	-0.15982856
63	0x3dbe4fc6	0.09292559
64	0xbd847f6b	-0.064696155
65	0xbc83de3a	-0.016097177
66	0xbcdec73e	-0.027194615
67	0xbcf4c564	-0.02987928
68	0x3d2ed726	0.04268565
69	0xbdaf4cd4	-0.08559576
70	0x3d64ea20	0.05588734
71	0x3dadbdeb	0.084834896
72	0xbd994457	-0.07483738
73	0x3bcdd7d8	0.006281834
74	0x3d6f4dae	0.05842369
75	0xbd6fbebd	-0.05853151
76	0xbc0dc773	-0.008653509
77	0xbcc99a67	-0.024609758
78	0x3d62a361	0.05533159
79	0xbd1f81e4	-0.038942233
80	0x3d3eb8b2	0.046562858
81	0x3d934650	0.071911454
82	0xbd786910	-0.06064707
83	0xbc31542b	-0.01082329
84	0x3d941d3c	0.072321385
85	0xbd887833	-0.06663551
86	0xbce9821f	-0.02850443
87	0xbd867040	-0.06564379
88	0xbcef3dbe	-0.029204246
89	0x3d274a08	0.040842086
90	0xbcd71ac2	-0.026257876
91	0x3d655384	0.05598785
92	0x3ce38ea9	0.027777987
93	0x3d1620a5	0.036652226
94	0x3cb275af	0.021784632
95	0xbceed999	-0.029156493
96	0xbd4a30fd	-0.049363125
97	0xbdaeaabb	-0.08528658
98	0xbdaf2d3a	-0.08553548
99	0xbdaa648f	-0.08319961
100	0xbc36a9a2	-0.011148842
101	0xba9fdc83	-0.0012196455
102	0xbdb192ce	-0.08670579
103	0x3d6e0b80	0.058116436
104	0x3d244a8b	0.040110152
105	0x3db5667c	0.08857438
106	0xbdacec0b	-0.08443459
107	0xbdc6b827	-0.09703093
108	0x3c4aff57	0.012389979
109	0xbc02f56b	-0.0079930825
110	0x3d238be1	0.03992832
111	0x3df60f6f	0.120146625
112	0x3ddb22f0	0.10700023
113	0x3da33ce2	0.07970597
114	0xbd2f3a01	-0.042779926
115	0x3d347924	0.04406084
116	0x3ba5a0d1	0.005054571
117	0xbdd751c7	-0.10513645
118	0xbd2dc3cf	-0.042423066
119	0x3d760cc5	0.06007077
120	0x3d854c3f	0.065086834
121	0x3c8fd8de	0.017559465
122	0x3d4f8e35	0.05067273
123	0xbdf74e0e	-0.120754346
124	0xbc4e2b01	-0.012583495
125	0x3c7e83f2	0.015534388
126	0x3d89aa49	0.067219324
127	0x3c82b60a	0.015955944
128	0xbe0912e3	-0.13386111
129	0x3d36345d	0.04448353
130	0x3c0c7c37	0.008574537
131	0xbddf4d68	-0.10903436
132	0x3d79f2a2	0.06102241
133	0x3d99156d	0.0747479
134	0x3d879215	0.0661966
135	0xb8a31395	-7.776093e-05
136	0xbcba1e39	-0.02271949
137	0xbd44e9eb	-0.048074644
138	0x3c4197ca	0.0118159745
139	0x3db3f21a	0.087864116
140	0x3b29cfb0	0.0025911145
141	0x3be9192f	0.007113598
142	0x3d1f700f	0.038925227
143	0x3ceff5b4	0.029291965
144	0x3d398bc7	0.045299318
145	0xbd5e9b6d	-0.054347444
146	0x3da9a163	0.08282735
147	0x3c98aa5e	0.018635925
148	0x3da7c86c	0.08192524
149	0xbbff70cb	-0.0077954284
150	0xbc439887	-0.011938221
151	0x3cad8f6e	0.021186557
152	0x3d7b8f60	0.06141603
153	0xbdaf46f4	-0.08558455
154	0xbcfc4640	-0.030795217
155	0xbaf0cf56	-0.0018372338
156	0x3d978991	0.073992856
157	0x3d074652	0.033026047
158	0xbc21aee5	-0.009868358
159	0xbcfd22c3	-0.030900365
160	0xbbe6847b	-0.007034836
161	0xbba8e7ad	-0.005154571
162	0x3cea81dc	0.028626375
163	0xbd4659f3	-0.048425626
164	0xbd4019b3	-0.04689951
165	0x3c39cd5d	0.011340466
166	0xbd0264b2	-0.03183431
167	0xbc71a3f3	-0.014748561
168	0x3ca78009	0.020446794
169	0xbb0350f3	-0.0020037263
170	0x3c190a19	0.009340786
171	0xbcd804bf	-0.02636945
172	0xbd1582c5	-0.036501665
173	0xbba293da	-0.004961473
174	0x3d50ca87	0.050974395
175	0x3c04d032	0.008106278
176	0x3dad229f	0.08453869
177	0x3d955a29	0.07292587
178	0xbd3d12ad	-0.04616039
179	0x3d0b93cc	0.034076497
180	0xbd42f9b0	-0.0476014
181	0xbcdbf49c	-0.026850037
182	0x3d51cbbd	0.05121969
183	0x3d1c25dc	0.038122043
184	0xbb8365b2	-0.0040099258
185	0xbda08161	-0.07837177
186	0xbda56228	-0.080753624
187	0xbc8afa58	-0.016965076
188	0x3db17f0a	0.08666809
189	0xbd0387da	-0.03211198
190	0x3c37c1b1	0.011215613
191	0x3db0a9bd	0.08626125
192	0x3d04a339	0.032382224
193	0x3c687b3b	0.014189537
194	0x3db300ae	0.08740364
195	0x3d9e0fcb	0.07717856
196	0x392b4ec3	0.00016337172
197	0x3d3b6acf	0.045756157
198	0x3d262325	0.04056086
199	0xbc71bc65	-0.014754389
200	0xbc6d6894	-0.014490265
201	0xbd597d5e	-0.053098075
202	0x3d9499f7	0.07255929
203	0xbc7de892	-0.015497344
204	0x3da18a2c	0.07887682
205	0xbd75aadc	-0.059977397
206	0xbd9439f5	-0.07237617
207	0x3dac14ec	0.08402428
208	0xbb28e1bf	-0.002576932
209	0x3d31bfd6	0.04339584
210	0x3c5b4546	0.013383215
211	0x3ac368e3	0.0014908578
212	0xbd0ca5e2	-0.034337886
213	0xbd0739c7	-0.033014085
214	0x3d323d5e	0.043515556
215	0x3cfe3986	0.031033289
216	0xbd618418	-0.055057615
217	0xbd7e02ee	-0.062014513
218	0xbb5c90af	-0.0033655574
219	0xbc044999	-0.008074188
220	0x3cc70006	0.024292003
221	0xbd07e351	-0.03317577
222	0x3d31ad21	0.043378
223	0xbd3b0828	-0.045662075
224	0x3d638a76	0.05555197
225	0x3cc42d2c	0.02394732
226	0x3cbfeabe	0.023427363
227	0x3d8e8aa4	0.06960037
228	0x3cb1079c	0.021610074
229	0xbdd64cfc	-0.10463902
230	0x3d8924ef	0.06696498
231	0x3d1a215c	0.03762947
232	0xbdb958f5	-0.0905017
233	0x3d909650	0.0705992
234	0x3ce55cf7	0.02799843
235	0xbb041225	-0.0020152417
236	0x3d4b2d9b	0.04960404
237	0xbd0d2182	-0.034455784
238	0xbd04dd8f	-0.032437857
239	0xbd7ce83b	-0.06174491
240	0x3b6063f1	0.0034239257
241	0xbd2be539	-0.04196665
242	0x3d619c56	0.055080734
243	0x3bd54729	0.006508727
244	0x3cfc5b98	0.030805394
245	0xbd764cd8	-0.060131878
246	0xbcd26eaa	-0.025687534
247	0x3c92c4a0	0.017916024
248	0xbb7d4135	-0.0038643603
249	0x3d46f3c9	0.048572335
250	0x3d9c4547	0.07630401
251	0x3c04ab39	0.008097463
252	0x3d899b8d	0.06719122
253	0x3d85c44d	0.06531582
254	0xbd22bb9b	-0.039729696
255	0xbd942fbf	-0.07235669

rnn.weight_hh_l0 f4 [128, 128]
0	0xbd2cf48c	-0.042225406
1	0xbd8847a5	-0.0665429
2	0x3ce523d8	0.027971193
3	0x3c0a14b8	0.008427791
4	0xbbda21fc	-0.0066568833
5	0xbda2d4de	-0.079507574
6	0xbbbaf0f5	-0.005704994
7	0x399f7449	0.00030413482
8	0xbcf21c3d	-0.02955448
9	0x3d2e1f14	0.042510107
10	0x3da997ff	0.08280944
11	0x3d77bb55	0.060481388
12	0xbd2cb572	-0.042165227
13	0x3d871117	0.065950565
14	0x3d0906f0	0.03345388
15	0xbd248c6e	-0.040172987
16	0xbda332ff	-0.07968711
17	0xbda97a5b	-0.082752906
18	0xbbb091d0	-0.005388476
19	0xbc11e503	-0.008904698
20	0xbd86c6fb	-0.06580921
21	0x3c451f9b	0.012031461
22	0xbc0d3819	-0.008619332
23	0xbd8260fe	-0.06366156
24	0x3b772cd0	0.003771592
25	0x3d4e2ad0	0.050333798
26	0xbd9074ed	-0.07053552
27	0xbd85fe3c	-0.06542632
28	0xbda6402f	-0.08117711
29	0xbd1857d3	-0.03719313
30	0xbc4fc970	-0.012682304
31	0x3cfe010c	0.031006359
32	0xbdb6ddcc	-0.08929023
33	0xbbf2a9f2	-0.007405513
34	0xbbd48b37	-0.0064863223
35	0x3cc67933	0.024227714
36	0x3d40e0aa	0.047089256
37	0x3ccd03c5	0.025026212
38	0xbcdaa02c	-0.026687704
39	0xbd528d26	-0.05140414
40	0x3dbcae32	0.092129126
41	0x3d478798	0.048713297
42	0x3d372ed4	0.044722393
43	0xbbb61a62	-0.0055573443
44	0x3d8155f2	0.06315221
45	0x3d9b2156	0.07574718
46	0xbd9cc1c2	-0.07654144
47	0xbd9ab215	-0.07553498
48	0x3d9ca99a	0.076495364
49	0x3da5150b	0.08060654
50	0xbd7793d0	-0.0604437
51	0x3d28317a	0.04106281
52	0x3d1c83f5	0.03821178
53	0xbda1b8bb	-0.07896563
54	0x3ca720c3	0.020401364
55	0x3d6b59e4	0.057458773
56	0x3d0a31ba	0.03373883
57	0x3c3e1cee	0.011603577
58	0xbd9b9c92	-0.07598223
59	0x3db7cb52	0.08974327
60	0x3bc97faf	0.0061492543
61	0xbb6e794e	-0.0036388221
62	0x3d7e5d1e	0.062100522
63	0x3db4b3e6	0.088233754
64	0xbd5b3fe4	-0.053527728
65	0x3d563d82	0.052304752
66	0xbd0d0043	-0.034424078
67	0x3d376701	0.044775967
68	0xbdb40bf6	-0.08791344
69	0xbd8b81a1	-0.06811834
70	0x3d7f6035	0.06234761
71	0xbd0a0d55	-0.03370412
72	0xbd29e115	-0.04147442
73	0x3c8fcaf1	0.017552825
74	0xbd991e5a	-0.07476492
75	0x3d92a615	0.07160584
76	0x3d1c6d39	0.0381901
77	0x3d4cc5e0	0.049993396
78	0x3d57f3ba	0.05272267
79	0xbd107027	-0.035263207
80	0xbd9d18ee	-0.076707706
81	0xbd86b191	-0.06576837
82	0x3d751af1	0.059840146
83	0x3c4440ab	0.011978309
84	0x3d69b6a2	0.057058938
85	0x3d5f9e86	0.05459454
86	0xbcb6e411	-0.022325547
87	0xbd1acb38	-0.03779146
88	0x3cff1146	0.031136166
89	0xbd369fd8	-0.044586033
90	0x3c813d49	0.015776293
91	0xbd35a75d	-0.044349063
92	0xbd35133e	-0.044207804
93	0x3d91a366	0.07111244
94	0xbc05d1b9	-0.008167678
95	0xbd4d1eb6	-0.050078116
96	0xbdcc8a08	-0.09987265
97	0x3d8e9592	0.06962122
98	0xbd00cdf7	-0.031446423
99	0xbd63e470	-0.055637777
100	0x3cbe5a93	0.023236549
101	0x3d4ba688	0.049719363
102	0x3da4da80	0.08049488
103	0xbd8868fc	-0.06660649
104	0xbb9ad201	-0.0047247414
105	0xbcb9b14f	-0.022667555
106	0xbc2b1878	-0.0104428455
107	0xba063916	-0.0005120201
108	0x3cfd942a	0.03095444
109	0x3d3c01bb	0.045900088
110	0x3b976c83	0.00462109
111	0xbc3d41e0	-0.01155135
112	0x3c69e0da	0.0142748
113	0xbdb3bd12	-0.08776297
114	0xbd3cb0f4	-0.046067193
115	0xbda03090	-0.078217626
116	0xbd909451	-0.07059539
117	0x3ae4a3e6	0.0017443865
118	0xbd7304fd	-0.05933093
119	0x3c92f09c	0.017936997
120	0xbdbedb33	-0.09319153
121	0xbd6ec38d	-0.05829196
122	0xbcaad1ba	-0.020851959
123	0xbcc4f896	-0.024044316
124	0x3dac596d	0.08415494
125	0xbd619119	-0.055070017
126	0x3d9761ca	0.07391699
127	0x3d9f874b	0.07789477
128	0xbdbfcbb8	-0.09365028
129	0x3d99b9b6	0.07506125
130	0x3cb5582d	0.022136772
131	0x3b355b19	0.0027672707
132	0x3d99c40d	0.07508097
133	0x3d81410f	0.06311237
134	0x3d062b23	0.032755982
135	0x3d84b36b	0.06479534
136	0xbcf033a6	-0.029321503
137	0x3d554e56	0.05207666
138	0xbd52fa9b	-0.051508527
139	0x3d31745d	0.043323863
140	0xbd11e0fe	-0.03561496
141	0x3da272c5	0.07932047
142	0xbd2fc63c	-0.04291366
143	0x3ddc5a4d	0.10759411
144	0xbcbff0de	-0.023430284
145	0x3d1f03e8	0.038822085
146	0xbcd3c034	-0.025848486
147	0xbdae10d9	-0.08499307
148	0x3d1bb91d	0.038018335
149	0xbcdf577d	-0.027263397
150	0xbd7788cb	-0.06043319
151	0x3d31c4e3	0.043400656
152	0x3ca7244f	0.020403055
153	0xbdbb7beb	-0.09154495
154	0xbcf699f9	-0.030102717
155	0x3d0233af	0.03178757
156	0x3d81dc37	0.06340831
157	0xbdacd5c4	-0.0843921
158	0x3dfec859	0.12440557
159	0x3b47c67b	0.0030483294
160	0xbd8376f9	-0.064191766
161	0xbd0dea4b	-0.034647267
162	0x3d4f0b21	0.050547723
163	0xbdcadc6c	-0.099053234
164	0xbd630fd6	-0.055435024
165	0x3d36cc58	0.04462847
166	0x3d9474b1	0.072488196
167	0xbd49a11e	-0.04922592
168	0x3d98ff4b	0.07470568
169	0x3d9f4c21	0.07778192
170	0x3d3a1429	0.045429382
171	0x3cbe41fa	0.02322482
172	0x3d2b7591	0.041860167
173	0x3d9fce98	0.078030765
174	0xbd3a0fc8	-0.045425206
175	0x3dccf08d	0.10006819
176	0x3d4af0b7	0.04954597
177	0x3d186782	0.037208088
178	0xbc5a2f3b	-0.013316925
179	0xbb85103f	-0.0040607746
180	0xbd881e95	-0.06646458
181	0x3ce125fd	0.027483935
182	0xbc127e14	-0.008941192
183	0xbdce60f4	-0.10077086
184	0xbdab5682	-0.083661094
185	0xbda64246	-0.081181094
186	0x3a94480b	0.0011312974
187	0xbb29f299	-0.0025931953
188	0xbcc85a71	-0.024457188
189	0xbd34b31e	-0.044116132
190	0x3da1b740	0.0789628
191	0xbc448b78	-0.011996143
192	0xbd27a91e	-0.040932767
193	0xbca44b65	-0.020055482
194	0xbcd9f9f4	-0.026608445
195	0x3cc13434	0.023584463
196	0xbd660a70	-0.056162298
197	0x3d85eb75	0.065390505
198	0xbda80ddc	-0.082057685
199	0x3d4882de	0.04895293
200	0xbb22f6ee	-0.002486642
201	0x3daec426	0.08533506
202	0xbc2b82a4	-0.010468159
203	0xbc23358d	-0.009961498
204	0x3dc955b4	0.098308
205	0xbd8b077b	-0.06788536
206	0x3da5d40a	0.08097084
207	0xbd8378d2	-0.06419529
208	0x3c8893d5	0.016672054
209	0x3cdc1f9c	0.026870541
210	0x3d87fd40	0.066401005
211	0xbd292182	-0.04129172
212	0xbd4774c5	-0.048695344
213	0xbd3a9a33	-0.045557212
214	0x3d5430c4	0.05180432
215	0xbd8ef03f	-0.06979417
216	0x3a17d545	0.00057919725
217	0x3da2b744	0.079451114
218	0xbd818a5e	-0.063252196
219	0xbb1a53b0	-0.0023548417
220	0xbd3a4be1	-0.04548252
221	0x3d9be6b2	0.07612361
222	0x3da9f2d3	0.08298268
223	0xbd5c449e	-0.053776376
224	0xbd95a9de	-0.0730779
225	0x3d85e9ab	0.06538709
226	0x3d6045dd	0.054754127
227	0xbdc4d443	-0.09610798
228	0xbb9d200d	-0.0047950805
229	0xbd2a230e	-0.041537337
230	0x3d4a412e	0.049378566
231	0xbc56f725	-0.013120447
232	0xbd696aff	-0.056986805
233	0xbbc4a611	-0.006001242
234	0x3d5a631d	0.053317178
235	0xbd6d78e9	-0.057976637
236	0x3dbedb2e	0.09319149
237	0xbd92803d	-0.07153366
238	0xbd0c8111	-0.034302775
239	0x3dd4dc41	0.103935726
240	0xbb9910cd	-0.0046711923
241	0x3cace683	0.02110601
242	0xbd51c946	-0.05121734
243	0xbd22c626	-0.03973975
244	0xbcafa3ca	-0.021440405
245	0x3dac8d79	0.08425421
246	0xbc8302e6	-0.015992593
247	0x3be47082	0.00697142
248	0xbd7c8712	-0.06165225
249	0x3ba73792	0.00510306
250	0x3d7af7ec	0.061271593
251	0xbcb0e2ef	-0.021592585
252	0xbd79047b	-0.06079529
253	0x3b32a20f	0.002725724
254	0x3d69770d	0.0569983
255	0x3d826441	0.06366778

rnn.bias_ih_l0 f4 [128]
0	0xbc9308c1	-0.01794851
1	0x3d9ed71a	0.07755871
2	0x3d94ef73	0.07272234
3	0xbce67cc2	-0.028135661
4	0x3da46602	0.08027269
5	0x3d84ddf4	0.06487647
6	0x3d1940b5	0.037415225
7	0x3da20931	0.07911909
8	0xbd6e3670	-0.058157384
9	0x3b99faa6	0.004699069
10	0x3da52e97	0.08065527
11	0x3d51d4e5	0.051228423
12	0x3da8059d	0.08204196
13	0x3b922ff8	0.0044612847
14	0x3c18f6a0	0.009336144
15	0x3c50dac7	0.012747473
16	0x3d00494e	0.03131991
17	0x3d822f14	0.06356636
18	0xbcaef84b	-0.02135863
19	0x3dba3ffc	0.09094235
20	0xbd04d3d9	-0.032428596
21	0xbd03c7f4	-0.032173112
22	0xbd1afd4d	-0.037839223
23	0xbc27f6fa	-0.010251755
24	0x3d9c6743	0.07636883
25	0xbd93504b	-0.07193049
26	0xbc43218e	-0.0119098555
27	0x3cb7659e	0.022387322
28	0x3d96e47c	0.07367799
29	0xb9eb3796	-0.00044864108
30	0x3bf62f4d	0.007512963
31	0x3d6db18c	0.05803065
32	0x3da41541	0.08011866
33	0x3db69dff	0.08916854
34	0x3db39797	0.08769148
35	0x3b491d7f	0.0030687747
36	0xbd535f34	-0.051604465
37	0xbd671c9f	-0.05642378
38	0xbc9c1542	-0.019053105
39	0xbd92690b	-0.071489416
40	0xbd9bbd0e	-0.07604419
41	0x3ca01cfc	0.01954507
42	0xbda56f3d	-0.08077858
43	0x3d9995e8	0.074992955
44	0xbdb92699	-0.09040565
45	0x3d479eb0	0.04873532
46	0x3b801782	0.0039090523
47	0xbd15f2c4	-0.036608472
48	0x3cce3791	0.02517298
49	0x3da0cd51	0.07851661
50	0xbdb67a76	-0.08910076
51	0x3d8f8912	0.07008566
52	0x3d91e0a5	0.07122926
53	0x3d57b71b	0.052664857
54	0x3d4dd2f7	0.05025002
55	0xbd93f932	-0.072252646
56	0x3c9955e3	0.018717712
57	0x3ce0d9be	0.027447578
58	0xbd1459f7	-0.03621861
59	0xbd80fcf4	-0.06298247
60	0xbcaf0c8b	-0.021368286
61	0xbdb7c39d	-0.08972857
62	0xbd8c48e3	-0.068498395
63	0xbc56e1f1	-0.013115392
64	0xba51179a	-0.0007976234
65	0x3c486cfc	0.012233015
66	0xbbce57a1	-0.0062970673
67	0xbcc7dcc2	-0.024397258
68	0xbb80abb6	-0.0039267195
69	0xbda342e7	-0.07971745
70	0x3d913b9b	0.07091447
71	0x3b024bf8	0.0019881707
72	0x3c21b47a	0.009869689
73	0x3d7235ce	0.059133343
74	0xbcff5822	-0.031169955
75	0xbc039c7f	-0.008032917
76	0x3d8d7ec6	0.06908946
77	0x3d9b5ff1	0.07586659
78	0x3d3ddb07	0.04635146
79	0xbcb53c7c	-0.022123568
80	0xbdc4749d	-0.09592555
81	0x3da123e8	0.07868177
82	0x3cd6953d	0.02619421
83	0xbd15d9cb	-0.036584657
84	0x3cc5db4f	0.024152426
85	0xbda49100	-0.08035469
86	0x3d85beec	0.06530556
87	0x3c9aa0a5	0.01887543
88	0x3d99c119	0.075075336
89	0xbc25bcd8	-0.010115825
90	0xbd7dbf5b	-0.06195007
91	0xbcdf3571	-0.027247163
92	0x3d4cfbc4	0.05004479
93	0xbd8623b4	-0.065497786
94	0x3ccc8291	0.024964603
95	0x3daa934f	0.08328878
96	0x3d825bc9	0.06365163
97	0x3da8bda7	0.08239298
98	0xbd5f2177	-0.054475274
99	0xbc0f355e	-0.008740751
100	0xbc8502dd	-0.016236717
101	0xbbcb4cdf	-0.006204232
102	0xbd5e60a3	-0.05429138
103	0xbdaa29e0	-0.08308768
104	0xbd37f607	-0.044912364
105	0xbda3bc5b	-0.0799491
106	0xbc6b7f35	-0.01437359
107	0x3abc8f65	0.0014385997
108	0x3cc9b455	0.024622122
109	0x3d0e8503	0.03479482
110	0xbc8df019	-0.017326402
111	0xbd446459	-0.04794726
112	0x3cf25380	0.029580832
113	0x3d02eda2	0.031964906
114	0xbd7966be	-0.060889
115	0x3d7b5dfd	0.06136893
116	0xbbc4c867	-0.006005335
117	0x3d5b1963	0.053491008
118	0xbd56bc61	-0.052425746
119	0xbbbd4cf6	-0.0057769967
120	0xbc2b5d94	-0.0104593225
121	0x3d4fba00	0.050714493
122	0xbc9b80e4	-0.018982358
123	0xbc2a05c2	-0.010377349
124	0xbd60f031	-0.054916564
125	0x3d857f48	0.065184176
126	0xbc14beba	-0.009078676
127	0xbd4c7120	-0.049912572

rnn.bias_hh_l0 f4 [128]
0	0x3d82e15f	0.063906424
1	0x3d964bd9	0.073386855
2	0x3dbabfa0	0.09118581
3	0xbdab634c	-0.08368549
4	0x3c8ab5bc	0.01693236
5	0xbc61eada	-0.013788903
6	0x3bd3747e	0.006453096
7	0x3d9f4961	0.07777668
8	0x3ce2d515	0.027689496
9	0xbd59327c	-0.05302666
10	0x3b06b8b6	0.0020556874
11	0x3d9e6a19	0.0773508
12	0x3c8020f5	0.015640715
13	0x3c224f1d	0.009906557
14	0x3d24793a	0.040154673
15	0xbd2ffea3	-0.04296745
16	0x3d74ead7	0.059794273
17	0x3d487f94	0.048949793
18	0x3d3144ae	0.04327839
19	0xbd754eac	-0.05988948
20	0xbbf5152c	-0.0074793305
21	0x3d856716	0.06513803
22	0x3c422734	0.011850167
23	0x3d89384d	0.06700192
24	0xbd4d537e	-0.050128452
25	0xbd1965ed	-0.03745072
26	0xbce0cff0	-0.027442902
27	0xbc2c52f8	-0.010517828
28	0x3d79b509	0.060963664
29	0xbbffd098	-0.0078068487
30	0xbdb2f064	-0.08737257
31	0x3a3db4ed	0.0007236738
32	0xbd707658	-0.05870661
33	0xbd3d6b0d	-0.04624467
34	0xbbe482bf	-0.006973594
35	0xbd8e448e	-0.069466695
36	0x3da01dff	0.07818221
37	0xbaeaad7a	-0.0017904483
38	0x3d4e6417	0.050388422
39	0xbd03d6c0	-0.032187223
40	0xbd0800e2	-0.033203967
41	0xbd6bb108	-0.057541877
42	0xba749e5e	-0.000933146
43	0xbd5dfe73	-0.05419774
44	0x3ca41cd5	0.02003328
45	0xbdb3f165	-0.08786277
46	0xbc8704b1	-0.01648173
47	0x3cc90ffd	0.024543757
48	0xbd83544e	-0.06412564
49	0x3caef187	0.021355404
50	0xbd96b0b1	-0.0735792
51	0x3d441881	0.04787493
52	0xbd838982	-0.06422712
53	0x3d9a978b	0.07548436
54	0xbc91fe49	-0.017821448
55	0x3c130e07	0.008975512
56	0xbd655e53	-0.055998158
57	0xbdad12aa	-0.084508255
58	0x3d3acd28	0.04560581
59	0x3d8ab59b	0.0677292
60	0xbaa17e96	-0.0012321051
61	0x3d89954c	0.06717929
62	0xbd60000e	-0.054687552
63	0xbcd58b69	-0.026067453
64	0x3d8fa3c1	0.070136555
65	0xbcf9eb8f	-0.03050783
66	0xbd79f829	-0.06102768
67	0xbc9a27e3	-0.018817848
68	0x3cdbae50	0.026816517
69	0xbdb829f0	-0.08992374
70	0x3c2c1c8c	0.010504853
71	0xbb5d0d69	-0.0033729917
72	0x3ce366da	0.027759004
73	0xbd1d67c0	-0.03842902
74	0x3d992a8e	0.0747882
75	0x3d7525ab	0.059850376
76	0xbd9c59d4	-0.07634321
77	0x3d49adde	0.04923808
78	0x3d800543	0.062510036
79	0x3d785998	0.06063232
80	0x3cdfd9de	0.027325567
81	0x3c04410d	0.00807215
82	0x3ce70def	0.028204886
83	0x3d1f33f1	0.038867895
84	0x3d4f24af	0.050572094
85	0x3ce37a35	0.027768234
86	0xbd58a88e	-0.05289512
87	0xbd4dd68c	-0.050253436
88	0x3da7c4d0	0.08191836
89	0x3d97900f	0.07400524
90	0x3d49c843	0.04926325
91	0x3c9ddde1	0.01927084
92	0x3d53c348	0.051699907
93	0xbdab3531	-0.08359755
94	0x3d8d47a1	0.06898428
95	0x3da0ef51	0.07858146
96	0xbda20b1e	-0.07912277
97	0x3c5ec21e	0.013596086
98	0x3ba32bf9	0.004979607
99	0xbccbe673	-0.02489016
100	0xbd95104e	-0.072785005
101	0x3d91d466	0.0712059
102	0xb8ac4dda	-8.2161e-05
103	0xbcf683e3	-0.030092185
104	0xbcd7cb8f	-0.026342181
105	0xbc9e376a	-0.019313533
106	0x3cb8947a	0.022531737
107	0x3dad225a	0.08453818
108	0x3d72aa08	0.059244186
109	0xbccb37a2	-0.024806801
110	0x3da8b937	0.08238452
111	0xbd74f54e	-0.059804253
112	0x3d376a31	0.044779006
113	0xbd0093a2	-0.031390794
114	0xbda89a4d	-0.082325555
115	0x3bdb030f	0.006683714
116	0xbd7e337e	-0.062060826
117	0x3b1a3dbc	0.0023535332
118	0xbd23a6c6	-0.03995397
119	0xbd515891	-0.051109854
120	0x3d9bc696	0.07606237
121	0x3d35bbe2	0.044368632
122	0x3d3e6455	0.046482403
123	0x3d1b013b	0.03784297
124	0xbd3b91d2	-0.045793362
125	0xbc61695f	-0.013758033
126	0x3d84c2ca	0.064824656
127	0x3ce8fc79	0.0284407

output_layer.weight f4 [1, 128]
0	0x3df95d38	0.12175983
1	0xbdd61609	-0.104534216
2	0xbdebd97a	-0.1151609
3	0x3d4261d6	0.047456585
4	0xbdf05301	-0.11734582
5	0x3d6ecce5	0.05830087
6	0xbcd00a10	-0.025395423
7	0x3d497dd9	0.049192283
8	0x3dce22bd	0.100652196
9	0xbc961c57	-0.01832406
10	0xbdbb766e	-0.09153448
11	0x3ddbd949	0.10734803
12	0x3d7f30e0	0.06230247
13	0x3d9cbe4b	0.07653483
14	0x3df249dc	0.11830494
15	0x3cac3d11	0.021025212
16	0xbd8f8cca	-0.07009275
17	0xbd1c438b	-0.03815035
18	0xbc69a629	-0.014260807
19	0xbdd53977	-0.10411351
20	0x3d816e36	0.06319849
21	0x3b24f147	0.0025168227
22	0xbcba800d	-0.022766137
23	0x3dd2bee7	0.10290318
24	0x3de80c02	0.11330415
25	0x3d319137	0.04335138
26	0xbdf20781	-0.118178375
27	0xbdb0489c	-0.08607599
28	0xbdce3202	-0.10068132
29	0xbdce5546	-0.10074858
30	0x3c6fd020	0.014637023
31	0x3d2391d6	0.039934002
32	0x3ddfd05b	0.109284125
33	0xbd6ec307	-0.05829146
34	0x3c53706f	0.012905224
35	0x3d4e0d27	0.05030551
36	0x3db3a7fd	0.087722756
37	0xbdb69744	-0.089155704
38	0xbc9c7958	-0.01910083
39	0xbdb4070e	-0.08790408
40	0xbcf3a62a	-0.02974232
41	0x3d064cc5	0.032788057
42	0xbdd495bd	-0.10380123
43	0xbd1222cf	-0.035677727
44	0x3dc01ebb	0.09380861
45	0xbd99b934	-0.07506028
46	0x3dc4bcc1	0.096063145
47	0xbdd93b55	-0.1060702
48	0x3db0d177	0.08633702
49	0xbd8709ab	-0.06593641
50	0x3dee4568	0.11634332
51	0x3d49916e	0.04921096
52	0xbdd35782	-0.10319425
53	0x3dc29f43	0.09503033
54	0x3d433ec7	0.04766729
55	0x3e0f68f7	0.14004885
56	0xbd8ee274	-0.06976786
57	0x3da55c5d	0.080742575
58	0xbdcc3dff	-0.09972762
59	0x3d7b1141	0.06129575
60	0xbd59dc6c	-0.053188726
61	0x3d029234	0.03187771
62	0xbd5f1630	-0.05446452
63	0xbdb49842	-0.088181034
64	0x3c8d38cb	0.017238995
65	0x3caebb02	0.021329407
66	0xbb8e8039	-0.0043487814
67	0x3e034bb7	0.12821852
68	0xbd031701	-0.03200436
69	0x3dcfa94d	0.101397134
70	0x3ceb7a62	0.02874488
71	0xbd287a61	-0.041132335
72	0x3d83ddd1	0.064387925
73	0xbdc75ea4	-0.09734848
74	0xbd8bf7d8	-0.06834382
75	0xbdeacd33	-0.1146492
76	0xbc3f2606	-0.01166678
77	0x3c6d9541	0.014500917
78	0xbdb9cae1	-0.09071899
79	0xbdc1ffb0	-0.09472597
80	0x3dc574bf	0.09641408
81	0xbd5a23b3	-0.0532567
82	0xbd5a0ff2	-0.053237863
83	0x3d9b7008	0.07589728
84	0x3d52e85c	0.051491126
85	0x3da165c0	0.078807354
86	0x3d4e5cd1	0.050381485
87	0xbe02c7dd	-0.12771554
88	0x3d9666a3	0.07343795
89	0x3cba853e	0.022768613
90	0xbdfef5a0	-0.12449193
91	0x3e00270d	0.12514897
92	0x3da164d1	0.07880557
93	0x3d3e1767	0.046409037
94	0x3da26ba8	0.0793069
95	0xbdd760d2	-0.10516514
96	0xbd7e5e48	-0.062101632
97	0x3d8302de	0.06397031
98	0x3da913a9	0.08255703
99	0xbdf86982	-0.12129499
100	0x3de5dffe	0.11224364
101	0x3d92d09f	0.071686976
102	0xbcde1128	-0.02710779
103	0x3dc9be2d	0.09850726
104	0x3d185b7f	0.037196632
105	0x3c66cbca	0.014086673
106	0x3d8a8873	0.06764307
107	0x3dd2f4a7	0.1030057
108	0x3daed35d	0.08536408
109	0x3ac7589f	0.0015208906
110	0x3d7d709a	0.061874963
111	0xbd91702e	-0.07101475
112	0x3d67e10e	0.056611113
113	0x3d49868d	0.049200583
114	0xbce6f322	-0.028192107
115	0x3ded8e46	0.11599402
116	0xbd89fafb	-0.06737324
117	0xbd95a2f5	-0.07306472
118	0xbd61b47c	-0.055103764
119	0x3cbf2f57	0.023338003
120	0xbd2f4acc	-0.04279594
121	0x3d8e0053	0.069336556
122	0x3d837648	0.06419045
123	0xbc704a02	-0.014666082
124	0xbd65a280	-0.056063175
125	0xbcfd0897	-0.030887885
126	0x3d72f47c	0.05931519
127	0x3db60e0e	0.088893995

exp_avg f4 [128, 53]
0	0xb8fccddb	-0.0001205464
1	0x3851898f	4.9957594e-05
2	0x39114b73	0.00013856385
3	0x388662f2	6.408048e-05
4	0x394bb059	0.00019425283
5	0x392b035c	0.00016309082
6	0xb879f6b4	-5.9595986e-05
7	0x396c6fbf	0.00022548343
8	0x392971c0	0.00016159471
9	0xb80a1a35	-3.292617e-05
10	0x3850067b	4.95971e-05
11	0xb793fc31	-1.7641201e-05
12	0xb8cf7eff	-9.894184e-05
13	0x3867167c	5.5095632e-05
14	0xb88673c1	-6.411179e-05
15	0xb89e8214	-7.558256e-05
16	0xb80383f7	-3.1355736e-05
17	0xb91a212e	-0.00014698945
18	0x38986bce	7.268005e-05
19	0x37388dec	1.1000298e-05
20	0x393899dd	0.00017604926
21	0xb869cb6c	-5.574098e-05
22	0xb8d8dd27	-0.000103408755
23	0x37b1c116	2.1189957e-05
24	0x396e77a5	0.0002274202
25	0xb88419a1	-6.299024e-05
26	0x00000000	0.0
27	0x00000000	0.0
28	0x00000000	0.0
29	0x00000000	0.0
30	0x00000000	0.0
31	0x00000000	0.0
32	0x00000000	0.0
33	0x00000000	0.0
34	0x00000000	0.0
35	0x00000000	0.0
36	0x00000000	0.0
37	0x00000000	0.0
38	0x00000000	0.0
39	0x00000000	0.0
40	0x00000000	0.0
41	0x00000000	0.0
42	0x00000000	0.0
43	0x00000000	0.0
44	0x00000000	0.0
45	0x00000000	0.0
46	0x00000000	0.0
47	0x00000000	0.0
48	0x00000000	0.0
49	0x00000000	0.0
50	0x00000000	0.0
51	0x00000000	0.0
52	0x398cfb0b	0.00026889922
53	0x38b1a733	8.471161e-05
54	0xb728e798	-1.0067502e-05
55	0x3654a7e1	3.168818e-06
56	0x391f89f9	0.0001521482
57	0x39ac6d3b	0.0003288778
58	0x3819de61	3.668515e-05
59	0x392a44bd	0.0001623807
60	0x384f6ee3	4.9455917e-05
61	0x39018269	0.0001235098
62	0x3916e7c0	0.00014391448
63	0xb914d7b4	-0.00014194736
64	0x38843a8e	6.305157e-05
65	0xb940e6c0	-0.00018396508
66	0x39bc9238	0.00035967096
67	0xb7fe7827	-3.033511e-05
68	0xb909b4b4	-0.00013132655
69	0xb70dc7bf	-8.450762e-06
70	0x3769d85a	1.39382555e-05
71	0xb9887d39	-0.0002603324
72	0x38901e3d	6.8720874e-05
73	0x392c8e8e	0.00016456304
74	0xb5be1c70	-1.416438e-06
75	0xb85e8b2a	-5.305853e-05
76	0x390d6037	0.0001348265
77	0xb82c590c	-4.1090927e-05
78	0x37b37142	2.1391203e-05
79	0x00000000	0.0
80	0x00000000	0.0
81	0x00000000	0.0
82	0x00000000	0.0
83	0x00000000	0.0
84	0x00000000	0.0
85	0x00000000	0.0
86	0x00000000	0.0
87	0x00000000	0.0
88	0x00000000	0.0
89	0x00000000	0.0
90	0x00000000	0.0
91	0x00000000	0.0
92	0x00000000	0.0
93	0x00000000	0.0
94	0x00000000	0.0
95	0x00000000	0.0
96	0x00000000	0.0
97	0x00000000	0.0
98	0x00000000	0.0
99	0x00000000	0.0
100	0x00000000	0.0
101	0x00000000	0.0
102	0x00000000	0.0
103	0x00000000	0.0
104	0x00000000	0.0
105	0x38edf3c0	0.000113464426
106	0x39843839	0.0002521889
107	0x384bc789	4.8584803e-05
108	0xb8ab44b3	-8.1667116e-05
109	0x38b11a08	8.4448664e-05
110	0xb90ea474	-0.00013603439
111	0xb9051e37	-0.00012695124
112	0xb8c0099b	-9.1570626e-05
113	0xb933ead3	-0.00017158249
114	0xb8ddd094	-0.00010576952
115	0x3706392e	8.000336e-06
116	0x36acd5ed	5.1509037e-06
117	0x38ae3885	8.307494e-05
118	0x396a85b6	0.0002236579
119	0xb973d2b6	-0.00023252782
120	0xb8943426	-7.066903e-05
121	0x38a4d10a	7.859066e-05
122	0xb77e82d7	-1.5170043e-05
123	0x3986624c	0.0002563171
124	0xb894b450	-7.090776e-05
125	0x385a45ae	5.2040145e-05
126	0xb91fda84	-0.00015244825
127	0x3808c2c8	3.260633e-05
128	0x3969254d	0.00022234507
129	0xb82411b6	-3.911714e-05
130	0xb9558b79	-0.0002036522
131	0x383044b3	4.202565e-05
132	0x00000000	0.0
133	0x00000000	0.0
134	0x00000000	0.0
135	0x00000000	0.0
136	0x00000000	0.0
137	0x00000000	0.0
138	0x00000000	0.0
139	0x00000000	0.0
140	0x00000000	0.0
141	0x00000000	0.0
142	0x00000000	0.0
143	0x00000000	0.0
144	0x00000000	0.0
145	0x00000000	0.0
146	0x00000000	0.0
147	0x00000000	0.0
148	0x00000000	0.0
149	0x00000000	0.0
150	0x00000000	0.0
151	0x00000000	0.0
152	0x00000000	0.0
153	0x00000000	0.0
154	0x00000000	0.0
155	0x00000000	0.0
156	0x00000000	0.0
157	0x00000000	0.0
158	0xb92e13e0	-0.00016601337
159	0xb8c3eb29	-9.3421266e-05
160	0xb78c4378	-1.6720718e-05
161	0xb7265e11	-9.916273e-06
162	0xb84e70bc	-4.921922e-05
163	0x3941caa9	0.00018481411
164	0x38dedfa6	0.00010627443
165	0xb7a83237	-2.0050544e-05
166	0x394f9458	0.0001979632
167	0x380e38b8	3.390826e-05
168	0x372f0ffb	1.0434534e-05
169	0xb7f6bec0	-2.941431e-05
170	0x378514d1	1.5864529e-05
171	0xb80f0494	-3.409812e-05
172	0xb7d3eaf1	-2.5262563e-05
173	0xb8ec92d6	-0.00011280707
174	0xb82de1c2	-4.1456668e-05
175	0x36049526	1.9756349e-06
176	0xb88eabdb	-6.803098e-05
177	0x37c5c0fe	2.3574099e-05
178	0xb8e47904	-0.00010894428
179	0xb7fb46df	-2.9954534e-05
180	0x3717fe91	9.059572e-06
181	0xb769b580	-1.3930141e-05
182	0x37692165	1.38956575e-05
183	0x38bb6595	8.935776e-05
184	0xb780e1be	-1.5363908e-05
185	0x00000000	0.0
186	0x00000000	0.0
187	0x00000000	0.0
188	0x00000000	0.0
189	0x00000000	0.0
190	0x00000000	0.0
191	0x00000000	0.0
192	0x00000000	0.0
193	0x00000000	0.0
194	0x00000000	0.0
195	0x00000000	0.0
196	0x00000000	0.0
197	0x00000000	0.0
198	0x00000000	0.0
199	0x00000000	0.0
200	0x00000000	0.0
201	0x00000000	0.0
202	0x00000000	0.0
203	0x00000000	0.0
204	0x00000000	0.0
205	0x00000000	0.0
206	0x00000000	0.0
207	0x00000000	0.0
208	0x00000000	0.0
209	0x00000000	0.0
210	0x00000000	0.0
211	0x39994b23	0.00029238415
212	0x37fad219	2.9900157e-05
213	0x38d56e47	0.00010177172
214	0x37e378ca	2.7116756e-05
215	0x38550039	5.0783365e-05
216	0x39dbb3ad	0.00041904804
217	0x375e4cdd	1.3250127e-05
218	0x378f6487	1.709374e-05
219	0x387e4485	6.0622133e-05
220	0x398f4714	0.00027328043
221	0x38358838	4.3280626e-05
222	0xb929beaa	-0.00016188124
223	0x388e5994	6.787773e-05
224	0x38070cb9	3.2198357e-05
225	0x390c01d9	0.00013352129
226	0xb8ff3e91	-0.000121710014
227	0xb92bfc27	-0.00016401765
228	0x35e6921e	1.7178861e-06
229	0x39c1b983	0.00036950046
230	0xb9076015	-0.00012910397
231	0xb8b420d2	-8.589182e-05
232	0x39124d07	0.0001395234
233	0x3821c10a	3.8565173e-05
234	0x3897c0d5	7.236159e-05
235	0x38dc96b3	0.000105184874
236	0xb89546c9	-7.1180584e-05
237	0x364c5846	3.044975e-06
238	0x00000000	0.0
239	0x00000000	0.0
240	0x00000000	0.0
241	0x00000000	0.0
242	0x00000000	0.0
243	0x00000000	0.0
244	0x00000000	0.0
245	0x00000000	0.0
246	0x00000000	0.0
247	0x00000000	0.0
248	0x00000000	0.0
249	0x00000000	0.0
250	0x00000000	0.0
251	0x00000000	0.0
252	0x00000000	0.0
253	0x00000000	0.0
254	0x00000000	0.0
255	0x00000000	0.0

exp_avg_sq f4 [128, 53]
0	0x3564a0f8	8.517086e-07
1	0x338e73ae	6.633432e-08
2	0x349075dc	2.6907844e-07
3	0x3489e868	2.5687336e-07
4	0x353ad8b9	6.960577e-07
5	0x33ab71b3	7.98349e-08
6	0x33f09957	1.1203763e-07
7	0x3459d65c	2.0287683e-07
8	0x3515e161	5.5834795e-07
9	0x31b16b68	5.1635887e-09
10	0x33e10536	1.0478327e-07
11	0x34cf80e5	3.8650538e-07
12	0x3468a261	2.1665757e-07
13	0x35277e34	6.2396e-07
14	0x353e1fd7	7.082685e-07
15	0x34059704	1.244153e-07
16	0x3157295d	3.131013e-09
17	0x3542e247	7.259991e-07
18	0x34dd2389	4.1190313e-07
19	0x354bb12a	7.58812e-07
20	0x34679999	2.156943e-07
21	0x330792ab	3.156553e-08
22	0x33d7846e	1.00358065e-07
23	0x3157c207	3.139691e-09
24	0x341d7bbb	1.4666777e-07
25	0x320053a0	7.469595e-09
26	0x00000000	0.0
27	0x00000000	0.0
28	0x00000000	0.0
29	0x00000000	0.0
30	0x00000000	0.0
31	0x00000000	0.0
32	0x00000000	0.0
33	0x00000000	0.0
34	0x00000000	0.0
35	0x00000000	0.0
36	0x00000000	0.0
37	0x00000000	0.0
38	0x00000000	0.0
39	0x00000000	0.0
40	0x00000000	0.0
41	0x00000000	0.0
42	0x00000000	0.0
43	0x00000000	0.0
44	0x00000000	0.0
45	0x00000000	0.0
46	0x00000000	0.0
47	0x00000000	0.0
48	0x00000000	0.0
49	0x00000000	0.0
50	0x00000000	0.0
51	0x00000000	0.0
52	0x3683993e	3.921944e-06
53	0x33ee0629	1.1083859e-07
54	0x31ddad89	6.451675e-09
55	0x32b7a829	2.1380474e-08
56	0x33098606	3.2019692e-08
57	0x33d00d6d	9.688197e-08
58	0x31a62236	4.835125e-09
59	0x32da4e21	2.5414069e-08
60	0x328dabd5	1.64927e-08
61	0x33934651	6.8580114e-08
62	0x32b29184	2.07881e-08
63	0x3339fbee	4.3302798e-08
64	0x32f81389	2.8879883e-08
65	0x334f3fe1	4.825404e-08
66	0x34165b83	1.400313e-07
67	0x33a5b53e	7.716379e-08
68	0x3294cf9c	1.7323877e-08
69	0x2f6a59f5	2.1314135e-10
70	0x33599d49	5.06673e-08
71	0x337395d9	5.6714132e-08
72	0x3368c299	5.4193695e-08
73	0x32a51d66	1.9221897e-08
74	0x31889945	3.9755457e-09
75	0x31e35fa1	6.6174413e-09
76	0x328b4652	1.6213708e-08
77	0x3316346c	3.4972274e-08
78	0x30ef359f	1.7404779e-09
79	0x00000000	0.0
80	0x00000000	0.0
81	0x00000000	0.0
82	0x00000000	0.0
83	0x00000000	0.0
84	0x00000000	0.0
85	0x00000000	0.0
86	0x00000000	0.0
87	0x00000000	0.0
88	0x00000000	0.0
89	0x00000000	0.0
90	0x00000000	0.0
91	0x00000000	0.0
92	0x00000000	0.0
93	0x00000000	0.0
94	0x00000000	0.0
95	0x00000000	0.0
96	0x00000000	0.0
97	0x00000000	0.0
98	0x00000000	0.0
99	0x00000000	0.0
100	0x00000000	0.0
101	0x00000000	0.0
102	0x00000000	0.0
103	0x00000000	0.0
104	0x00000000	0.0
105	0x34af5080	3.2654862e-07
106	0x340a7ce0	1.2897681e-07
107	0x3225e9bb	9.657408e-09
108	0x3317cb87	3.5342534e-08
109	0x32f82501	2.8887827e-08
110	0x3351e5b7	4.887053e-08
111	0x32cb1264	2.3640673e-08
112	0x32d85894	2.518599e-08
113	0x339bc664	7.253837e-08
114	0x3386c85d	6.276307e-08
115	0x306ea4c6	8.681805e-10
116	0x33070aab	3.144184e-08
117	0x330b2537	3.2397306e-08
118	0x33f120ad	1.1228381e-07
119	0x342aa318	1.5891817e-07
120	0x3408260e	1.2679831e-07
121	0x327cfad3	1.4725361e-08
122	0x30363367	6.628426e-10
123	0x3416e896	1.4054453e-07
124	0x3307df54	3.1635253e-08
125	0x339563f3	6.956534e-08
126	0x32ed141d	2.7599578e-08
127	0x314ec80a	3.0090654e-09
128	0x33d7acf7	1.004318e-07
129	0x306207c1	8.222934e-10
130	0x33d6ed87	1.00083575e-07
131	0x30c594e6	1.4375956e-09
132	0x00000000	0.0
133	0x00000000	0.0
134	0x00000000	0.0
135	0x00000000	0.0
136	0x00000000	0.0
137	0x00000000	0.0
138	0x00000000	0.0
139	0x00000000	0.0
140	0x00000000	0.0
141	0x00000000	0.0
142	0x00000000	0.0
143	0x00000000	0.0
144	0x00000000	0.0
145	0x00000000	0.0
146	0x00000000	0.0
147	0x00000000	0.0
148	0x00000000	0.0
149	0x00000000	0.0
150	0x00000000	0.0
151	0x00000000	0.0
152	0x00000000	0.0
153	0x00000000	0.0
154	0x00000000	0.0
155	0x00000000	0.0
156	0x00000000	0.0
157	0x00000000	0.0
158	0x34312f4c	1.6501616e-07
159	0x324fd50f	1.209743e-08
160	0x3171bfc2	3.5179117e-09
161	0x315f6190	3.2506229e-09
162	0x319014a6	4.193299e-09
163	0x3281e183	1.5120127e-08
164	0x3215fc65	8.730329e-09
165	0x31183b90	2.2152769e-09
166	0x32c61cfa	2.306341e-08
167	0x31e26748	6.5892074e-09
168	0x30046ea4	4.817855e-10
169	0x318b4e20	4.054314e-09
170	0x31235b5d	2.3771556e-09
171	0x31a35172	4.7531836e-09
172	0x3221fd57	9.429036e-09
173	0x32790533	1.449489e-08
174	0x30d82403	1.5726304e-09
175	0x2f76cf7e	2.2447286e-10
176	0x32475730	1.1603149e-08
177	0x317a3be8	3.641384e-09
178	0x3233c88d	1.0464771e-08
179	0x3176efaf	3.5933956e-09
180	0x2fdcd610	4.0169867e-10
181	0x3178a073	3.6179955e-09
182	0x2f329f73	1.6245653e-10
183	0x32803b0a	1.4928009e-08
184	0x2fa6be9c	3.033066e-10
185	0x00000000	0.0
186	0x00000000	0.0
187	0x00000000	0.0
188	0x00000000	0.0
189	0x00000000	0.0
190	0x00000000	0.0
191	0x00000000	0.0
192	0x00000000	0.0
193	0x00000000	0.0
194	0x00000000	0.0
195	0x00000000	0.0
196	0x00000000	0.0
197	0x00000000	0.0
198	0x00000000	0.0
199	0x00000000	0.0
200	0x00000000	0.0
201	0x00000000	0.0
202	0x00000000	0.0
203	0x00000000	0.0
204	0x00000000	0.0
205	0x00000000	0.0
206	0x00000000	0.0
207	0x00000000	0.0
208	0x00000000	0.0
209	0x00000000	0.0
210	0x00000000	0.0
211	0x3341db0a	4.513553e-08
212	0x34c3486d	3.6374277e-07
213	0x32c28636	2.2645605e-08
214	0x33b4afaf	8.41386e-08
215	0x33af2225	8.1552834e-08
216	0x34bac655	3.4789505e-07
217	0x32b71426	2.1313166e-08
218	0x331160c3	3.3848448e-08
219	0x336dd48b	5.537417e-08
220	0x347c24ea	2.3482758e-07
221	0x31b51e4a	5.271237e-09
222	0x3356443b	4.9887813e-08
223	0x33f91ffa	1.16007826e-07
224	0x334944ec	4.6861643e-08
225	0x3468da43	2.1686087e-07
226	0x3496a30c	2.805831e-07
227	0x334a0282	4.703407e-08
228	0x2faf1e5f	3.1853895e-10
229	0x34b3eade	3.3512237e-07
230	0x342d372e	1.6131955e-07
231	0x346f465a	2.2284203e-07
232	0x33b76fba	8.5419245e-08
233	0x321a8a32	8.995402e-09
234	0x3318dc22	3.5590467e-08
235	0x32504cda	1.21246675e-08
236	0x334c76ea	4.7605603e-08
237	0x3148cae8	2.921917e-09
238	0x00000000	0.0
239	0x00000000	0.0
240	0x00000000	0.0
241	0x00000000	0.0
242	0x00000000	0.0
243	0x00000000	0.0
244	0x00000000	0.0
245	0x00000000	0.0
246	0x00000000	0.0
247	0x00000000	0.0
248	0x00000000	0.0
249	0x00000000	0.0
250	0x00000000	0.0
251	0x00000000	0.0
252	0x00000000	0.0
253	0x00000000	0.0
254	0x00000000	0.0
255	0x00000000	0.0

exp_avg f4 [128, 128]
0	0xb98225ce	-0.000248237
1	0x3a030c49	0.0004999084
2	0x3a201b8c	0.00061076204
3	0xb8eb4f62	-0.000112204594
4	0x399ad141	0.00029529075
5	0x3930f19d	0.00016874676
6	0x3a1719c7	0.0005764034
7	0x38e8c466	0.00011099204
8	0xb8e2c321	-0.000108128654
9	0xb9d48304	-0.00040533405
10	0x39322a69	0.00016991202
11	0x3713c411	8.807533e-06
12	0x38ad8429	8.2738996e-05
13	0xb9187f30	-0.0001454323
14	0xb93350df	-0.00017100897
15	0x39a347f2	0.00031143386
16	0x39cf3e14	0.00039528369
17	0x3a033866	0.00050056574
18	0x39a7cf05	0.00032006964
19	0xb92ad785	-0.0001629275
20	0xb8be1816	-9.064392e-05
21	0xb92d44c5	-0.00016524184
22	0x3979c8d5	0.00023821306
23	0x3837eca2	4.385098e-05
24	0xb942b2e1	-0.0001856792
25	0xb9b0d718	-0.00033729593
26	0xb8aae715	-8.149274e-05
27	0x38cd3c8d	9.78644e-05
28	0x39350242	0.00017262346
29	0x393da033	0.00018084123
30	0xb803197a	-3.125656e-05
31	0x3985d679	0.0002552753
32	0xb9b970b4	-0.0003536992
33	0xb8f47c36	-0.00011657963
34	0x34174ae8	1.4090222e-07
35	0xb99173de	-0.00027742883
36	0xb93ed85c	-0.00018200412
37	0xb85a2866	-5.2012874e-05
38	0x3a414d91	0.0007373924
39	0xb8abeb22	-8.197712e-05
40	0xb98f659f	-0.000273508
41	0xb94b5163	-0.00019389908
42	0x38d9d9b8	0.000103879196
43	0xb8d77890	-0.000102744554
44	0xb9be071a	-0.00036244915
45	0xb80cc368	-3.3560587e-05
46	0xb9391420	-0.00017650472
47	0x3939ffb8	0.00017738238
48	0xb95073cf	-0.00019879568
49	0x3a0769e5	0.0005165621
50	0xba16f1db	-0.0005758085
51	0x39de4e18	0.00042401324
52	0x384e0abd	4.9124228e-05
53	0x390ad561	0.00013240195
54	0x39322ee2	0.00016992868
55	0xb96b3858	-0.00022432336
56	0xb7e60eac	-2.7424969e-05
57	0xba30a2d7	-0.0006738132
58	0x3a1cd945	0.00059833034
59	0xb97b0593	-0.00023939302
60	0x38a88a9f	8.0366844e-05
61	0xba103f5d	-0.0005502606
62	0xb9019257	-0.00012356915
63	0xb9882f70	-0.00025975285
64	0x39e02ee5	0.00042759549
65	0x379657a2	1.79222e-05
66	0xb96e2d05	-0.0002271422
67	0xba1388f2	-0.00056280114
68	0x3927e4e3	0.00016011628
69	0xb9af6056	-0.00033450377
70	0xb7c66b1f	-2.3653321e-05
71	0xb89a03b3	-7.343981e-05
72	0xb8a2709d	-7.745738e-05
73	0x398770e1	0.00025833308
74	0x398c3d93	0.00026748757
75	0x393402af	0.00017167137
76	0x3910eae2	0.00013820411
77	0x36aaa0ec	5.0851286e-06
78	0x39f04681	0.00045828897
79	0x392365fa	0.0001558288
80	0xb9c85f72	-0.00038218085
81	0x39ef0796	0.00045591284
82	0x39e19b9e	0.00043031288
83	0xb99b7a53	-0.00029655042
84	0xb6c605f4	-5.901553e-06
85	0xb9a9c71b	-0.00032382537
86	0x38700e03	5.723351e-05
87	0x3a4b89b6	0.0007764356
88	0xb7e081db	-2.676335e-05
89	0x39d25c19	0.0004012294
90	0x39b9f8f2	0.00035471428
91	0x3801fd9b	3.0992185e-05
92	0x3933351d	0.00017090557
93	0xb9dd2c21	-0.00042185283
94	0x39c49bf9	0.00037500242
95	0x3a56e225	0.00081971503
96	0xb826c09e	-3.9756873e-05
97	0xb94c5c37	-0.00019489309
98	0xb98b62ac	-0.00026585662
99	0x37859765	1.5925334e-05
100	0xb9ee5a5e	-0.00045462226
101	0xb98a9a1d	-0.00026436234
102	0x338b9bbc	6.50102e-08
103	0xb9d51b4a	-0.00040646858
104	0xb9b36506	-0.0003421681
105	0xb933e429	-0.00017155767
106	0x38196a1f	3.6576876e-05
107	0x38b4957f	8.610915e-05
108	0x39930a47	0.00028045682
109	0x38a08d43	7.6557066e-05
110	0x394820fd	0.00019085775
111	0x3855cece	5.097576e-05
112	0xb84e5661	-4.9194674e-05
113	0x3907c2b1	0.00012947131
114	0xb9942199	-0.00028253792
115	0xb9184001	-0.00014519693
116	0xb8ca9da5	-9.661474e-05
117	0x39109aa7	0.00013790523
118	0x392455d0	0.00015672226
119	0x3850168e	4.961207e-05
120	0x388bb986	6.662593e-05
121	0xb84e906c	-4.924873e-05
122	0xba132f15	-0.0005614621
123	0x38d51c05	0.000101618505
124	0xb9302083	-0.0001679678
125	0x3958462b	0.00020625505
126	0x39a9b9e1	0.00032372682
127	0xb9e795d9	-0.000441714
128	0xb8bacc29	-8.907199e-05
129	0x390a30ab	0.00013178836
130	0x39ca4c2e	0.000385852
131	0xb91e3ff3	-0.00015091877
132	0x3927e9e7	0.00016013496
133	0x37ddb5dc	2.6429938e-05
134	0x394a1978	0.00019273709
135	0x36e9ae5b	6.9642388e-06
136	0xb8445646	-4.681039e-05
137	0x38bb86a5	8.941934e-05
138	0xb9409ece	-0.00018369706
139	0x398ff112	0.00027454697
140	0x38453bbd	4.7024096e-05
141	0xb87314df	-5.7955152e-05
142	0x38726bbc	5.779763e-05
143	0xb91c13c4	-0.00014884683
144	0x39924c0d	0.00027903952
145	0x385bb5e3	5.2383064e-05
146	0x3857d30f	5.1456558e-05
147	0x38558de0	5.091529e-05
148	0x382bcf75	4.0962786e-05
149	0xb9806c0e	-0.0002449457
150	0xb71abcb4	-9.223051e-06
151	0xb926630c	-0.00015867891
152	0x387e2574	6.05932e-05
153	0xb6865fcd	-4.004664e-06
154	0x38072791	3.2223357e-05
155	0x3902dec4	0.00012480753
156	0x3978794c	0.0002369631
157	0x398b00c4	0.00026512716
158	0xb964356d	-0.00021763677
159	0x391c8cf2	0.00014929826
160	0xb6b71e06	-5.45732e-06
161	0x390ec309	0.00013614832
162	0x38ce6895	9.8423254e-05
163	0x374304cf	1.1624025e-05
164	0xb88cb30f	-6.7090725e-05
165	0xb96bfc42	-0.0002250532
166	0x384014f8	4.5795896e-05
167	0x37fa5e75	2.9846307e-05
168	0xb97a4e85	-0.00023871109
169	0xb94417e9	-0.00018700924
170	0xb83e702b	-4.5403995e-05
171	0x3872d4bf	5.789543e-05
172	0xb993d8f0	-0.00028199656
173	0xb91ef3d5	-0.00015158889
174	0x39044790	0.0001261516
175	0xb90af573	-0.00013252143
176	0xb93db5f0	-0.00018092222
177	0x38defee3	0.00010633261
178	0xb98f4ad7	-0.00027330845
179	0x39851730	0.00025385013
180	0x36e0882a	6.691572e-06
181	0x383fdcce	4.574359e-05
182	0x3872cf3c	5.78903e-05
183	0xb7de9486	-2.6533624e-05
184	0xb85cfc20	-5.2686897e-05
185	0xb91a5f66	-0.00014722123
186	0x3946bd55	0.00018953283
187	0xb8c83c00	-9.547919e-05
188	0x37a6a2a0	1.986447e-05
189	0xb8ebfec3	-0.00011253126
190	0xb8b3f1d4	-8.580429e-05
191	0x389083de	6.891017e-05
192	0x394bccd2	0.0001943589
193	0xb8062d10	-3.1990057e-05
194	0xb936c08f	-0.00017428606
195	0xb95e11f4	-0.00021178258
196	0x3892b0c0	6.994745e-05
197	0xb9937de6	-0.00028131827
198	0xb8aff4d9	-8.390257e-05
199	0x38bab053	8.902014e-05
200	0x33d49f96	9.901048e-08
201	0x388fd351	6.858132e-05
202	0x391a362f	0.0001470677
203	0x3906d0b5	0.00012856985
204	0x39391e67	0.000176543
205	0x3935d6c1	0.00017341507
206	0x390119ac	0.00012311962
207	0x3924fff5	0.0001573561
208	0xb749eec4	-1.2036126e-05
209	0x392f4db1	0.00016718243
210	0xb87867e0	-5.922455e-05
211	0x385612ed	5.1039202e-05
212	0x39a1d637	0.00030867915
213	0x379fff69	1.9073212e-05
214	0x39004531	0.00012232807
215	0x39c1594c	0.0003687836
216	0x38ec7578	0.00011275237
217	0x38bb3b5d	8.927912e-05
218	0x3765c907	1.3696269e-05
219	0xb8154d77	-3.5596513e-05
220	0x38edfb46	0.00011347844
221	0xb99ce6ca	-0.0002992659
222	0x388e5f9d	6.788897e-05
223	0x38f487a0	0.00011660089
224	0x3853b53e	5.0475115e-05
225	0xb742a922	-1.160268e-05
226	0xb981050d	-0.0002460856
227	0x38701b04	5.724562e-05
228	0xb936fb50	-0.00017450494
229	0xb91673e3	-0.00014348286
230	0xb881ef3d	-6.195761e-05
231	0xb9625eef	-0.00021588405
232	0xb8fdc887	-0.00012101331
233	0x35711c65	8.9820816e-07
234	0xb9422df5	-0.00018518402
235	0x371b832e	9.269263e-06
236	0xb72fdc37	-1.0482086e-05
237	0x38a2d388	7.764163e-05
238	0xb8f977b0	-0.00011895539
239	0xb94374cd	-0.00018640161
240	0xb72e3e7e	-1.0385758e-05
241	0xb66097ef	-3.3467038e-06
242	0xb5d7a457	-1.6066577e-06
243	0x3955c90a	0.00020388156
244	0xb7eaefec	-2.8006696e-05
245	0x37b64533	2.1728314e-05
246	0xb9838a6b	-0.00025089397
247	0xb9810219	-0.0002460636
248	0x3867e7c9	5.529056e-05
249	0x38cd09a9	9.776961e-05
250	0xb91f3938	-0.00015184737
251	0x39371ea7	0.00017463659
252	0xb708a685	-8.1450025e-06
253	0x392c37f4	0.00016424042
254	0x38bf371c	9.117855e-05
255	0xb7be5d09	-2.2693088e-05
