rnn3.ckpt (torch, 724954 bytes, 27 tensors)

rnn.weight_ih_l0 f4 [128, 53]
00000000: 89b5 86bd fd37 bd3d 9f70 fb3c 53b0 48bd
00000010: 5425 6f3b 6ebb 0a3c f2e2 be3d c801 99bd
00000020: a365 3b3d ed1e 41bd c988 3fbd 5ab3 67bc
00000030: a274 c43c 4a7b 9abd 6261 8e3d 5a6c 1a3c
00000040: 5927 923d 803d 0e3d 6197 9dbd 5b58 7dbd
00000050: dfeb eabc ff0a 313d 55a6 2f3d 80e6 e93d
00000060: f5e2 31bd 8db2 5f3c 68ad 333d 607b 3a3d
00000070: 3163 1c3c 8430 00bc ed10 423c 115f 5c3d
00000080: e320 623b cab8 87bd 964b 63bd 019f 84bd
00000090: a426 1bbd 153f a5bc 26cd 243d b765 61bd
000000a0: 8184 46bd c8c8 a3bb 8e9b 80bc 6126 87bc
000000b0: 9481 2cbd 75b9 533c d97f 473b 635d 983d
000000c0: 937c 9cbd 2598 9ebd f876 0b3d 21eb 08bd
000000d0: 782d a1bd 6210 08ba 60a4 babd b38e 793d
000000e0: b923 133d 7baf c6bd 99cc dcbc 1faa 0dbd
000000f0: 1f50 c7bd 1057 e5bb 88fc 3ebd 9e08 c43c
00000100: bad2 cbbc eb1f ca3c 8730 673d 3512 ac3d
00000110: 452a f23b 5e1d 00be ec23 d13d 1bf7 b5bd
00000120: dd80 b23c ce12 fc3b 7e25 533d 5b0c 243d
00000130: 5473 a43c 6133 86bd fb99 dbbd 001b 03bc
00000140: 7855 553d edaa d6b9 507c e03c 83a3 b23c
00000150: 746c a8bd 121a ba3c bc82 6abd c586 b9bb
00000160: 06cb 2bbd debf f0bb 426e a5bd 9253 8fbc
00000170: 4fec 3d3d 1aac 9bbd 4945 e5bc 7ae2 5abd
00000180: 41eb 94bd 4644 10bc 2d2a f13c c644 7b3d
00000190: 52e7 03bd f998 883c 1968 31bd fe65 a93d
000001a0: 2c2f 3e3d cfd4 88bc 2059 2f3d 65ec bebd
000001b0: 619a 43bc 9705 32bd 3f83 79bd 5abc ca3c
000001c0: 3371 72bd 2e8e 01bd 1183 53bd 2ade 933c
000001d0: f7e7 b4bd 0e65 903d 3fb6 ab3d 002e 4fbd
000001e0: 1a44 813d 772b 5ebc 24d6 813d 4283 6bbd
000001f0: 4ae6 0bbd 7149 783d 2b35 353d ba72 463b
00000200: a48c 0cbc 5503 0c3e 4f7a 99bd 5d89 eabc
00000210: f98c 433d cc3a 683d f39e 103d 8a67 8abd
00000220: f7c4 8abd 257e d83c 3977 09bd d718 1b3c
00000230: ef92 593c 5103 9abd 7894 8f3b 0419 0f3d
00000240: 1929 25bc 718b 163d 357b 913d e498 f0bb
00000250: 6a70 933d 07b4 e7bc b725 0cbc f1f5 20bd
00000260: c855 a93d bb97 fa3b 29ff 79bd b31b 003d
00000270: e846 873b 9b6d 9fbc bd44 d1bd 72af 51bd
00000280: b745 d639 591d a4bd 82e5 513c 6e3b d63d
00000290: f07e 003d 5b3c d5bd 05e2 abbd 04b4 fb3c
000002a0: 7361 8c3d 6153 433d 96ba 833d 3fe7 e03d
000002b0: 7fef 113d fd38 a5ba d18a 4d3d 244d afbd
000002c0: 4f7c 3d3d f6a9 bbbd f1f9 013d e7c8 763d
000002d0: eb4e 45bc 5a4f 343d 7195 123e 71f2 42bc
000002e0: aa76 c33d d0b3 98bd 7485 51bd 9e9c 69bc
000002f0: 4cda a03c 5a37 533c c473 b33d 8844 abbd
00000300: 0830 88bc 07a2 b3bc 91cb 9c3d 3628 323d
00000310: 9dce 9cbd 7f75 663c 5b64 193d 9813 323d
00000320: 1d79 9cbd d137 a4bd 7196 9b3c d4c5 9dbd
00000330: 7642 aebc e309 2d3d cf56 483b 571f 9f3c
00000340: a1b7 9c3d 3856 863d 383f 093d c7b9 943d
00000350: 6e4e 883d 6456 893c 3fa8 973d 874a febc
00000360: 4714 533d 1980 85bd cda1 393d 082b c23d
00000370: 3190 9f3d 72de 84bd fe2c 4cbd 88b3 213d
00000380: 5c89 953c 45a8 d1bd 9f75 9abd d069 36bd
00000390: bece 713d e9a0 713d 567a 94bd b89a cc3c
000003a0: 667a 4bbc 0994 093d 35c8 d7bd 6cd2 86bd
000003b0: 9ddb 323d 4209 233d 25de 6b3c c328 19bd
000003c0: 8700 073d 0080 813d 9721 613d b4b2 fcbc
000003d0: ce54 fd3c 32ca 16bc 9aad 55bd adc3 8a3c
000003e0: 8774 c83c 9108 4bbd 063f 083d aa25 1cbd
000003f0: 5649 fd3a 6c3a 95bd 187d 633c 992c f7bb
-0.06577594 0.092391945 0.03069335 -0.04899628 0.0036490755 0.008467538 0.0932063 -0.07471043
0.045751225 -0.047148634 -0.046761308 -0.014141882 0.023981396 -0.07543047 0.06952168 0.009425247
0.07136411 0.03472662 -0.07694889 -0.06185184 -0.028676925 0.043223377 0.042883236 0.114209175
-0.043429334 0.01365341 0.043866545 0.045527816 0.009545133 -0.007824067 0.011844856 0.0538016
0.0034504465 -0.066270426 -0.055492006 -0.0647564 -0.037878647 -0.020171681 0.040234707 -0.055028643
-0.04846621 -0.0049983 -0.015699174 -0.016497793 -0.042115763 0.012922634 0.0030441193 0.07439687
-0.07640948 -0.07743863 0.034049004 -0.03342736 -0.078700006 -0.00051904295 -0.09113383 0.060927104
0.03592274 -0.09701439 -0.026953029 -0.03458607 -0.09732079 -0.006998904 -0.04662755 0.02392989
-0.024880756 0.024673423 0.056442764 0.0840191 0.007390293 -0.12511203 0.1021193 -0.08885022
0.021789962 0.0076926714 0.051549427 0.040050846 0.020074524 -0.065527685 -0.10722729 -0.008002043
0.052083462 -0.0004094461 0.027403027 0.021806484 -0.08223811 0.02271751 -0.057253584 -0.0056618177
-0.041941665 -0.007347091 -0.08077671 -0.017495904 0.04636794 -0.07601185 -0.02798714 -0.05343864
-0.072714336 -0.00880534 0.029439056 0.061344884 -0.032203026 0.016674506 -0.043312166 0.082714066
0.046431705 -0.016703038 0.042809606 -0.093224324 -0.011938662 -0.043462362 -0.06091618 0.024748016
-0.059189986 -0.031629734 -0.051638667 0.018050272 -0.08833306 0.07050525 0.0838437 -0.05058098
0.063118175 -0.0135601675 0.06339672 -0.057498224 -0.034155168 0.060616914 0.044240158 0.0030280785
-0.008578453 0.13673146 -0.07494032 -0.028629953 0.047741864 0.056696698 0.035307836 -0.0675803
-0.06775849 0.026427338 -0.033560965 0.0094663715 0.013279661 -0.07520164 0.0043817125 0.034935966
-0.010080599 0.036754075 0.07103578 -0.0073424447 0.07199176 -0.028284086 -0.008553914 -0.039297048
0.082683146 0.007647482 -0.061034355 0.031276416 0.0041283257 -0.019461444 -0.10218189 -0.05119271
0.00040869202 -0.0801341 0.012811067 0.10460554 0.031371057 -0.104119025 -0.08392719 0.030725487
0.068545245 0.04768694 0.06432073 0.10981607 0.035628792 -0.0012605485 0.050181214 -0.08559635
0.046261128 -0.09163277 0.031732503 0.06025019 -0.012042741 0.044020988 0.1431482 -0.011898623
0.09544118 -0.074561715 -0.05115266 -0.014258532 0.019635342 0.012891615 0.08762315 -0.08362681
-0.016624466 -0.021927847 0.07656015 0.04349538 -0.07656596 0.014066099 0.037449222 0.043475717
-0.07640288 -0.08018459 0.018992634 -0.07703748 -0.021271925 0.042245757 0.003056932 0.019424124
0.07652212 0.06559414 0.033507556 0.07261997 0.06655584 0.016764827 0.07405137 -0.031041397
0.05153301 -0.06518573 0.04532032 0.09480864 0.07791174 -0.064877406 -0.049847595 0.039477855
0.018253975 -0.10237173 -0.07541966 -0.044534504 0.059035055 0.058991347 -0.07249896 0.02497612
-0.012419319 0.033588443 -0.10536233 -0.065831035 0.04366647 0.03980375 0.014396225 -0.03739239
0.032959487 0.06323242 0.054963674 -0.030846931 0.030924227 -0.009203481 -0.052167512 0.016939009
0.024469627 -0.049568716 0.03326323 -0.038121857 0.0019324224 -0.07286534 0.013884805 -0.0075431583

rnn.weight_hh_l0 f4 [128, 128]
00000000: 2808 29bd 7983 3fbd 8138 bfbc cc1f cc3c
00000010: fa86 0abd 6ffa 1abd 76cc aebd e227 ebbc
00000020: 369f 913d a0f0 8ebd e1df 88bd b72a 45bd
00000030: 6b5b e0bd 5938 79bd bfca afbd 0fa9 a73d
00000040: 8459 babc 3321 bdbc 8a42 933d 655d 36bc
00000050: 0986 aabd e2ed 83bc afc9 51bd 428a a4bd
00000060: 35c5 0e3d 3a86 20bd 6042 82bd 9aba 953d
00000070: 64d3 8abd 0ae4 82bc d202 de3c 1789 f7bb
00000080: 29f1 9ebd f6ba 0abd 3370 28bd 7e06 a3bd
00000090: a087 15bd fc56 6d3d 1656 753b a6d1 b63d
000000a0: c999 bebb c513 59bd 141c 67bc feec 55bc
000000b0: dbe6 7bbd 5e5a 963d ce63 0abc 272e f0bc
000000c0: e424 8c3a cf99 313d 5d3c 70bd bb01 27bd
000000d0: 6109 be3c 25e7 0cbd 9051 3bbd 914a e03b
000000e0: 142b 85bd d867 ae3d 57ca de3c 31a0 883b
000000f0: 3694 733d af32 8fbd bf24 a93c ddf4 80bd
00000100: 2afe 443d deae 943d f2db 893d 227b 82bd
00000110: 736c 10bd 38e3 a2bd 137a a1bd d1d2 1abd
00000120: c201 3fbd 5ae0 a53d 16bc 14bc 8ef8 923c
00000130: 2af6 87bd 40bc 7ebd 4046 ad3c 9c6d 853d
00000140: 98ef 863b 551c 4d3d 3db5 ad3c 53bb 613d
00000150: d9e0 533b 5d29 af3c a267 f53c ed09 43bc
00000160: e50c 12bd e912 ca3d 43cb 95bd fcb0 833d
00000170: 3a5a 083d 1954 7d3d 6813 ae3d ca56 88bd
00000180: c009 943d 719d b0bc d63f 87bd bc59 57bd
00000190: 4bad 863d 9eae af3d 002d b1bc dd76 9fbd
000001a0: 526f ca3c cccd a4bd 6652 41bd ba71 b2bd
000001b0: 0936 973d 796e a23d 338f 4c3d 8c26 49bd
000001c0: 1317 1cbd 031a 5cba 1762 8a3d 6b3e 5abd
000001d0: 563d 0ebd 9bc4 823d cfb3 03bd 003d 173d
000001e0: f37c 4dbd 7f85 873b ff7c 9a3d 48c5 8dbd
000001f0: 2e23 5dbd dce1 3f3d 4f89 4fbd 0ed4 a43d
00000200: a299 a3bc a460 8fbd 38ac 3bbc aa04 56bd
00000210: 6a5d 57bd 0d13 b23b e08d 85bc 1d18 82bd
00000220: 886c 05bd 556a bcbd bc7a 9cbc 7886 d2bc
00000230: f98f b03b 2231 433c b3ea 4a3c 5918 19bd
00000240: 8bcd 13bc 0b81 22bd 7525 6cbd 8b55 76bd
00000250: 4b3b cdbc 0f69 87bd eb2d 5dbd fb17 7bbd
00000260: 43de f3bc ef35 a13d f91a a93d 9d2f 4bbc
00000270: 2fb9 e1bc c2f3 6d3d b0a9 28bb b3b1 e03b
00000280: de99 9cbd fdc0 983d e6fd 83bd e2e1 13bd
00000290: 5e03 edbb 5ef4 92bd 94b0 1e3d 2d39 98bd
000002a0: 848a 313c c04d 7ebd 2e5c 9c3c 25cc 80bd
000002b0: 0ada 62bc b6d9 993d 47c3 7ebd f693 82bc
000002c0: 646d 12bd ffba 8e3d ca7c be3a 1267 8a3d
000002d0: e309 8ebd 493e 2cbd 8aaa b53d c1fb 883d
000002e0: 858a 323b 4791 34bd 8009 98ba 10e2 ba3d
000002f0: dc68 babc f021 a0bd 399c a9bd 9272 90bc
00000300: c625 3ebd 0a4d 053c bfe0 bebc 6b6f f6bc
00000310: 9eb1 be3b ef62 ae3d 9202 f53c f480 acbd
00000320: 2f72 85bc ecdd bc3d c51d c83d ca9e 203d
00000330: ee4c ab3d ffe1 c6b7 fecc a1bd ce62 c03d
00000340: 3e29 b03d a0b3 833c 2325 0bbd 31ea 94bd
00000350: 3bdf 0e3c 84e7 72bc cfc4 96ba b1ca 9cbd
00000360: 825f 60bd 0c0a 993c 7cd4 c8bd 1313 76bc
00000370: 4c56 5e3d 654f 8d3b e3bd 1bbd 932b 8c3d
00000380: 64fe 6bbd 2e80 8fbd bea9 91bd c7dc c7bb
00000390: face ac3b fb90 a53d 38a7 17bd cd48 f1bc
000003a0: eee3 5fbd 862a 683d 47b1 813d ef81 9cbd
000003b0: 7411 83bd c985 d4bc a194 c53d cf76 87bc
000003c0: e30b 6fbd ce88 aebd 1693 2a3d 8337 91bd
000003d0: 7aac 15bd 6b8e 503d ee70 5d3d 88f2 f1bc
000003e0: 94b9 8a3d 1d8d 923c 995f 94bd 2b06 76bd
000003f0: a9ad 5ebd d56a 833c 4bee 743d 86b8 373d
-0.041267544 -0.04675624 -0.023342373 0.024917506 -0.03382013 -0.03783649 -0.085350916 -0.028705541
0.07110445 -0.06979489 -0.066833265 -0.04813644 -0.109549366 -0.060844753 -0.085835926 0.08186542
-0.022747763 -0.02308712 0.07190426 -0.011130665 -0.083263464 -0.016104642 -0.05121773 -0.08034183
0.03485604 -0.03919051 -0.06360316 0.07310982 -0.06778601 -0.015977878 0.027100954 -0.007554184
-0.077608414 -0.033869706 -0.041122627 -0.07960223 -0.036506295 0.057944283 0.0037435344 0.08926706
-0.0058166725 -0.05299737 -0.014105815 -0.013056992 -0.061499458 0.07341455 -0.008446647 -0.029318882
0.0010692147 0.043359574 -0.058651317 -0.040773135 0.023197832 -0.034400124 -0.04573208 0.0068448265
-0.06502357 0.085159004 0.027196093 0.004169487 0.059467517 -0.06992089 0.020647405 -0.06296704
0.048093952 0.07259916 0.06731404 -0.06371142 -0.035259675 -0.07953495 -0.07884612 -0.037798706
-0.046632536 0.08099432 -0.009078046 0.017940786 -0.06638749 -0.062191248 0.021151662 0.06515047
0.0041179173 0.050075848 0.021204585 0.055110287 0.0032330065 0.021382028 0.029956643 -0.011904222
-0.03565683 0.09866888 -0.0731416 0.064302415 0.03328917 0.06184778 0.08499795 -0.06657179
0.07228422 -0.021559449 -0.066039726 -0.05257581 0.06576022 0.085782275 -0.021627903 -0.07786343
0.024711285 -0.08047065 -0.047197722 -0.08713098 0.07383353 0.07931227 0.049941253 -0.049109027
-0.038107943 -0.000839621 0.067569904 -0.053282183 -0.034726463 0.06385156 -0.0321539 0.03692341
-0.05016799 0.004135787 0.07543372 -0.06922394 -0.053988628 0.046846256 -0.050668057 0.08048259
-0.019970719 -0.070008546 -0.011454634 -0.05225054 -0.05257932 0.0054344 -0.016303003 -0.063522555
-0.032574207 -0.09199969 -0.019101493 -0.025698885 0.0053882566 0.01191357 0.012385058 -0.037376735
-0.009021173 -0.039673846 -0.05765291 -0.060140174 -0.025052687 -0.06611835 -0.05399887 -0.061302166
-0.029769069 0.07871615 0.08257098 -0.012401489 -0.027554123 0.058093794 -0.0025735907 0.006857121
-0.07646535 0.074586846 -0.06444912 -0.03610409 -0.0072330674 -0.071755156 0.038742617 -0.074327804
0.010836247 -0.062085867 0.019086923 -0.062889375 -0.01384593 0.07512228 -0.06219795 -0.015939694
-0.035748854 0.069692604 0.001453304 0.0675794 -0.069354795 -0.042051587 0.08870418 0.06688643
0.0027243209 -0.04408386 -0.0011599511 0.09125149 -0.022755079 -0.07818973 -0.0828175 -0.017632756
-0.046422742 0.008136043 -0.023300527 -0.030082425 0.0058195135 0.08514964 0.029908452 -0.08423033
-0.016289799 0.09222016 0.09771303 0.039213933 0.083642825 -2.3708677e-05 -0.07900427 0.093938455
0.08601616 0.016076863 -0.033970963 -0.07271231 0.0087202145 -0.014825705 -0.0011502745 -0.07655848
-0.054778583 0.018681549 -0.09806153 -0.015019196 0.054281518 0.004312443 -0.038022887 0.068442486
-0.057615653 -0.0700687 -0.07112454 -0.0060993168 0.005273697 0.080842935 -0.037024707 -0.02945366
-0.05466073 0.05668118 0.06332641 -0.0764197 -0.06399813 -0.0259427 0.09647489 -0.016536145
-0.058360945 -0.08522187 0.04164418 -0.07090666 -0.03654144 0.05091707 0.054062776 -0.029534593
0.067736775 0.017889554 -0.07244796 -0.060064476 -0.054364834 0.016042152 0.059797566 0.04485371

rnn.bias_ih_l0 f4 [128]
00000000: e357 3cbd 316f 153d e17a 303c da4b 68bc
00000010: 3182 14bc c7fc 0a3d a0ca 353d 1d33 9fbd
00000020: 8c1e 9cbc e5c4 8dbd a1cc 37bc e519 9dbd
00000030: da99 e53c 6f2b 783a 31e7 a9bd 7b21 e7bb
00000040: cd73 81bd 758f 7cbd c936 2e3d eaa3 8e3c
00000050: 2cdb 1f3d b1c1 803d f683 a53d daf9 2d3d
00000060: 9340 2c3c ee45 9fbd 54fc 783c 400d 313c
00000070: 6c0e 71bd e68b 6bbd 2520 583d 9e29 eebb
00000080: 7157 ae3c 40e7 873d 60ff 8abd f5be ea3c
00000090: 1dde a9bc d33c 2fbd 633f a3bc e42c 99bd
000000a0: 1322 333d 7a7b a0bd 91e7 92bd 7dbf 5c3d
000000b0: 2389 a73d 4f9e b4bc e584 28bd 6e2e 193d
000000c0: 84d3 10bd d846 3c3d 1070 2cbc 4d91 a43c
000000d0: c731 68bd 9369 6abd 6152 953d 1b61 0bbd
000000e0: a803 0ebc 5e5c aebd f218 9ebc 69fe 4a3d
000000f0: 3472 23bc b333 c5bb 3d35 943d e574 9bbd
00000100: 81ca 933d c555 88bd f062 6fbb 106c a63d
00000110: 48f2 8ebd 675e 223d 6958 143d fdc0 93bd
00000120: 4f04 d5bb 1ac0 283d 9c83 d8bc 32f7 8f3c
00000130: c59f ef3c 474d f1bc a492 1abd bfc9 233d
00000140: 7ee0 59bc 0919 173c d91f 9dbd 3c43 c3bc
00000150: 02c4 86bd a8a4 bdbc 81c0 783d fe59 633d
00000160: 9891 a13c 0c7a 003d 22cf 5ebd 1cf4 9fbd
00000170: e6e3 233d 7212 ff3c 09de 84bd 029c 7a3d
00000180: 29c1 bfbb fec5 90bd 3baa 963d edff a0bc
00000190: 85af 563d bb94 65bc d78e 2abc ca7f 93bc
000001a0: 6fd5 043d fbcf 8c3d ad78 053d 801c abbd
000001b0: e05e 20bd 6dde 693c 0fb2 b73d 32db 593d
000001c0: 95e8 643d ab07 15bd 1fed 1a3d 093c 843c
000001d0: c140 8ebd ae5a 8cbd 70d7 eebc 0261 28bd
000001e0: 3e02 903d 559b 6c3d dcb4 9b3d 9af7 ff3c
000001f0: ba00 82bd 31a4 073d cdee ac3d ee22 903d
-0.045982253 0.036482994 0.010771484 -0.014178241 -0.009064243 0.033932474 0.04438269 -0.07773421
-0.019057535 -0.0692232 -0.011218221 -0.076709546 0.028027464 0.00094669213 -0.082960494 -0.0070535517
-0.06320915 -0.06166025 0.042532716 0.017412145 0.039027378 0.06286944 0.0808181 0.042474605
0.010513443 -0.0777701 0.015196878 0.010806382 -0.058851644 -0.057506464 0.05276503 -0.0072681447
0.02128193 0.06635904 -0.0678699 0.028655509 -0.020735795 -0.042782616 -0.019927686 -0.07479265
0.043733668 -0.07836051 -0.07173074 0.053893555 0.08180454 -0.022048144 -0.041142363 0.037397794
-0.035357967 0.045966 -0.010524765 0.020088816 -0.056688096 -0.05722959 0.07291103 -0.034028154
-0.008667864 -0.085137114 -0.019299004 0.04955903 -0.009975959 -0.006018126 0.07236717 -0.07590655
0.07216359 -0.06656984 -0.0036527477 0.0812608 -0.06979805 0.03964081 0.036217127 -0.07214544
-0.0065007578 0.041198827 -0.026429944 0.017573927 0.029250989 -0.029455794 -0.037737504 0.039987322
-0.013298152 0.009222277 -0.0767209 -0.02383577 -0.06580354 -0.023149803 0.06073046 0.055505745
0.019722745 0.031366393 -0.054396756 -0.07810232 0.040012263 0.031136725 -0.06487662 0.061183937
-0.005851884 -0.07069014 0.07356688 -0.019653285 0.052413482 -0.014012511 -0.010410032 -0.01800527
0.03243011 0.068756066 0.03258579 -0.08355045 -0.03915298 0.014274222 0.08969509 0.053187557
0.05588587 -0.036384266 0.037823793 0.016141908 -0.069459446 -0.06853233 -0.029155463 -0.04110814
0.07031678 0.057765324 0.076028556 0.031245995 -0.06347795 0.03311557 0.08443985 0.07037912

rnn.bias_hh_l0 f4 [128]
00000000: f0c7 8abd c705 42bd a0f1 14bd 73dc 7d3d
00000010: afdf 453d 27e2 303d 84c3 75bd 06a5 7cbd
00000020: fcc3 723c 4b18 5abd 6059 cfbc 8a02 f53c
00000030: 61db 263d 419f 643d f792 8abd 85d9 46bd
00000040: 93ec 4d3c 58ee 213d 5bab 84bc 79d2 6d3c
00000050: 582f a8bc 68d1 36bd 40d2 a83d 5bbc 743b
00000060: 47ab 6e3d 837d cc3b 5e54 903d 046f 8cbd
00000070: 26ed 803d eec6 88bd 98ad 20bd b107 133d
00000080: 0f94 4cbd 30d9 8fbd 2e26 603d dec2 23bd
00000090: 559d a63d 93d2 f3bb 678a 513d f4fa 5d3b
000000a0: 6d03 5f3d b651 acbd 448d 923d 1b63 11bd
000000b0: 450f 263d 9758 89bd 7d76 04bd 6c2d 28bd
000000c0: 0bc4 9f3c 9206 88bd 1424 473d cdfb 8abd
000000d0: fd92 a8bd 6e02 6e3c c665 8539 8f12 f5bc
000000e0: b626 9e3d b739 14bd 44ee 8abc 3eac c7bb
000000f0: f99f 903d 6798 123c 9405 a43d 8e93 043c
00000100: 0297 2f3d 559b 0e3d a8e3 9bbd 7158 b9bc
00000110: 2298 58bd df48 b93c 588e 8c3d 8757 7dbd
00000120: 50a7 96b9 e343 a3bc df43 933d fad8 443c
00000130: a7a5 093d 2218 7abd 42de 063d 575d 72bc
00000140: 302d 793d d6b9 db3c eb47 42bd d112 9abc
00000150: 7ca7 f43c a874 f1bc 93bd 153d 538d 743d
00000160: 526d eabc 965d 853d e584 d23c 8fe6 953d
00000170: 1229 033d 2c59 2ebd 467f 3cbd 41a1 b23c
00000180: 5757 333d ca2e 823d c29f a5bc 38a1 b13d
00000190: c57b 733d bb06 923d f020 12bd ab3a 4f3d
000001a0: 2b45 babd c403 ff3c bf89 39bd 9879 b7bc
000001b0: 0658 493d a36b 043d 32f0 453d 2e35 b13d
000001c0: 0204 273d be5e 9a3d ed39 a4bd 6bfd 23bb
000001d0: 2610 a03c e999 5e3d 4337 a3bc 31de adbd
000001e0: e520 abbd a76a 9e3d 4694 97bd ec1e 973d
000001f0: edc1 8b3d 8ed7 523c 59d8 a9bd 08a7 2dbd
-0.06776416 -0.04736879 -0.036363244 0.061977815 0.048309024 0.043184426 -0.06000091 -0.061680816
0.014817234 -0.053245824 -0.025311172 0.029908437 0.04073656 0.05581594 -0.067663126 -0.048547287
0.012568611 0.039533943 -0.01619499 0.014515513 -0.020530388 -0.0446333 0.08243227 0.0037343714
0.05826881 0.006240548 0.07047342 -0.06857112 0.062952325 -0.06678568 -0.039228052 0.035896007
-0.049945887 -0.07023847 0.05472391 -0.03998076 0.081354775 -0.007440874 0.05115738 0.0033871504
0.054446626 -0.084140226 0.071558505 -0.035494905 0.040541906 -0.0670635 -0.03233956 -0.041058943
0.01950266 -0.06641878 0.04861839 -0.067863084 -0.08231161 0.0145269465 0.00025443564 -0.029916076
0.07722227 -0.036187854 -0.016959317 -0.006093531 0.07061762 0.008947468 0.080088764 0.00809182
0.04286862 0.034816105 -0.07611781 -0.02262518 -0.05287946 0.022617755 0.068630874 -0.06185105
-0.00028734887 -0.019929832 0.0719068 0.012014622 0.033605244 -0.06105817 0.032926805 -0.014792762
0.06083411 0.026822012 -0.047431868 -0.0188078 0.029865019 -0.029474571 0.036557745 0.05970509
-0.028616581 0.06511991 0.025698135 0.07319366 0.03202159 -0.04256551 -0.046019815 0.021805407
0.043784466 0.063565806 -0.02021778 0.08673328 0.059444208 0.0713019 -0.035675943 0.05059306
-0.09095224 0.031129725 -0.04529738 -0.022396848 0.04915621 0.032329213 0.04832477 0.08652721
0.040775307 0.07537602 -0.08018861 -0.0025022875 0.01953895 0.054346 -0.019923812 -0.08489645
-0.083558835 0.07735186 -0.07401328 0.07378945 0.06824098 0.012868775 -0.08293218 -0.04239562

rnn.weight_ih_l1 f4 [128, 128]
00000000: 1187 0f3d b180 83ba 242e 0dbd d007 a73d
00000010: a0f1 9abd 19eb 923c 91fc 1ebc 25e7 5cbd
00000020: a920 4f3c 1150 f23c 079c 52bd 5d19 a8bb
00000030: 1548 283d 535b 7a3d 3949 51bd e3d0 163d
00000040: c822 543b 033a b73d a2d0 573d 65fd 48bd
00000050: 46cc 003c 1c70 7c3c 05ff 8cbc 2dac b0bc
00000060: 3825 4a3d ebfc 88bc e82b 4e3d c91a c8bd
00000070: 9925 e9bc 78bd b23d c367 6f3c 4500 b73c
00000080: d4fc 563d b1f8 4bbc 2377 483d ef2b 6e3d
00000090: a858 543b fe71 9fbd d625 a13d 1ae5 97bc
000000a0: d2ec 4bbd 27ed 59bd a7cc 7abd cbee 4dbc
000000b0: 8660 563d 23de c23d 43e0 88bd 2fd9 a23d
000000c0: 8f20 84bd f4ca c8bc 6b6c 553d 89f9 cc3d
000000d0: 35b6 a13d 34eb 8c3d da5b 623d 6407 6c3b
000000e0: bb08 ff3b e9f4 08bd 6897 483d 7645 113d
000000f0: 2483 b63d dc16 543c ef00 403c 4db7 b13d
00000100: a8d7 bdbd 1ec1 9b3d 2f24 053d 069e 543d
00000110: f47a 73bc 3af0 22bd cbb2 943d c96c 553d
00000120: b105 cf3c 2daf abbc b1bc 063d 2161 233d
00000130: aede 803d df71 813d a016 283d 7d4b 39bd
00000140: a855 f23c d7c2 b3bd 296e 27bd 394c 6f3d
00000150: 82e0 cdbc 3fab 6d3d 40fe d5bc 13c3 753d
00000160: c404 883d 52c0 80bd 5677 533a 2b27 2cbd
00000170: 8810 b03c 1755 463d 4491 a3bd ea9d 95bd
00000180: f872 dc3c 30be 753a f445 8e3d f9d0 19bd
00000190: b702 433a 4bf6 ae3c 93d1 08bd 54ea 7abd
000001a0: ac03 eebc f617 5c3d e53e d3bd 4321 8cbd
000001b0: f99e 213c a129 86bd fa71 e33c 9cb7 903d
000001c0: b1f0 6a3d e0d0 8fbc bc6c 073b f3d3 f8bc
000001d0: 0b3d 67bd 2ad4 ab3d 32ef 9c3d 64fa aa3c
000001e0: 6f10 97bd 92b7 4f3d e5c5 27bd ba6d 80bd
000001f0: 8ce7 5e3c b305 b43c 58a4 bc3c 0a64 df3b
00000200: def2 ab3d 1403 0f3d 9168 10bd 9522 df3c
00000210: f1f8 fabc 3906 cd3b 21db 98bd 5d1f 4dbd
00000220: 04fd 5bbc 8c8c 41bc 263e 15bb 3990 97bd
00000230: 8392 aab9 dd40 eebc b628 36bd f6d5 cfbc
00000240: d9d7 61bc c614 083d 9d73 29bd 98be fabc
00000250: 8b75 07bb 0be6 223d 003f b53d bdad 823d
00000260: b6dd 813d 4121 d43c 9086 c2bc f084 fb3c
00000270: e066 8ebd 30c3 9dbd 19c1 be3d df64 443c
00000280: 0821 4e3d 6228 24bd 6d0a 833d e42e 15bd
00000290: a1a3 a23d 9dda 223c d227 a7bc 12bd b53c
000002a0: 624b 773d 5e24 6a3d c77c e93c 151c 0b3d
000002b0: fcb3 e43b 3718 92bd 82ab c13c cc25 c43c
000002c0: 9210 54bd 1ec3 173d 0373 77bd 4811 d6bc
000002d0: 924c 2cbd 433f 1f3d 4cdd 2e3d eeb9 9e3c
000002e0: b8b0 0f3d 5c55 3cbd 58c3 923d 8075 453d
000002f0: 699e 8ebd 3913 0bbb f7d4 48bd e023 2bbd
00000300: 8a33 a13d d346 3f3d 1b7d 763d 4139 713d
00000310: d62e f6bc 2976 30bb 98ee 573d 003a 933d
00000320: 179e 3ab7 8d42 863d 6faf 5b3d bff2 05bd
00000330: e2e1 65bd 02b3 a13d 38ee 193d 8d9d 633d
00000340: c9aa 62bd 9a16 65bd ce3a 393d b70b f73c
00000350: c676 d3bd aec2 29bc e75d 893c 44cf 0f3d
00000360: 901e 913c f534 533d cb2b 96bd f42d 613d
00000370: 9f0a 8abc bcde 5dbd 87a2 fbbc 229f a73d
00000380: a73f 153d 581f 1cbd a7af c13d ece6 98bd
00000390: b486 813d 1edb 8e3d e458 533c 30c3 b2bc
000003a0: 87e1 ac3b bdff 843d 4d8f 1c3d 612d 9bbc
000003b0: 09e5 acbc 75a3 a43d bfa4 48bd 4a41 623d
000003c0: c79c e13c 43df 733d 3bbc c33c fde5 c33b
000003d0: 6156 52bd 8106 7f3d b974 893c 7502 e63b
000003e0: 81db 0d3c bb02 2abc 09ac 35bd 9589 203d
000003f0: 627e 093c a989 aa3d b3a2 56bd 0ae0 89bd
0.03504092 -0.001003286 -0.03446783 0.08155787 -0.075656176 0.017934369 -0.009703771 -0.053931374
0.012642064 0.029579194 -0.05141833 -0.0051299767 0.041084368 0.06112225 -0.05109522 0.036820304
0.0032369364 0.08946612 0.052689202 -0.04906978 0.007861203 0.015407588 -0.017211447 -0.021566475
0.0493519 -0.016722163 0.05033484 -0.09770734 -0.02846031 0.087275445 0.014612141 0.022338996
0.05248721 -0.012449429 0.048941743 0.058147367 0.0032401476 -0.07785414 0.07868545 -0.018541861
-0.049786396 -0.05320468 -0.061230328 -0.01256914 0.052338146 0.095150255 -0.066833995 0.07951581
-0.064515226 -0.024510838 0.05210535 0.100085326 0.07896081 0.06880799 0.055263378 0.0036015147
0.007783023 -0.03343669 0.048972517 0.035466634 0.08911732 0.012944903 0.011718973 0.0867754
-0.09269649 0.076051936 0.03250521 0.051908515 -0.014860857 -0.03977988 0.072606646 0.0521057
0.025271269 -0.020957554 0.032894794 0.03988755 0.06292473 0.06320547 0.041037202 -0.045238007
0.02958186 -0.08777397 -0.04087654 0.0584223 -0.025131468 0.05802464 -0.026122212 0.06000049
0.06641534 -0.06286682 0.00080667937 -0.04202954 0.021492258 0.04842099 -0.079866916 -0.0730551
0.02691029 0.00093743484 0.06946936 -0.037552807 0.0007439064 0.021357676 -0.03340299 -0.06125863
-0.029054485 0.05373379 -0.103147306 -0.06842282 0.009864562 -0.06550909 0.02776431 0.07066271
0.057358447 -0.017555654 0.0020664176 -0.030374503 -0.0564547 0.083900765 0.076628104 0.020871349
-0.07376181 0.050712176 -0.04096021 -0.06270929 0.01360501 0.021975374 0.023027584 0.0068173455
0.083959326 0.034915045 -0.035255972 0.02723817 -0.030636283 0.0062568453 -0.074636705 -0.05007874
-0.013427023 -0.011813294 -0.002277264 -0.07400555 -0.00032534086 -0.029083664 -0.04447242 -0.02537058
-0.013784372 0.033222936 -0.041370023 -0.03060846 -0.0020669426 0.039770167 0.08849907 0.06380794
0.06341116 0.025894763 -0.023745805 0.030703038 -0.069532156 -0.07703245 0.09314174 0.01198694
0.05032447 -0.040077575 0.06398473 -0.03642167 0.07941366 0.009939817 -0.02040473 0.022184882
0.060374625 0.05716359 0.028501881 0.033962328 0.0069794636 -0.07133525 0.023641352 0.023943804
-0.051773615 0.037051313 -0.060412418 -0.026131287 -0.04206521 0.03887869 0.042691514 0.019375768
0.03508064 -0.045979843 0.07166165 0.04820776 -0.06963808 -0.0021221174 -0.049031224 -0.04178226
0.078711584 0.046698403 0.060177904 0.058892492 -0.03005163 -0.0026925898 0.052717775 0.07188797
-1.1123272e-05 0.06555662 0.053634103 -0.032702204 -0.05612362 0.07895471 0.0375807 0.055570174
-0.055338655 -0.055929758 0.045222096 0.030156953 -0.103253886 -0.010361357 0.016768409 0.035109773
0.017714769 0.051564176 -0.073325716 0.054975465 -0.016850768 -0.054167494 -0.030717148 0.08184649
0.036437657 -0.03811583 0.09457331 -0.0746592 0.06324521 0.06975387 0.012899611 -0.021821588
0.0052759084 0.06494091 0.0382226 -0.018942537 -0.021105306 0.080389895 -0.04898524 0.055238046
0.027540578 0.05953909 0.023893466 0.0059783445 -0.05135191 0.062262062 0.01677929 0.007019336
0.008658291 -0.010376628 -0.04435352 0.03919371 0.008391948 0.08327038 -0.052401256 -0.06732185

rnn.weight_hh_l1 f4 [128, 128]
00000000: bf47 f5bc aeca 06bc 2e9a d3bb 58b9 b8bc
00000010: c5a5 713d 4f09 5dbd 6ffc 473d 3e11 19bc
00000020: cb30 84bd c5ae 2f3d 59e7 033d 0e61 2cbd
00000030: 633e ba3b 2e2e 22bd d555 2e3a 15c7 9fbd
00000040: b3ea af3d 0c1a e3bc abd6 ddbb e6ed 903c
00000050: fb2e e33c 9aef 0b3d b3d7 2a3d f7fc ebbc
00000060: 1620 19bd 283c 9f3d 83c5 0a3c 5056 6dbd
00000070: 10c3 873d 2f15 c43d 392f 64bd 98e3 e2bc
00000080: 1ccd 2abb 55cf 523d 0b67 193d bbc5 293d
00000090: 152e c43d 8b5a 60bd 7d25 7e3d 097a 89bc
000000a0: 8f8a 86ba 2b51 d93d 6240 94bd 84c2 d9bd
000000b0: e404 303d b490 493d f53c 67bd b883 f5bd
000000c0: 7194 c2bb 0829 463c 33fa b3bd ed6f 553d
000000d0: 07cd 0fbd aa6a c4bd 9c1a ca3d 2e52 e7bc
000000e0: a7b6 c53c b2f9 383d bb9e 733d 36dc 1d3d
000000f0: 8211 663d 6ae3 7dbd dcf9 853c ae29 72bd
00000100: 448c 51bd 6f3a 443d 4d28 b7bd 4e60 b63d
00000110: 3bad b5b8 5f02 353d 973b 16bd db62 fabc
00000120: e2b4 4ebc dac2 133d 7077 5f3d 0b28 8dbd
00000130: b916 cabc 3a5a ac3d f242 7d3b 85b0 63bd
00000140: 01f1 243b 6229 68bd bef9 adbd f90f db3c
00000150: 0be1 b4bd 2b8d 543c 18d6 c23c 85b6 efbc
00000160: 08ea 95bd 6a68 d7bb 31f8 51bd 88c7 0bbd
00000170: 85dd 95bb 368a e03d 6c67 5e3c 7f5a 2e3d
00000180: a46b 85bc f17c a5bb d61c e1bd 9c30 893d
00000190: 633e ac3d 21ca 823d e8dd e3bd 9926 3bbc
000001a0: abfb d3bb 5323 603d cc31 4abd 6f51 b13c
000001b0: 8ef6 be3c 7886 1e3d adda 233d 1054 4b3c
000001c0: cfc5 9cbd 71cf 4a3c e772 9dbc 607c a53d
000001d0: bac1 9e3c 9850 d5bb c608 57bd 6987 a03d
000001e0: 44e6 ed3c fa80 8d3d 70f9 043d b68c 0dbd
000001f0: cbf7 ac3d 3042 2ebd f2a2 fabc 18eb de3d
00000200: e6b3 a53d 4360 3d3d a2c7 afbc 7719 3a3c
00000210: f116 ba3c 7adf c13d 7af4 483d a36b bebc
00000220: 59af 5ebb 652e b03d 8a3a 95bd 22c3 703c
00000230: 9262 cd3c b646 9c3d 7523 a1bd d7bf 903c
00000240: 918c e63c bf66 85bd 056a abbc dc5b 81bd
00000250: ac12 3e3d 51cc 263d 3860 23bd 6c0d 9bbd
00000260: 18f0 143c 40af b8bd 85bc a9bc 9e96 9a3d
00000270: c357 853c a54f 3cbc 6d29 413d 8051 af3c
00000280: ae26 babd 83aa 5fbc 6954 8fbb 09bb 31bd
00000290: 1fc2 c2bd 1067 0bbd 24a3 16bd 3963 6d3d
000002a0: 03a3 f63d 58af 48bd c86c 1f3c fdb1 0e3c
000002b0: 18e4 cabd 3799 f5bb abd2 6bbd d382 d5bd
000002c0: 1d4b cd3d 429d 373d 99f7 e23c 9753 663d
000002d0: 696d 903c 962b 633d cb66 a1bd a67f d4bd
000002e0: 1d8a 09bd 94d9 1abd 620b 833b b7c3 8fbd
000002f0: 354f 4a3c 17bf 9ebc 7970 c7bd 5b58 e03b
00000300: 14ee 0d3d 6c1d bb3c 82aa 9fbd 18e5 10bd
00000310: b043 aebc a60a 623c f774 23bc 93d0 8a3d
00000320: ad50 0a3d bc25 34bd f605 e03b 86aa 8ebd
00000330: 6ee1 bf3d 2ae8 c73d 47f4 77bd 6d5e b1bb
00000340: 9e8e 86bd 7a8a ce3c ab50 a03d 4b51 ae3d
00000350: f03e a9bd ebf8 ab3c 6dd3 273c a450 e33d
00000360: 5592 113d e200 063c 4976 473d c170 8ebc
00000370: 0220 b0bd 4968 9ebd 8e15 babb 8c9f d8bc
00000380: 327e 1ebd 305f 9abd 61ed 73bd 6a60 cabc
00000390: cf9c be3d 1618 05bd ac68 e53b 04eb 2dba
000003a0: 8dd4 53bd 1d62 b8b9 0ae1 de3c e7b1 afbd
000003b0: a860 82bd 2fc9 713c f681 20bd bc74 3e3d
000003c0: 5878 87bd c665 96bd a149 a63b 62ba 173d
000003d0: c58d 9dbd a1c4 e93b d1a4 1bbd 0d71 1f3d
000003e0: 16ca f5bc 0243 f0bc 4e6c 673d 669f 993b
000003f0: 5f18 11bd 9f6e 793d 17c2 52bd fd94 4d3d
-0.029941438 -0.008227034 -0.0064575886 -0.022549316 0.05899598 -0.053963955 0.048824724 -0.00934249
-0.06454619 0.042891283 0.032203052 -0.042084746 0.0056837066 -0.03959482 0.0006650363 -0.07801644
0.08589687 -0.027722381 -0.006769975 0.017691564 0.027732363 0.03416405 0.041709613 -0.028807146
-0.037384115 0.07775146 0.008469942 -0.057943642 0.06629002 0.09574353 -0.055709098 -0.027696416
-0.0026062196 0.05146726 0.037451785 0.041448336 0.09579102 -0.05477385 0.06204747 -0.016781824
-0.0010264682 0.10611185 -0.072388425 -0.10632804 0.042973414 0.049210265 -0.056454618 -0.11988014
-0.0059381058 0.012094744 -0.08787956 0.052108694 -0.03510764 -0.09590657 0.098683566 -0.028237429
0.024134947 0.045160003 0.05947755 0.038540088 0.05616904 -0.061984457 0.016354494 -0.05912178
-0.05115916 0.04790729 -0.08943234 0.089050874 -8.663019e-05 0.044191714 -0.036677923 -0.030564716
-0.012616368 0.036074497 0.054557264 -0.06892403 -0.024669038 0.08415647 0.003864464 -0.055588264
0.0025168064 -0.05668009 -0.084949 0.026741015 -0.08831986 0.01297311 0.023783728 -0.029261837
-0.073200285 -0.0065737264 -0.051262084 -0.034125835 -0.0045735263 0.10963862 0.013574462 0.042566773
-0.016286679 -0.0050502946 -0.10991828 0.06698725 0.08410337 0.06386209 -0.1112631 -0.011422777
-0.00646921 0.054721188 -0.049363896 0.021645276 0.023310926 0.03870246 0.040003467 0.012410179
-0.076549165 0.012378559 -0.019219829 0.08080363 0.019379485 -0.0065098517 -0.0524986 0.078383274
0.029040463 0.06909366 0.032464445 -0.03455802 0.084457 -0.04254359 -0.030595277 0.10884684
0.080909535 0.04623438 -0.021457497 0.01135861 0.022716017 0.09466453 0.049061276 -0.023244685
-0.0033979027 0.08602599 -0.07286556 0.014694961 0.025071416 0.076306745 -0.07868091 0.017669601
0.0281432 -0.06513738 -0.020924577 -0.06316349 0.046404526 0.040722195 -0.039886683 -0.075709194
0.009090446 -0.09017801 -0.020719776 0.07548259 0.0162772 -0.011493598 0.047158647 0.021401167
-0.09089409 -0.013651493 -0.004374076 -0.04339126 -0.09509682 -0.034033835 -0.036776677 0.057955954
0.12042811 -0.048995346 0.009730525 0.008709428 -0.09906787 -0.0074950713 -0.057573956 -0.10425343
0.10024092 0.044827707 0.027705954 0.05623206 0.017630296 0.05546149 -0.07880934 -0.103759095
-0.03357898 -0.037805155 0.0039991597 -0.070197515 0.012347986 -0.019378228 -0.09738249 0.0068464703
0.034650877 0.022841178 -0.07796194 -0.03537473 -0.02127251 0.013796484 -0.009976617 0.067780636
0.033768345 -0.0439813 0.006836648 -0.069661185 0.09369169 0.09761079 -0.060535695 -0.0054128678
-0.06570171 0.025212515 0.07827886 0.08511599 -0.082639575 0.020992717 0.010243279 0.11099365
0.035539944 0.008178921 0.04869679 -0.01738775 -0.08599855 -0.077347346 -0.005678839 -0.026443265
-0.038694568 -0.07537687 -0.059552554 -0.024704177 0.093072526 -0.032493673 0.0070010033 -0.00066344463
-0.051716376 -0.00035168315 0.027206916 -0.08578854 -0.06366092 0.014757439 -0.03918644 0.046498045
-0.066147506 -0.073436305 0.005074695 0.037042983 -0.07693056 0.0071340357 -0.037998978 0.038926173
-0.030003589 -0.029328827 0.05649977 0.004688191 -0.035423633 0.060896512 -0.05145463 0.050190914

rnn.bias_ih_l1 f4 [128]
00000000: 5cdf 66bd 3047 5b3d 9500 fbbc 8ab1 133d
00000010: 16d8 c2bc e6e8 86bc e2d1 28bb d23d 493d
00000020: dade 4a3d 8170 bcbc 0616 a1bd fba2 9a3d
00000030: 9a28 903d e221 533d 48d5 413d 680e b23d
00000040: 536d 393d 8bc3 953d a01f 743c df69 bebb
00000050: 0b51 a03d b503 91bd c04f ca3c c987 d1bb
00000060: 3e41 713c 3182 a7ba 85c9 8fbc 5996 903d
00000070: 7c77 03bd 004d a1bb 23b7 5b3d 7985 7abd
00000080: 2872 663d 6f62 77bd c5b8 793d a01a 7c3d
00000090: 242a 5a3d f220 d23c 45bc dbbc c4d9 abbd
000000a0: b7ad 9b3d 908d adbd 5820 4abd ef36 a03b
000000b0: ea2c 933d ad3f acbd ace5 6b3c 71f1 9bbd
000000c0: 6888 1f3d 5102 1dbd f60e f63b 6e9d 09bd
000000d0: c084 91bc 180a 923d 3c73 783c edf6 83ba
000000e0: e98b 9f3c 5034 9d3b 2a17 6ebd f2a6 553c
000000f0: 7af2 4dbc 5094 4bbd 5b29 6ebd ff22 673c
00000100: d46e babd 82bd 893c 0aca 2e3d 5fc6 693d
00000110: 7819 283d 6520 79bc d26d 013d 9e23 ad3d
00000120: 4894 b1bd 9d69 36bc 2a48 c33b 0b3c 803c
00000130: 90a1 85bd 80c7 823d e583 51bd f67e 333d
00000140: 8b87 9dbd 4792 133d a43c 61bb 33ff 07bd
00000150: 83c4 893d 06ef 9dbd e40e e53c db6a 9a3d
00000160: 58a7 b2bd 36e0 adbd 8619 62bd 4f2c 50bc
00000170: a537 773d aa18 e33c 0724 99bd 710b 6f3c
00000180: d30b 46bd 9b30 92bd 2f09 51bd 74d0 5f3c
00000190: 6800 0e3d 0b59 073d bdae 0f3d b1f3 983c
000001a0: c04c b13d 9c64 95bb 4606 7c3d f085 c73c
000001b0: b050 543d 4635 46bd 2231 a73d d484 8a3c
000001c0: c755 d9bc 8f8b 313d 4eff 5e3d 6506 f6bc
000001d0: e11a a73c 60ce 88bd 022f abbd 8a31 abbd
000001e0: f4f1 6f3d 3073 843d fc4a 46bc f96f 8cbd
000001f0: 998f 9e3d a54e a83d 27a2 5f3d 1bbc 63bd
-0.056365356 0.053534687 -0.030639926 0.036057986 -0.023784678 -0.016468477 -0.0025759866 0.049131222
0.049528934 -0.023002865 -0.07865529 0.07550617 0.07038994 0.051545985 0.04732254 0.08694154
0.045270275 0.073126875 0.014900118 -0.0058109607 0.07827958 -0.07080785 0.02469623 -0.0063943607
0.014725028 -0.0012779889 -0.017552147 0.070599265 -0.03209637 -0.004922509 0.05364145 -0.061162446
0.05626121 -0.060396608 0.060967226 0.06154883 0.053262845 0.025650475 -0.026823172 -0.08391145
0.07601493 -0.084742665 -0.04934725 0.004889361 0.07186301 -0.08410583 0.01439802 -0.07614411
0.038948447 -0.038332287 0.0075091077 -0.033597402 -0.017763495 0.071308315 0.015164193 -0.0010068096
0.019475894 0.004797496 -0.05812756 0.013040291 -0.012570018 -0.04970199 -0.05814491 0.014107465
-0.0910317 0.016813997 0.04267315 0.057073947 0.041039914 -0.015205477 0.031598873 0.08454059
-0.086708605 -0.011133579 0.0059595304 0.01565363 -0.06524956 0.06385708 -0.051151175 0.04382225
-0.076918684 0.036028173 -0.003436842 -0.03320236 0.06726935 -0.07711606 0.027961202 0.07539912
-0.087233245 -0.084900305 -0.055200122 -0.0127058765 0.0603558 0.027721722 -0.07477575 0.01459013
-0.04835112 -0.07138177 -0.05103415 0.013660539 0.034668356 0.033043902 0.035078753 0.018670889
0.08657217 -0.0045591127 0.06152942 0.024355859 0.051834762 -0.04839065 0.08163668 0.01690904
-0.02653016 0.043345984 0.054442696 -0.030032346 0.020398559 -0.06679988 -0.083585754 -0.08359058
0.058580354 0.06467283 -0.012102839 -0.068572946 0.07742233 0.08218125 0.054598 -0.055599313

rnn.bias_hh_l1 f4 [128]
00000000: 7620 8fbd 1078 8cbd b81e ea3c 924b 29bd
00000010: fe18 9ebd 9c13 f73c eec8 b3bc 9462 94bd
00000020: fd41 983d e87f a9bd d83d aebd 8ca1 febc
00000030: 5ed9 e2bc 4519 b63d ae90 66bc c5e4 49bc
00000040: 8715 cc3a b2ab 35bd 675b f9bc affa 573c
00000050: 3a44 833c a201 4abd 4e9a 1fbd 1050 0bbd
00000060: 0a78 38bd f396 9e3d c56d 823d 7e0f 023d
00000070: 4445 a0bd ff2e b33a 7cbb 063d 5350 223d
00000080: 9876 993d ead5 4cbd f1a7 65bd 78a1 b1bd
00000090: aa9b a83d 52bf 933d 07eb a83b 7a66 7f3c
000000a0: 2bd9 c6bc d766 99bc 3f89 60bd 5a26 323c
000000b0: 6cf7 35bd fd16 39bd 2829 bdbc 7f05 603d
000000c0: a64d 38bd 87ce 803d c182 393d 904b e6bb
000000d0: 72d2 16bd 80c2 3fbd cf2c a0bd 457c 483d
000000e0: f60b b4bd 9f16 a0bb a224 cdbc 4647 89bd
000000f0: 244d 35bd 489e 22bd 7a3a 853d c9d9 9fbc
00000100: a9b0 8f3d a0cf 48bd 6a89 93bb 0850 9abc
00000110: c87b 083d ea94 18bd 268b 74bc 58d7 9ebd
00000120: 9dfc 8abd 6ded 1f3d 4877 863d 7f5f 79bd
00000130: 5a9b 58bd 2d0b ac3d 925a 663d cd3e a3bc
00000140: 0a82 9fbb 901c 30bd a537 9ebd 34de 833d
00000150: 0613 93bd 2971 a8bd c84f 61bd 3827 ae3c
00000160: 195c 22bd 8f3a 80bd 85e0 86bc e293 cb3b
00000170: 3ed9 7c3d fcfd 983d 401e 4e3d 06ac a93d
00000180: d5e6 acbb 5d14 8e3d 4f1a d4bc fd16 a1bd
00000190: 6140 5abd 2b9a ce3b cc36 7e3d cb00 413d
000001a0: 896a c7bc 5c0c 95bd bae9 443c ef22 57bd
000001b0: 3e6d 71bd dafa 173d 4648 253d f8a5 aabd
000001c0: 26ba 81bb b1ae a73c 2980 59bd 8830 253c
000001d0: f059 9fbc ab24 92bd a02a 193d ecc5 adbd
000001e0: 6c1e 77bd 0783 9cbd 3659 393d 51e3 8a3d
000001f0: f975 7a3d 6932 abbd 23cc 90bd 856b 56bd
-0.06988613 -0.068588376 0.028579101 -0.041331835 -0.07719611 0.030160718 -0.021946397 -0.07245365
0.07434461 -0.08276349 -0.085078895 -0.03108289 -0.02769154 0.088915385 -0.01407258 -0.012322609
0.001557038 -0.044353195 -0.030439092 0.013182326 0.016023744 -0.049317963 -0.038965516 -0.0340119
-0.045036353 0.07743635 0.06368593 0.031753056 -0.07825711 0.0013670622 0.032893643 0.039627384
0.07493323 -0.05000869 -0.056068365 -0.08673376 0.082328156 0.07214226 0.0051549706 0.015588397
-0.024273476 -0.018725796 -0.054818388 0.010873402 -0.044425413 -0.04518794 -0.023090914 0.05469274
-0.044995926 0.06289392 0.045290712 -0.0070280507 -0.03682179 -0.04681635 -0.078210466 0.048946638
-0.08791344 -0.004885509 -0.025041882 -0.067030475 -0.04426302 -0.03970173 0.06505294 -0.019513028
0.07016117 -0.04902613 -0.004502465 -0.01883699 0.033321172 -0.03725139 -0.014925754 -0.07755917
-0.067864634 0.039044786 0.0656572 -0.060882088 -0.05288253 0.08400569 0.05623872 -0.019927407
-0.004867797 -0.04299599 -0.07725457 0.06438866 -0.07181363 -0.082247086 -0.055007726 0.021258935
-0.039638612 -0.06261169 -0.016464481 0.0062126974 0.061730616 0.07470319 0.050321817 0.08284764
-0.0052765408 0.06937478 -0.025891451 -0.07865713 -0.053284053 0.0063049993 0.062063977 0.047119897
-0.024342792 -0.07277748 0.012018615 -0.05252355 -0.058942072 0.037104465 0.04035213 -0.08332437
-0.003958958 0.020469042 -0.05310074 0.0100823715 -0.019452065 -0.071359 0.037394166 -0.08485016
-0.060331747 -0.07642179 0.045251094 0.067816384 0.061147664 -0.08359224 -0.07070186 -0.052348632

output_layer.weight f4 [1, 128]
00000000: a3d4 563d cc08 e13d bac3 37bd a2cf dfbd
00000010: 5452 e2bc 7f17 84bd 98da 043d cdb7 afbc
00000020: e06a cabd c3f9 48bd 8556 daba 8132 a5bd
00000030: fff5 4c3c f3c4 88bd 2ab0 d0bd 824f bb3d
00000040: 28d9 a73d 4ae7 22bd 5c8e db3c be1c 01be
00000050: 7b72 883c 6622 fe3d a2d5 c9bd 332d 36bd
00000060: bc99 fdbd 9cb6 1fbc 8993 66bd 35e9 6bbc
00000070: 63e6 96bd 73a7 b5bd 5cbb d8bd f04f 60bd
00000080: 64b5 83bd 6667 dcbd 5e0d f8bc 2dc4 4bbd
00000090: 3d8e 40bd 7f4c 763d 6629 8dbd 30f8 3dbd
000000a0: fc68 853d f6cf 61bd d8fa a43d bc45 debc
000000b0: 660a 823d 6b33 c6bd 3b65 de3c a8c4 643d
000000c0: d334 ee3d 4a70 7c3d 6909 ac3d 4728 de3c
000000d0: ff19 463a 58ca 7b3d c43a 323d 1e21 4b3d
000000e0: d105 ebb9 b8da 7a3d b359 4e3d 807a 9ebd
000000f0: cfac bc3d 92db 543d f97e ca3d 637e a33c
00000100: caab 3e3d 3c8f 95bd ba3e b1bd 7b08 a0bd
00000110: 74ba 903d f8ee e53d 2168 963d 0015 86bc
00000120: 3d2c a73d 906d bebd d20f d0bd 0c5c d13d
00000130: cee5 313d 8b53 e33b 7fdd fbbd 3b44 8e3d
00000140: 0362 59bd 45fa 2ebc fde6 903d b5ff 38bd
00000150: 0b1c 70bd 9a73 413d 7f1f 80bd 1012 9fbd
00000160: 3531 b33d 95d4 a5bd 9dfa d9bd d91f bb3d
00000170: 156d e23c 3751 dbbd a565 dd3d 775d 24bd
00000180: 1475 b0bd 4b5c 52bd 74ee 773d 3e0c 6b3c
00000190: f64e bc3d 6aa8 34bd 17c0 753d 704d 6abd
000001a0: 7f41 bcbd c365 c6bd d401 04bd c389 9cbd
000001b0: 1a2c a93d fcb7 953d 6d0a 35bd aede 1b3d
000001c0: e96f 8a3d 855b b13d daae a8bd 0756 4fbd
000001d0: 3276 9fbc 3ea4 b6bc 6b16 19bd b2a0 59bd
000001e0: 5ce5 22bc 1a13 10bd c3be bbbd 2918 b23c
000001f0: e64a b63d 732f f0bd 0751 6cbd aa08 98bc
0.05244888 0.10988006 -0.044864394 -0.10928275 -0.027627148 -0.06449794 0.03243503 -0.021449948
-0.09883666 -0.049066316 -0.0016657865 -0.080662735 0.012509822 -0.0667819 -0.10189851 0.09146024
0.08195716 -0.039771356 0.02680128 -0.1260862 0.016656151 0.12408905 -0.098552 -0.0444767
-0.12382838 -0.009748127 -0.056293044 -0.014398863 -0.073681615 -0.08869829 -0.10582611 -0.054763734
-0.06431082 -0.10761909 -0.030279811 -0.049747635 -0.04701065 0.060131546 -0.06892662 -0.04637927
0.06514165 -0.055129968 0.08055657 -0.027132861 0.063496396 -0.09677776 0.02714788 0.05585161
0.11631169 0.061630525 0.08400232 0.027118815 0.00075569743 0.061472267 0.043513075 0.04959213
-0.00044827026 0.061243743 0.050378513 -0.07738209 0.09212648 0.05196721 0.09887499 0.019957727
0.04655055 -0.073027104 -0.08654542 -0.078141175 0.07066813 0.1122722 0.0734408 -0.016367435
0.08162735 -0.09298241 -0.101592675 0.10222635 0.04343205 0.0069374493 -0.122981064 0.06946608
-0.053071987 -0.010679786 0.070753075 -0.045165736 -0.058620494 0.047229387 -0.062560074 -0.07767117
0.0874962 -0.080971874 -0.10643504 0.09136934 0.027639905 -0.1070885 0.10810403 -0.040128198
-0.08616081 -0.05135755 0.06053014 0.0143461805 0.09194748 -0.044105925 0.059997644 -0.057202756
-0.0919218 -0.09687378 -0.032228306 -0.076434635 0.08260365 0.07310483 -0.044199396 0.03805416
0.067596264 0.08660034 -0.08236475 -0.05061915 -0.01946554 -0.022295114 -0.037374895 -0.053131767
-0.009942379 -0.035174467 -0.09167244 0.021740036 0.089010045 -0.117278 -0.05769446 -0.018558819

exp_avg f4 [128, 53]
00000000: b000 08ba 84bf e838 2ddb d2b9 52cb fbb9
00000010: 93b3 3aba 7cac 06b9 3a87 bbb9 e2fe 59b9
00000020: 580d 82ba 2210 cab8 19ce 8bb9 8c9e 36ba
00000030: e438 73b9 4151 c9b9 b24b fcb9 9153 d0b9
00000040: 6bab 99b6 3afd 1eb9 6ab1 02ba 361a b9ba
00000050: 7e37 44b9 706e 26b9 3e34 5cb8 331a bfb8
00000060: 00aa ceb9 697b a3b8 0000 0000 0000 0000
00000070: 0000 0000 0000 0000 0000 0000 0000 0000
00000080: 0000 0000 0000 0000 0000 0000 0000 0000
00000090: 0000 0000 0000 0000 0000 0000 0000 0000
000000a0: 0000 0000 0000 0000 0000 0000 0000 0000
000000b0: 0000 0000 0000 0000 0000 0000 0000 0000
000000c0: 0000 0000 0000 0000 0000 0000 0000 0000
000000d0: 880d 31b9 810d 89ba b13c b2b9 c441 f6b9
000000e0: f774 cab9 e52c dcb8 8008 b038 0d97 4e38
000000f0: 8055 e8b8 e748 08ba 2cf9 3b37 5a6a 8239
00000100: 4b6f 20ba a7d9 e936 f6a8 48ba 1edc f1b9
00000110: 28f3 5639 6d61 e338 112e 4bba e28f 9eb9
00000120: 8e83 97ba 4b20 ebb9 704e ee38 1d82 f0b9
00000130: ea57 21b8 0c8d 34b9 a303 b138 0000 0000
00000140: 0000 0000 0000 0000 0000 0000 0000 0000
00000150: 0000 0000 0000 0000 0000 0000 0000 0000
00000160: 0000 0000 0000 0000 0000 0000 0000 0000
00000170: 0000 0000 0000 0000 0000 0000 0000 0000
00000180: 0000 0000 0000 0000 0000 0000 0000 0000
00000190: 0000 0000 0000 0000 0000 0000 0000 0000
000001a0: 0000 0000 594f 9aba 2a33 0ab9 4cfc 8db9
000001b0: 4468 1bba 8da1 34ba ffed ebb9 cc2e 3839
000001c0: 46eb 9439 29d2 78b9 788f 6bb9 b88f d8b7
000001d0: ad23 5537 de72 acb7 759d 35ba 2d0c c9b9
000001e0: f8eb 5139 cb3a aeb9 7c8a 7b38 cbd5 b9b9
000001f0: 0294 09ba 4f40 22ba abb3 32ba d8b1 ffb8
00000200: bfcf 6cb8 5316 95b9 2ebf 3dba f741 a0b8
00000210: 0000 0000 0000 0000 0000 0000 0000 0000
00000220: 0000 0000 0000 0000 0000 0000 0000 0000
00000230: 0000 0000 0000 0000 0000 0000 0000 0000
00000240: 0000 0000 0000 0000 0000 0000 0000 0000
00000250: 0000 0000 0000 0000 0000 0000 0000 0000
00000260: 0000 0000 0000 0000 0000 0000 0000 0000
00000270: 0000 0000 0000 0000 77c4 8539 c03e 5fba
00000280: bad3 e136 82e4 b5b9 5fa2 8038 d429 8bba
00000290: dc50 ab38 fec1 f438 2e23 68b9 aa19 0db8
000002a0: 9b24 d537 ccbc 01ba f7ed bcb9 dc66 f0b9
000002b0: 20e1 cfb9 d1f9 de38 fac9 07ba 91f7 1bb7
000002c0: 5676 14b8 9df0 01ba 9144 c2ba 9590 12ba
000002d0: df9b 6db9 b787 f339 7a3a 5fb9 ca85 d1b9
000002e0: d1a0 dab8 0000 0000 0000 0000 0000 0000
000002f0: 0000 0000 0000 0000 0000 0000 0000 0000
00000300: 0000 0000 0000 0000 0000 0000 0000 0000
00000310: 0000 0000 0000 0000 0000 0000 0000 0000
00000320: 0000 0000 0000 0000 0000 0000 0000 0000
00000330: 0000 0000 0000 0000 0000 0000 0000 0000
00000340: 0000 0000 0000 0000 0000 0000 635b a43a
00000350: 0161 db3a 097d 003a c960 db39 916d 2c36
00000360: 238c 473a 6cf7 8637 e633 6a39 6337 c2b8
00000370: 8b69 993a a7fc 6db7 025e 75b7 005c c139
00000380: 9410 1b39 32d8 ac3a 0afd 8a3a 4a9b 1a39
00000390: 5c7e 4537 6fe7 3b3a b8cb 413a 864f 933a
000003a0: 7864 b039 428f a539 3a37 9439 d3e8 9637
000003b0: 7bdf 8539 1d1e 8037 0000 0000 0000 0000
000003c0: 0000 0000 0000 0000 0000 0000 0000 0000
000003d0: 0000 0000 0000 0000 0000 0000 0000 0000
000003e0: 0000 0000 0000 0000 0000 0000 0000 0000
000003f0: 0000 0000 0000 0000 0000 0000 0000 0000
-0.0005188091 0.000110982946 -0.0004021762 -0.00048025936 -0.00071220956 -0.00012843491 -0.0003576817 -0.00020789684
-0.000992219 -9.6351156e-05 -0.000266657 -0.00069663743 -0.0002319548 -0.00038398246 -0.00048121583 -0.00039735113
-4.579711e-06 -0.00015162388 -0.0004985543 -0.0014122191 -0.00018712689 -0.00015872135 -5.250074e-05 -9.11247e-05
-0.00039418042 -7.7954326e-05 0.0 0.0 0.0 0.0 0.0 0.0
0.0 0.0 0.0 0.0 0.0 0.0 0.0 0.0
0.0 0.0 0.0 0.0 0.0 0.0 0.0 0.0
0.0 0.0 0.0 0.0 -0.00016885076 -0.0010456295 -0.00033996024 -0.00046969776
-0.00038615588 -0.0001049878 8.393917e-05 4.9254904e-05 -0.00011078548 -0.00051988516 1.1204083e-05 0.0002487477
-0.00061200996 6.969279e-06 -0.00076545717 -0.00046131102 0.00020499213 0.000108423505 -0.00077507 -0.0003024331
-0.0011559592 -0.00044846753 0.000113633345 -0.0004587331 -3.8467268e-05 -0.00017218682 8.440695e-05 0.0
0.0 0.0 0.0 0.0 0.0 0.0 0.0 0.0
0.0 0.0 0.0 0.0 0.0 0.0 0.0 0.0
0.0 0.0 0.0 0.0 0.0 0.0 0.0 0.0
0.0 -0.0011772915 -0.00013179766 -0.00027081592 -0.00059283176 -0.0006890528 -0.00045000014 0.0001756504
0.00028404052 -0.00023729414 -0.00022464793 -2.581613e-05 1.2704096e-05 -2.0557487e-05 -0.0006928065 -0.0003834678
0.00020019698 -0.0003323167 5.9972037e-05 -0.00035445238 -0.000524819 -0.00061893923 -0.0006816934 -0.000121924735
-5.6460263e-05 -0.00028436127 -0.0007238266 -7.6416814e-05 0.0 0.0 0.0 0.0
0.0 0.0 0.0 0.0 0.0 0.0 0.0 0.0
0.0 0.0 0.0 0.0 0.0 0.0 0.0 0.0
0.0 0.0 0.0 0.0 0.0 0.0 0.00025514115 -0.00085161254
6.7301708e-06 -0.00034693262 6.1337596e-05 -0.0010617324 8.168977e-05 0.000116709605 -0.0002213835 -3.364092e-05
2.5408624e-05 -0.00049490924 -0.00036035452 -0.00045853003 -0.00039649848 0.00010632317 -0.0005179938 -9.296361e-06
-3.539616e-05 -0.00049568136 -0.001482146 -0.00055910024 -0.00022660148 0.00046449687 -0.00021288721 -0.00039963267
-0.000104250044 0.0 0.0 0.0 0.0 0.0 0.0 0.0
0.0 0.0 0.0 0.0 0.0 0.0 0.0 0.0
0.0 0.0 0.0 0.0 0.0 0.0 0.0 0.0
0.0 0.0 0.0 0.0012539442 0.0016737283 0.0004901444 0.00041843046 2.5693773e-06
0.00076121296 1.608926e-05 0.00022335313 -9.2609574e-05 0.0011704428 -1.4185126e-05 -1.4625026e-05 0.00036880374
0.00014788128 0.001318699 0.0010603976 0.00014744434 1.1771535e-05 0.000716797 0.0007392722 0.001123891
0.0003364419 0.00031577988 0.00028269907 1.798981e-05 0.00025534243 1.5272812e-05 0.0 0.0
0.0 0.0 0.0 0.0 0.0 0.0 0.0 0.0
0.0 0.0 0.0 0.0 0.0 0.0 0.0 0.0
